checkpoint_actor.pth (torch_old, 39757 bytes, 4 tensors)

fc1.weight f4 [256, 33]
000000 9c 11 26 bd 1c 1c 07 bd cd 78 b0 3c 66 18 c5 39
       -0.040544137 -0.03298579 0.021541977 0.00037592946
000010 bb fc bb 3c 77 31 1c 3d 72 67 a3 3c f7 d3 4f 3d
       0.02294766 0.03813311 0.019946788 0.050739255
000020 cb 1e 16 3c 9b 4f 37 3d ea ef 26 bc c2 10 d6 3c
       0.009162615 0.044753652 -0.010189036 0.026131038
000030 3c fc 82 3b c1 37 a5 bc 59 f7 3b 3d 22 1f 89 bc
       0.003997354 -0.020168187 0.045890186 -0.016738478
000040 b4 91 fa bc 9e 79 0d b7 4f e3 34 bd fe 92 7e bd
       -0.030587055 -8.432571e-06 -0.04416209 -0.0621519
000050 b8 2a 64 bc 26 d9 a9 3c 3c 60 26 3c 10 37 7e 3d
       -0.013926201 0.020733427 0.01015478 0.06206423
000060 a7 bf 54 3d 5d a5 4a bd 00 86 4a bd fe c2 28 3d
       0.051940586 -0.04947411 -0.0494442 0.041201584
000070 62 fe 44 3c e0 10 b7 3c b5 e5 4b bd b0 cf 62 bd
       0.01202354 0.022346914 -0.049779613 -0.055373847
000080 45 73 ef bb 71 10 26 3e 32 4a 0e be 16 ee 87 ba
       -0.0073074424 0.1621721 -0.13895491 -0.0010370638
000090 12 d2 7f 3d 79 d4 63 bd c5 05 9d 3d bb 3b a2 bd
       0.062456198 -0.05562255 0.07667116 -0.07921549
0000a0 49 9f 5f 3d dc c7 e3 3b e9 dc 75 3d a7 92 6e bd
       0.054595266 0.0069513153 0.06002513 -0.058245327
0000b0 b0 48 0e 3d 7a 3c 0b 3d 06 f1 16 3e 0d 25 fb bd
       0.03473729 0.03399322 0.1474038 -0.12262926
0000c0 2b ac 84 3d 41 30 d1 3d 0a 47 aa bc 3f d9 3b 3d
       0.06478151 0.10214282 -0.020785827 0.04586148
0000d0 20 06 81 bc 0a 3e f3 3d cc bd 28 bd 7a b3 ed 3d
       -0.015749991 0.118770674 -0.04119663 0.11606498
0000e0 b8 10 1e bd 02 ca 30 bd 1c c6 82 3b 70 83 36 bd
       -0.038590163 -0.0431614 0.0039909016 -0.044558942
0000f0 1f 7c 44 be 10 39 4b bc c4 95 51 3d f4 df b0 3d
       -0.19187973 -0.0124037415 0.05116822 0.08636466
000100 82 88 3c 3d 63 5a e1 3c b0 9e 02 3e 93 68 e7 bd
       0.04602862 0.02750892 0.12755847 -0.11299243
000110 e6 04 90 bd 4d b6 8b bd 47 a8 31 3d e4 b2 85 3c
       -0.07032184 -0.068218805 0.043373372 0.016320653
000120 88 d3 4f 3c 23 6c 0a 3d 1f fc e3 bc 2f 52 f2 3d
       0.01268471 0.033794533 -0.027830182 0.118320815
000130 ba b2 48 3d 8c 7a d6 3a bd d1 8d bc 27 de 1c 3d
       0.048998572 0.0016363426 -0.017311925 0.0382978
000140 6d 7a b0 3c bd 58 03 be 81 56 77 bc a2 e5 55 3b
       0.021542752 -0.1282682 -0.015096308 0.0032638093
000150 f3 9d 2b bc 83 eb d7 bc cb 9d a6 3d 2a d6 24 bd
       -0.01047467 -0.026357418 0.08135565 -0.040243305
000160 b3 01 51 3d 07 45 8e bd b9 07 e6 bc bc b0 b4 3d
       0.05102701 -0.0694676 -0.028079854 0.08822772
000170 01 3d cc 3d b7 39 2a be b9 2f c6 3d a4 dd 16 bd
       0.09972573 -0.16623579 0.09677071 -0.036832467
000180 19 bf dc 3d 3e 67 6c 3d 4a c7 a0 bd 38 34 34 3d
       0.107786365 0.057715647 -0.07850511 0.043995112
000190 b2 ca 76 bd ec 53 98 bd 6d e1 6f 3d e7 d0 7e bc
       -0.0602519 -0.07437882 0.058564592 -0.015552736
0001a0 97 9c 85 3d 25 32 a3 bd e8 49 14 3c 6d fe 68 bd
       0.06524008 -0.07968549 0.009050824 -0.056883264
0001b0 13 74 1d 3c 2b e5 7b bd be 95 cf 3b 77 ae c8 bc
       0.009610194 -0.06149785 0.0063349893 -0.024497254
0001c0 64 12 17 3d b8 f7 3e 3d 55 42 b9 bd 46 5c c1 3c
       0.036882773 0.04662296 -0.09045855 0.02360357
0001d0 14 72 48 3c 2a 99 d8 bc 5e cd 97 3d e0 70 49 3d
       0.01223423 -0.026440222 0.074122176 0.04917991
0001e0 21 44 bb bd 83 62 00 3e 61 58 3d bd c9 94 c0 bb
       -0.09143854 0.12537579 -0.046226863 -0.0058771116
0001f0 57 ed ba 3d 96 94 c2 3d 3c 46 fc bd 45 f2 a5 bd
       0.091273 0.09500997 -0.12318084 -0.0810285
000200 88 61 0b 3c b6 d1 bd 3d a2 23 20 3d 72 35 3d bd
       0.00850714 0.09268515 0.039096482 -0.046193548
000210 39 77 89 bc 0d 0c b9 bc 1e b2 3f 3d 49 da e1 3c
       -0.016780483 -0.022588754 0.046800725 0.027569907
000220 d6 90 22 bd ae b4 0f bd c2 d5 7d 3d 40 06 b8 b8
       -0.039688908 -0.03508442 0.061971433 -8.774968e-05
000230 16 21 37 3d 5a 9c 2a 3d 7b ae c4 bb a0 7c 72 bc
       0.044709288 0.041653015 -0.006002245 -0.014800221
000240 dd 65 f0 3c 16 cf 6d bc f5 28 47 3c 61 98 6e bd
       0.029345447 -0.014514705 0.012155761 -0.05825079
000250 c5 4c f9 3b b9 32 a2 bb b5 d0 23 bb d6 a8 fa 3c
       0.0076080286 -0.0049498943 -0.0024996225 0.030598085
000260 f1 ea 7d 3c 74 95 a8 3b 17 28 94 bd 43 4f 71 3d
       0.015497909 0.0051447693 -0.07234209 0.05891348
000270 c0 a3 3a 3d d5 b4 e9 3c c2 11 15 bd 56 54 86 3d
       0.04556632 0.02852861 -0.03639389 0.065590546
000280 4f 9a 87 bc dc 5f 89 3c 03 08 ac 3c 96 b5 6b bd
       -0.016553072 0.016769342 0.020999914 -0.05754622
000290 be ac c9 bc 98 04 3b 3b fc c2 ce bc 4c a3 20 bc
       -0.024618503 0.0028536674 -0.02523946 -0.009804558
0002a0 eb 0c 4a 3d 38 8d 44 3d 35 92 df bc f9 f1 bc bc
       0.049328726 0.04798624 -0.027291397 -0.0230646
0002b0 b2 90 c7 3c 1b 18 84 3c d4 32 eb 39 b8 74 35 3d
       0.024360988 0.016124776 0.00044860563 0.044300765
0002c0 9a d2 37 3d d8 81 7d 3c 36 a7 ce 3c fa 96 7e 3c
       0.04487858 0.015472852 0.025226217 0.015538925
0002d0 e3 a8 88 39 2e cc b0 bc 28 bf 9f bc 26 58 ea bb
       0.00026065772 -0.021581735 -0.01950033 -0.0071516214
0002e0 8a d4 38 3c 16 9f 47 bd 60 df af 3c 42 ac aa bd
       0.011281142 -0.0487357 0.021468818 -0.08333637
0002f0 7a 8b 7e 3d 65 f2 68 3d 98 96 8f 3b 75 93 3b bd
       0.062144734 0.05687179 0.004381966 -0.045794923
000300 04 94 9a 3d a7 c5 03 3d 70 89 f4 3b 43 41 7c 3a
       0.07547763 0.032170918 0.007462673 0.0009622762
000310 cc cc 94 bc 3c c5 88 3c 8b be 0a 3e 0a 63 20 bd
       -0.018164061 0.016695611 0.13549249 -0.03915695
000320 ab 58 d7 bd 08 f9 ca 3d 53 f4 be bd 23 53 51 3d
       -0.10514959 0.0991078 -0.09323945 0.051104676
000330 02 f4 cd bd 09 ec 26 3d 84 dd 9d bd a1 27 ba 3d
       -0.100563064 0.040752444 -0.077082664 0.0908959
000340 90 bc 6b bd c8 d0 19 3c 5e 96 96 3c a1 7c 6c 3d
       -0.057552874 0.009388156 0.018382248 0.057736043
000350 f8 63 23 bd 98 9e 4d bd c6 8e a6 3d 9f 99 26 bd
       -0.03989026 -0.050200075 0.081327006 -0.04067385
000360 25 30 55 3c 53 73 97 3d 4f 20 3d 3e 41 a6 b2 3d
       0.013011967 0.07395043 0.18469356 0.08723117
000370 7b c0 bc 3d f1 d9 c8 bd 0d 96 98 bd ca fb 8e bd
       0.092164 -0.09807194 -0.07450495 -0.06981619
000380 62 41 fe 3d 1f c5 2a be 9c fb fc bd 70 02 84 3b
       0.124148145 -0.16676758 -0.12352678 0.004028611
000390 7c 1f c9 3d 18 ed 70 bd b7 ca ab bc 51 b1 85 3d
       0.09820458 -0.05881986 -0.020970685 0.06527961
0003a0 98 e1 c8 bd c8 63 d4 bd 3a 59 3b 3c d8 5b 3a 3b
       -0.098086536 -0.10370594 0.0114348475 0.002843609
0003b0 e2 08 d6 3c 6e 15 0a 3d ea 27 0f 3d 69 b3 73 bd
       0.026127283 0.033711843 0.034950174 -0.05949727
0003c0 f0 54 a9 3d 48 27 07 3d 64 36 c6 bd f4 11 66 bd
       0.08268154 0.032996446 -0.09678343 -0.056169465
0003d0 4c 38 b8 3d e7 1e 9c 3b 5b ac da 3c a4 0f 14 3d
       0.08995113 0.004764426 0.026693514 0.03614773
0003e0 ef 44 f2 bb 2e da 8b 3d b2 b5 95 3d 27 ca 04 3e
       -0.0073934714 0.06828724 0.07310046 0.1296774
0003f0 84 5f 00 3d 71 82 8b 3d 8f 2b 34 bd 2c 36 b0 bd
       0.03134109 0.06811989 -0.043986853 -0.086040825

fc1.bias f4 [256]
000000 69 93 b4 bd 56 91 75 3b 68 18 93 3e 21 3e 9f 3d
       -0.08817179 0.003747066 0.28729558 0.07775522
000010 5c 01 4b 3c 8d 9a 3f bd 91 ef 7f 3e 7c 2d 10 3e
       0.012390461 -0.04677825 0.24993731 0.14079851
000020 e7 94 de 3a 86 3b 98 3e f2 cf f8 3c d6 02 44 be
       0.0016981632 0.29732913 0.030372594 -0.19141707
000030 c7 af c4 3d 29 4a 16 bd 06 6a 7e bc c6 3d 2c bd
       0.09603839 -0.03669182 -0.015528208 -0.0420511
000040 ac 14 eb 3d 8e 3f 2f bb de 1d c6 3c cf c1 d1 bc
       0.11478552 -0.0026740762 0.024184164 -0.02560511
000050 f4 c1 b7 3c cd ae 11 3e c1 05 cf 3d 18 e5 da 3c
       0.022431351 0.14226837 0.10108519 0.026720569
000060 06 2e 5c 3d 8d c8 f1 3d 1d 7d fa bd 06 09 8b 3e
       0.05375483 0.1180583 -0.12230895 0.27155322
000070 81 6b e5 3d eb 3d 34 be 5e c1 85 3e 46 f5 88 bb
       0.11202145 -0.17601745 0.2612409 -0.0041796295
000080 98 53 52 3e 7d be 94 3e 5f d4 05 bd ff 9b 33 3e
       0.20539701 0.2905158 -0.032673236 0.17539977
000090 58 1a 78 3e 4b 1a 6b bd fc 67 48 bd 05 ce b2 3c
       0.242288 -0.05739812 -0.048927292 0.021826753
0000a0 c4 cb 70 bc 16 90 08 3d ec 95 e3 bb d5 49 df 3c
       -0.014697019 0.033340536 -0.0069453623 0.027256886
0000b0 2a b6 18 bd 67 45 99 3d 70 09 86 bd 59 97 68 3e
       -0.0372831 0.074839406 -0.06544769 0.22713985
0000c0 e3 66 32 bd 80 61 a5 3d 64 0a 94 bd b6 11 4a bd
       -0.04355515 0.08075237 -0.07228544 -0.049333297
0000d0 c9 7a a6 bb 37 38 2c 3e a0 3a 6b bd 87 80 10 3c
       -0.005080555 0.1681832 -0.057428956 0.008819706
0000e0 92 ef 8b 3e e2 99 bc 3d 36 3d 0f bc 04 5f 19 be
       0.27331215 0.09209038 -0.008742621 -0.14977652
0000f0 09 93 ce 3d 20 51 4e 3e 27 c2 c2 bb 21 08 c0 3d
       0.100866385 0.20148134 -0.005943555 0.093765505
000100 f5 88 5c bc 62 39 92 bc db 54 f6 bd 41 38 0c be
       -0.0134603875 -0.017849628 -0.12027904 -0.13693334
000110 e4 e8 e5 3d 23 61 bd bc 80 e4 cf 3d 28 ab a7 3b
       0.11226061 -0.023117607 0.10151005 0.005116839
000120 8e 70 ff 3c 4d ce 20 3e a7 ee 07 3e e3 02 06 be
       0.0311816 0.15703698 0.13274632 -0.13087039
000130 b7 c6 12 3e 8b 94 00 be e7 64 b3 bd ae 2e 07 3e
       0.14333616 -0.12556665 -0.0875948 0.132014
000140 53 ac 0e bd ba 70 00 3d b0 43 81 3d ec c6 cf 3d
       -0.03483231 0.031357504 0.063117385 0.10145363
000150 66 e6 04 3c 44 4e 0e 3e 43 b8 29 bc 61 95 85 3e
       0.008111572 0.13897043 -0.010358873 0.2609053
000160 f9 bd 59 3d 8b a0 03 be 7e a2 eb 3c 27 a2 1b bc
       0.053159688 -0.12854211 0.028764006 -0.009499109
000170 59 d0 3c 3e eb 18 d5 3d b0 10 cb 3b 4a 94 ee 3d
       0.18438853 0.10405143 0.0061970577 0.11649378
000180 99 da 06 3e 03 f9 0c be f5 c0 47 3d f7 da 9c bb
       0.13169326 -0.13766865 0.048768003 -0.004786845
000190 4d 3a 07 be 3f 7c 72 3c 7c e7 a5 3d 67 b2 05 3e
       -0.13205834 0.01480013 0.08100793 0.13056336
0001a0 32 26 47 be 4b 14 f1 bd 4e 6d ce 3d 11 57 98 3e
       -0.19448164 -0.11771449 0.10079442 0.29753926
0001b0 ad c1 fc 3d 0d 5d 22 be 8c 71 8f bc c4 55 60 bd
       0.12341628 -0.15855809 -0.017510198 -0.054769292
0001c0 45 20 28 be 43 29 03 bd d8 be 17 bd e2 dd 9d 3c
       -0.1641856 -0.032021772 -0.037047237 0.019270841
0001d0 3b 7a 8a 3e 56 18 c2 3d 09 32 b4 bd c1 1f 81 3d
       0.2704638 0.09477298 -0.08798606 0.06304885
0001e0 0e f1 c6 bc ab 91 81 3e 48 f2 2b 3e 9c ee 2d 3d
       -0.024284866 0.25306448 0.16791642 0.042463884
0001f0 06 02 4a bc c8 8d 5f 3d 0d 7b 21 be be 91 b8 3d
       -0.012329584 0.054578573 -0.15769596 0.09012173
000200 1a b2 a7 3c 8a 2a 2c 3e 19 d7 04 3e de d4 2d 3d
       0.020470668 0.16813102 0.12972678 0.042439334
000210 4e 88 df bd 62 f6 42 bd 6a 37 80 3d a0 7f 3b 3e
       -0.1091467 -0.04759825 0.062605694 0.18310404
000220 0b af 78 bd 01 e2 de 3d 0d f0 2d bd ea 48 71 3d
       -0.06071381 0.108829506 -0.04246526 0.058907427
000230 2e 56 2c 3c e8 64 80 3a 75 ef 06 be 58 aa 7e 3d
       0.010518594 0.0009795697 -0.13177283 0.06217417
000240 68 21 3b be b2 20 2e bd ee 79 53 3e 70 dd 21 3d
       -0.18274462 -0.04251165 0.20651981 0.03951782
000250 66 b6 d3 3c 78 43 e5 3c 71 1a a4 bc dd 26 85 3d
       0.02584381 0.027986273 -0.02003214 0.06501553
000260 0e 3c 9d bd 9b 29 04 3e b3 17 46 be 7f e9 93 3e
       -0.0767747 0.12906496 -0.19344978 0.2888908
000270 58 0d 0c be c6 32 48 3e 06 d9 73 3d 62 23 2d 3e
       -0.13676965 0.19550619 0.05953314 0.16908029
000280 5a d2 8a 3e 2e b6 89 3e 32 0e 4a 3d 7c cd 29 3d
       0.2711361 0.26896805 0.049329944 0.04145573
000290 47 fa 04 be 79 99 46 3e ef 4f 9d bc 2e 3e 32 be
       -0.12986098 0.19394483 -0.019203154 -0.17406532
0002a0 c7 b8 2e 3e fd af 0f 3e 81 70 1a bd 8a 1a 0c 3e
       0.17062674 0.14031978 -0.03770495 0.13681999
0002b0 33 0e 39 3e 0f 66 f7 bd ea 31 ad 3d ca 3a 52 3d
       0.18071823 -0.12080013 0.08456786 0.051325597
0002c0 e2 4a af ba ff 46 bb 3c 37 55 0d 3e 55 d1 01 be
       -0.0013373757 0.022861002 0.13802038 -0.1267751
0002d0 83 06 49 bd f4 18 29 3e 1f 84 da bd 67 b2 3f be
       -0.049078476 0.16513425 -0.10669731 -0.18720399
0002e0 31 b3 a3 3d 05 7d d8 3d 13 2c 06 bd c8 45 74 3e
       0.079931624 0.105707206 -0.032756876 0.23854744
0002f0 9a 06 f1 3d 6e ff 92 3e 76 7f 3f 3d aa c0 0b 3e
       0.11768837 0.28710502 0.046752416 0.13647714
000300 4f 0c 78 bc 45 83 f0 3d d7 a9 96 3d d1 3b d9 bc
       -0.015139653 0.11743788 0.07356613 -0.02651778
000310 58 bc 2b 3e 66 c4 7a 3c 56 08 28 be e4 56 d0 bd
       0.16771066 0.015305614 -0.1640943 -0.10172823
000320 ad 9b f5 3d 62 22 71 3d b2 76 8d 3b a8 d3 24 3e
       0.119925834 0.05887068 0.004317128 0.16096365
000330 d2 b4 5b 3e 4e 59 87 bd 59 4e 0a 3d b5 e7 82 bc
       0.21455696 -0.066088304 0.033766124 -0.015979627
000340 a0 4c 9b 3d 0a 83 9d ba 1c 3f 0e bd 34 d9 e3 bd
       0.075829744 -0.0012017202 -0.034728155 -0.111254126
000350 df 5f 04 3e 33 0b 61 bd 6e d6 dd bd 95 ce a9 3c
       0.12927197 -0.05494232 -0.10831915 0.020728389
000360 52 8f 84 3e 91 d5 81 bd f2 61 d3 3d 4d 62 1c 3e
       0.25890595 -0.06339563 0.10321416 0.15271874
000370 3c 2a c1 3d 98 41 9f 3d 76 5a 4d 3e 9e 11 a6 bd
       0.09431884 0.07776183 0.2005404 -0.08108829
000380 e1 81 33 3e 6b f4 d8 3d 4b bd 1f 3e 2c f8 9c bc
       0.17530014 0.10593494 0.15599553 -0.019161306
000390 25 05 87 bd f3 13 dd 3a c9 79 a3 bd b4 73 d8 3d
       -0.06592778 0.0016866907 -0.07982213 0.105689436
0003a0 bc 73 27 3d ba 5b 02 3d 1e 84 88 3d ce b2 21 3c
       0.040881857 0.03182576 0.06665824 0.0098692905
0003b0 1a 0c cd 3d 04 d2 cb 3d 52 bc 1b 3e 4c 2d 12 be
       0.10012074 0.09952167 0.15208557 -0.14275092
0003c0 21 6c 09 be 8d 51 1e 3d 2e 1a 4b 3e 99 a9 44 3e
       -0.13420154 0.03865199 0.19834206 0.19205321
0003d0 2f 5c e1 3c 32 9a 04 bd 02 28 7d 3e ba 7c 54 3d
       0.027509777 -0.032373615 0.24722293 0.05187676
0003e0 9d 64 b2 3c 8a 28 ed 3d cd 32 4f bd d6 18 28 be
       0.021776492 0.11579998 -0.050585557 -0.16415724
0003f0 16 59 64 bd 9c 52 09 3e 0f b9 ad 3d f5 84 a0 bd
       -0.05574902 0.13410419 0.08482563 -0.078378595

fc2.weight f4 [4, 256]
000000 65 e9 60 bc 36 82 b7 bc 2c ab 94 bc ee f6 b8 bc
       -0.013727521 -0.022400957 -0.018148027 -0.022578683
000010 bc 03 bd bc 70 93 88 bc 34 7e 97 bc 95 4c 80 bc
       -0.02307307 -0.016671866 -0.018492796 -0.015661517
000020 38 6b e7 bc ff 53 a6 bc d2 00 f3 bc ea c8 3d bc
       -0.028249368 -0.020303724 -0.029663477 -0.011583546
000030 4d c9 86 bc e2 d3 b1 bc 59 a3 4a bc 62 08 7d bc
       -0.01645341 -0.021707479 -0.012368047 -0.015443893
000040 1d 92 92 bc a1 68 bb bc 35 17 b8 bc c6 27 39 bc
       -0.017891938 -0.02287704 -0.022472003 -0.011300987
000050 8b 9a 63 bc 59 13 77 bc f2 52 90 bc 4c 79 97 bc
       -0.013891826 -0.015080296 -0.017617676 -0.018490456
000060 b8 5a ad bc 73 27 de bc 07 45 b2 bc 6f bd 99 bc
       -0.021161422 -0.02711842 -0.02176143 -0.018767087
000070 35 7e 31 bc cf d4 1c bc 2f f8 8e bc 29 24 79 bc
       -0.010833313 -0.009572222 -0.017452328 -0.015206375
000080 5c 22 ce bc df 27 9b bc 2e 10 8f bc b0 26 a2 bc
       -0.025162868 -0.01893991 -0.01746377 -0.019793838
000090 90 cc 8a bc 17 4b 0e bc 1b 84 b2 bc 9d af 04 bd
       -0.016943246 -0.008684895 -0.021791508 -0.03239404
0000a0 bf c9 19 bc 78 35 4e bc 23 c6 33 bc 5c 9a f0 bc
       -0.009386479 -0.01258599 -0.010972532 -0.02937048
0000b0 f0 fd 8e bc 9e f8 52 bc 4d 4b 86 bc 75 78 b6 bc
       -0.017455071 -0.012876658 -0.016393328 -0.022274235
0000c0 f1 c7 84 bc 33 7b 21 bc ea c5 3a bc 6e 74 91 bc
       -0.01620862 -0.009856033 -0.011399725 -0.017755713
0000d0 ce 87 ae bc 29 d6 76 bc c7 2e 61 bc b8 fb 8a bc
       -0.021304991 -0.015065708 -0.013744063 -0.016965732
0000e0 c2 d0 85 bc c8 65 e9 bc 0a ad e4 bc e7 78 27 bc
       -0.016334895 -0.028490916 -0.027914543 -0.010221696
0000f0 71 8a 5f bc e6 15 11 bd b8 21 74 bc 37 8f a9 bc
       -0.013643847 -0.035421275 -0.014900617 -0.020698173
000100 d2 69 3c bc 2e 6d 2c bd 78 d3 96 bc 17 0c 48 bc
       -0.011499839 -0.04209631 -0.018411383 -0.012209914
000110 bc 64 d6 bc 3a 06 b0 bc 53 20 5c bc b2 e7 8b bc
       -0.02617108 -0.021487344 -0.013435441 -0.017078254
000120 f0 b4 31 bc 0e d7 09 bd ad 28 e2 bc 8f d0 65 bc
       -0.0108463615 -0.033652358 -0.027607286 -0.014026775
000130 03 38 80 bc 88 ab 6d bc 9d 0c 17 bc ba d7 78 bc
       -0.015651708 -0.014506228 -0.009219316 -0.015188152
000140 a6 c6 1f bc a3 50 63 bc ce 5c 5d bc dd a1 42 bc
       -0.009751951 -0.013874206 -0.013510896 -0.0118794115
000150 d7 0a 26 bd f1 cc 86 bc fd 23 4f bc 7d e9 9d bc
       -0.04053768 -0.016455146 -0.012642858 -0.019276375
000160 40 a7 86 bc c0 e1 e6 bc 5d 4a 7a bc 88 b4 9c bc
       -0.016437173 -0.028183818 -0.015276519 -0.019129053
000170 f7 60 66 bc 73 57 4c bc 97 ba 91 bc 58 15 9f bc
       -0.014061204 -0.012472021 -0.017789168 -0.019419357
000180 1d 83 8e bc 3a fa 24 bc 00 15 7f bc 87 1e 9f bc
       -0.017396504 -0.010069424 -0.015568972 -0.019423736
000190 b0 05 19 bc fa c4 86 bc b4 ff 97 bc e4 b1 a7 bc
       -0.009339735 -0.016451348 -0.018554546 -0.020470567
0001a0 f7 59 7c bc f9 38 f0 bc 5f 8e 4c bc 68 02 93 bc
       -0.015402309 -0.029324042 -0.012485116 -0.017945483
0001b0 a3 de 47 bc 0f f7 a9 bc 3c 3d 8b bc 45 11 4c bc
       -0.012199077 -0.02074769 -0.016996972 -0.012455289
0001c0 ad bf 92 bc 89 a6 a7 bc bc 1b 46 bc 83 cd bb bc
       -0.017913664 -0.020465152 -0.012091573 -0.022925144
0001d0 46 bb af bc 23 f3 22 bd ce 32 40 bc 42 e5 e3 bc
       -0.021451604 -0.039782654 -0.011730863 -0.02781928
0001e0 75 2d 0a bc b5 03 a8 bc c8 01 8e bc b7 60 83 bc
       -0.008433689 -0.02050958 -0.017334834 -0.016037328
0001f0 d0 0b 80 bc e9 7e c0 bc f4 de 39 bc 19 e0 49 bc
       -0.015630633 -0.023498015 -0.01134466 -0.012321495
000200 f6 28 3c bd 29 6f 2b bd 7a 4b ea bc 34 61 9d bc
       -0.0459375 -0.041854057 -0.028600443 -0.01921139
000210 a1 ad 6e bc 6e 68 45 bc 15 4f b4 bc 1a 9d be bc
       -0.014567764 -0.012048824 -0.022010366 -0.023268271
000220 57 0c 11 bd 37 16 a9 bc dc 87 60 bc 43 0e b7 bc
       -0.03541216 -0.020640476 -0.013704266 -0.022345668
000230 80 79 e4 bc 3f d7 35 bc f0 87 3c bc 79 90 15 bd
       -0.027889967 -0.011098682 -0.011507019 -0.036514733
000240 c7 b7 d5 bb 76 db 80 bc 86 59 39 bc 30 21 7f bc
       -0.006522152 -0.015729647 -0.011312848 -0.015571877
000250 ad 6f a3 bc 65 65 62 bc 60 a0 a5 bc 8b ce d2 bc
       -0.019950712 -0.01381812 -0.020218074 -0.025733253
000260 fd 05 97 bb e7 c9 51 bc 7f 05 b4 bb 98 f6 ba bc
       -0.004608868 -0.012804485 -0.0054938192 -0.022822663
000270 df 86 37 bc 62 dd aa bc 27 90 f2 bc 0d 54 9c bc
       -0.011201589 -0.020857517 -0.029609753 -0.019083047
000280 2e d9 ae bc 93 4d e9 bc 7c d7 bd bc cf 0e c8 bc
       -0.021343794 -0.028479373 -0.02317404 -0.024421124
000290 d7 9d d7 bb 38 25 42 bc e7 a1 b3 bc fe 93 62 bc
       -0.0065800953 -0.011849694 -0.021927787 -0.013829229
0002a0 1b 40 f1 bc 11 ca 33 bc 1a 55 2e bc 89 84 83 bc
       -0.029449513 -0.010973469 -0.010640407 -0.016054409
0002b0 ed 7a 2f bc 92 b7 69 bc 7f 75 a5 bc c1 45 66 bc
       -0.01071046 -0.014264958 -0.020197628 -0.014054717
0002c0 55 d9 40 bc 98 53 79 bc 86 d3 55 bc ce 9c d9 bc
       -0.011770566 -0.015217684 -0.013050919 -0.026564028
0002d0 27 f2 c6 bb 86 9d 80 bc 65 9b 75 bc e4 68 80 bc
       -0.0060713473 -0.015700113 -0.014990662 -0.015675016
0002e0 a8 d3 eb bc e3 cb ae bc fb 7d 86 bc f6 dc 8c bc
       -0.028787449 -0.021337455 -0.016417494 -0.017195206
0002f0 aa 1e 49 bc 38 9f c9 bc 80 f0 15 bc be e6 fa bc
       -0.012275377 -0.024612054 -0.009151578 -0.030627605
000300 dd 28 91 bc 08 b4 8b bc 71 0f d2 bc f0 20 90 bc
       -0.01771968 -0.017053619 -0.025642129 -0.01759383
000310 13 65 83 bc 7c 94 2d bc fe 49 49 bc 26 42 cd bc
       -0.016039407 -0.010594483 -0.0122857075 -0.025055956
000320 b0 a9 8a bc 75 3b 38 bd 5d 37 85 bc 09 c7 27 bd
       -0.016926616 -0.044978578 -0.01626175 -0.0409613
000330 63 2e 5b bc 00 0a f8 bc 5b 0c 96 bc d1 7f 02 bd
       -0.013377759 -0.030278206 -0.018316438 -0.031860176
000340 f5 5a 78 bc 8f 74 4f bc 46 30 f0 bc 23 c4 69 bc
       -0.015158405 -0.012662067 -0.029319894 -0.014267954
000350 af ce 50 bc ce 18 74 bc e6 cf 27 bc 62 be 6e bc
       -0.01274459 -0.014898492 -0.010242438 -0.014571758
000360 ac 06 95 bc 6b 62 89 bc fe 79 89 bc a4 0d 94 bc
       -0.018191658 -0.016770562 -0.016781803 -0.01807291
000370 aa d7 cc bc 9c f0 51 bc 34 19 83 bc c1 f2 3c bc
       -0.02500518 -0.012813713 -0.016003229 -0.011532486
000380 81 0e 3b bc e4 06 c4 bb bd 27 ab bc b5 5f 11 bd
       -0.011417032 -0.0059822667 -0.020892972 -0.035491664
000390 13 f4 91 bc fa 0b 75 bc 17 03 07 bc b5 de e6 bc
       -0.017816579 -0.014956469 -0.008240483 -0.028182367
0003a0 5e 1a ce bc 2a 7f 8f bc f5 07 3b bc 41 4c b1 bc
       -0.025159057 -0.017516691 -0.011415471 -0.021642806
0003b0 75 81 a0 bc ba 31 1c bd 50 b1 32 bd 46 4e 34 bc
       -0.01959298 -0.03813336 -0.04362613 -0.01100499
0003c0 dd 66 6f bc 0c 98 83 bc a1 71 ab bc 04 88 92 bc
       -0.014611927 -0.016063713 -0.020928206 -0.017887123
0003d0 9f 77 53 bc 1d 63 f7 bc 10 09 1c bd 29 8d 4c bc
       -0.012906938 -0.030198628 -0.03809458 -0.012484827
0003e0 cc 5e a6 bc ca c6 59 bc 09 16 60 bc bb 51 86 bc
       -0.020308875 -0.013292024 -0.013677129 -0.016396394
0003f0 53 03 29 bd 66 86 66 bc 8f f9 2f bc 7f ec 17 bc
       -0.041262936 -0.014070129 -0.010740652 -0.009272694

fc2.bias f4 [4]
000000 d9 0d 1e 3c bc 53 7d bc 3c d6 9a 3d cd d3 b5 bc
       0.009646856 -0.015461858 0.07560393 -0.022195721
