checkpoint_critic.pth (torch_old, 89814 bytes, 9 tensors)

fcs1.weight f4 [128, 33]
0.17090023 0.09722766 -0.05763938 0.037557945 0.11079721 0.031016883 -0.029851317 -0.0012268694
-0.083684996 0.165105 -0.006364431 0.026385024 -0.02472308 -0.07975506 0.16651979 -0.022273777
-0.3974908 -0.05540088 0.28881633 -0.25401652 -0.083563544 -0.09229887 -0.031452447 0.09002559
-0.0049697454 0.02502554 0.06646868 -0.04306644 0.061958324 0.034565575 0.012304208 -0.040924683
0.67076516 0.12144756 -0.0020016378 0.1194993 -0.32190087 -0.3315964 0.24930967 0.33802584
-0.043881923 -0.012933355 -0.10621159 0.024508763 -0.02447303 0.08907903 -0.15411222 0.042832896
0.031014977 -0.018509444 0.12462128 -0.1903064 0.032894045 0.0109022 -0.014082171 -0.015160508
-0.13256234 -0.02827118 0.017110951 0.061563592 -0.003300336 -0.09457005 -0.08655142 0.059551295
-0.084935606 -0.41815507 0.17576842 0.19192937 -0.12277291 0.2227449 0.03460158 -0.011948152
0.2632571 0.0018045978 0.11794099 -0.061873555 0.065381795 0.013556566 -0.002914618 -0.17329043
-0.10317111 0.060768757 -0.3347856 0.06189793 0.026371092 1.3159289e-05 -0.01332206 -0.025806678
-0.014345853 0.016651131 -0.01427256 0.028218696 0.124765806 -0.065102994 -0.030749397 0.011896677
-0.042137966 0.007980928 -0.49588978 0.063056335 -0.033137724 0.133533 -0.3909702 0.09556528
-0.038329575 0.57639515 0.013788384 0.3414123 -0.034230497 0.0031050132 0.12040712 0.05691916
-0.03064686 0.018111417 0.037145074 -0.5648456 -0.14283676 0.01832033 0.120373055 -0.0023218375
0.031601544 0.0020664905 -0.051452618 -0.07183142 0.09140577 -0.04956149 0.07369072 -0.08004245
0.0043355003 -0.024467733 0.08217984 -0.10298566 0.030435817 -0.18155783 -0.07984915 -0.17381756
0.038179014 -0.15894933 -0.022534352 0.03992094 0.19701792 0.0073553943 -0.0025441207 0.03978477
0.0052676876 -0.040406164 0.2615613 0.23788215 0.033923052 -0.09092785 -0.21719149 -0.18842062
0.005928272 0.027508743 -0.006040924 -0.06648241 0.09226148 0.11922651 -0.0023817671 -0.08900799
-0.06877714 -0.050218623 -0.06295344 0.087351106 -0.16761906 -0.0711132 -0.012492442 0.11109444
-0.07576419 0.11138446 -0.11148407 0.4002856 -0.09804388 0.06488465 -0.056722794 0.032195855
-0.031921383 0.1873999 -0.12449541 0.15622611 -0.045588616 -0.0502615 0.094140686 -0.16535378
0.1434944 0.1991285 0.12473359 0.19200256 -0.015598433 0.091097586 0.011687686 0.07484493
0.08396492 0.053580865 0.036763914 0.07973998 -0.027420666 0.32812354 0.037358735 0.03816917
-0.068007134 0.19451904 0.07557819 0.021801012 0.15994939 0.023301609 0.17095757 -0.100040525
0.034883223 -0.039310712 -0.031102141 0.082630344 -0.071432196 0.035534523 -0.06719362 0.03270114
-0.35215867 -0.19541195 -0.023858527 0.075096734 0.04313011 0.093400456 0.010222068 0.00081147725
0.2041641 -0.049698606 -0.20882185 -0.043558598 -0.03417283 -0.04298225 -0.002715471 0.21711473
-0.067904 0.072637394 0.110495955 -0.13622628 0.30295968 0.076110475 0.005257067 -0.013860074
-0.043314658 0.0559886 -0.008505946 -0.01646598 -0.17758594 0.20713817 0.023507113 0.10643988
-0.06866181 -0.117656626 0.08946943 0.0068416744 -0.0065542744 0.0051970724 -0.0034815446 0.0667875
00000000: 7800 2f3e 4c1f c73d 4517 6cbd 5cd6 193d
00000010: a6e9 e23d 1e17 fe3c c08a f4bc e8ce a0ba
00000020: 0a63 abbd 4911 293e b88c d0bb 6825 d83c
00000030: 0f88 cabc 9f56 a3bd 2a84 2a3e 7f77 b6bc
00000040: ea83 cbbe 08ec 62bd bcdf 933e 740e 82be
00000050: 5d23 abbd 3107 bdbd 48d4 00bd 565f b83d
00000060: 3fd9 a2bb 5c02 cd3c bb20 883d 6f66 30bd
00000070: 03c8 7d3d a294 0d3d 9797 493c a4a0 27bd
00000080: 44b7 2b3f 80b9 f83d e92d 03bb 0dbc f43d
00000090: 31d0 a4be 01c7 a9be 094b 7f3e b911 ad3e
000000a0: 88bd 33bd 6ce6 53bc 7685 d9bd 9ac6 c83c
000000b0: aa7b c8bc 116f b63d 98cf 1dbe 8c71 2f3d
000000c0: 1f13 fe3c 1ea1 97bc 7139 ff3d aedf 42be
000000d0: e8bb 063d 249f 323c e8b8 66bc c863 78bc
000000e0: 6cbe 07be f698 e7bc 442c 8c3c 1b2a 7c3d
000000f0: 734a 58bb f1ad c1bd df41 b1bd 0fec 733d
00000100: b8f2 adbd 6c18 d6be a3fc 333e 2289 443e
00000110: 5d70 fbbd 3d17 643e 63ba 0d3d 2fc2 43bc
00000120: a2c9 863e 4188 ec3a 0c8b f13d 206f 7dbd
00000130: e4e6 853d 5c1c 5e3c 2d03 3fbb 0c73 31be
00000140: 604b d3bd a9e8 783d 0569 abbe af88 7d3d
00000150: 3008 d83c b7c6 5c37 c544 5abc 8768 d3bc
00000160: de0a 6bbc f467 883c 75d7 69bc e52a e73c
00000170: 3785 ff3d b854 85bd 29e6 fbbc 48ea 423c
00000180: dc98 2cbd 70c2 023c 44e5 fdbe ae23 813d
00000190: 6cbb 07bd e0bc 083e 3f2d c8be bbb7 c33d
000001a0: 79ff 1cbd a28e 133f ade8 613c 98cd ae3e
000001b0: 4735 0cbd 7a7d 4b3b 0298 f63d 1124 693d
000001c0: 200f fbbc 655e 943c 6f25 183d b999 10bf
000001d0: cd43 12be 8414 963c 2686 f63d f829 18bb
000001e0: 9f70 013d f56d 073b fbbf 52bd 5a1c 93bd
000001f0: f332 bb3d fd00 4bbd 29eb 963d 4ced a3bd
00000200: d010 8e3b 8e70 c8bc e74d a83d 25ea d2bd
00000210: 8954 f93c 4cea 39be f387 a3bd 3bfd 31be
00000220: 9961 1c3d 9dc3 22be f699 b8bc 2484 233d
00000230: 11bf 493e 8505 f13b 43bb 26bb 5bf5 223d
00000240: 919c ac3b ef80 25bd 5deb 853e 6197 733e
00000250: e6f2 0a3d 6138 babd 7267 5ebe 56f1 40be
00000260: f341 c23b 045a e13c f2f2 c5bb ee27 88bd
00000270: 96f3 bc3d 072d f43d 6c17 1cbb d249 b6bd
00000280: 07db 8cbd 0bb2 4dbd bced 80bd 23e5 b23d
00000290: 55a4 2bbe cca3 91bd 19ad 4cbc 7b85 e33d
000002a0: 412a 9bbd 891d e43d c351 e4bd 3cf2 cc3e
000002b0: 3bcb c8bd 3ee2 843d 2956 68bd cddf 033d
000002c0: ffbf 02bd c2e5 3f3e 73f7 febd bdf9 1f3e
000002d0: 21bb 3abd 01df 4dbd d5cc c03d 8052 29be
000002e0: 32f0 123e 57e8 4b3e 5374 ff3d 529c 443e
000002f0: 9290 7fbc 5f91 ba3d b57d 3f3c 4c48 993d
00000300: cdf5 ab3d 9c77 5b3d c295 163d b74e a33d
00000310: 4ea1 e0bc cfff a73e 7905 193d 4757 1c3d
00000320: 5347 8bbd 0030 473e bdc8 9a3d 0998 b23c
00000330: c6c9 233e 04e3 be3c 800f 2f3e 0ce2 ccbd
00000340: b6e1 0e3d 4504 21bd ebc9 febc 193a a93d
00000350: 0b4b 92bd a68c 113d cf9c 89bd a1f1 053d
00000360: 244e b4be 121a 48be f572 c3bc 51cc 993d
00000370: 33a9 303d bd48 bf3d 767a 273c 51b9 543a
00000380: 6510 513e c490 4bbd 65d5 55be 806a 32bd
00000390: cff8 0bbd 280e 30bd 0bf6 31bb 5353 5e3e
000003a0: 4111 8bbd eac2 943d b44b e23d e77e 0bbe
000003b0: 881d 9b3e cfdf 9b3d 7943 ac3b 5d15 63bc
000003c0: b66a 31bd 4d54 653d 865c 0bbc aae3 86bc
000003d0: 17d9 35be 071c 543e fd91 c03c 27fd d93d
000003e0: 909e 8cbd f5f5 f0bd c03b b73d 2030 e03b
000003f0: 3dc5 d6bb 344c aa3b a02a 64bb e3c7 883d

fcs1.bias f4 [128]
-0.082907885 -0.014780936 -0.13674448 0.0040113586 -0.15852813 -0.13976717 0.09271732 -0.048012443
-0.07328155 -0.031043345 -0.16842848 0.15863876 -0.0049496894 -0.025624186 -0.073026575 0.08845622
-0.13762705 0.06708133 -0.124944605 -0.069484726 -0.109125525 -0.10909459 -0.0226289 -0.12658463
-0.11639405 -0.16940631 0.046682835 -0.13347441 -0.02008048 -0.041906625 -0.14127542 -0.11585107
-0.014135735 0.12707932 -0.04600567 0.15093462 0.06390369 -0.13079521 0.053025242 -0.16499288
-0.099307664 0.1682113 0.1696921 -0.09946116 0.021104595 -0.17093374 -0.09463001 0.030360784
-0.16096348 -0.059313122 -0.083337925 -0.1301481 0.0927974 -0.113650866 0.1534078 0.032518327
0.057824597 -0.12535302 0.009403376 0.16057564 -0.088746935 -0.06898494 -0.06661819 -0.03597355
0.10395462 0.08797076 -0.061276443 0.12094765 -0.16007817 -0.05179863 -0.02756463 -0.007273731
-0.011102329 0.060608223 0.059125993 -0.14967367 0.07172487 0.017759802 0.11097776 -0.023719193
-0.15891522 0.04914942 -0.07182849 -0.11104086 -0.03142698 0.1366093 -0.14278658 -0.07029336
-0.1655981 -0.029070996 0.049336787 0.08600745 -0.054807466 0.12764679 0.0772577 0.1007409
-0.08886297 0.120051235 -0.044101954 0.12915033 0.1248854 -0.15142827 0.019788101 0.01978987
-0.030493734 0.121680535 0.06607705 -0.17091475 0.12165301 0.039170902 0.054342017 0.03213826
0.0097655365 -0.09045151 0.031845935 0.003720062 0.067705005 -0.035949793 0.13039544 -0.0050305338
-0.03066663 -0.06216716 0.15582968 -0.005750877 -0.06694816 -0.076777644 0.16653395 -0.15434536
00000000: 9ccb a9bd bd2b 72bc bf06 0cbe b771 833b
00000010: 3355 22be 201f 0fbe 94e2 bd3d b2a8 44bd
00000020: a314 96bd 9d4e febc 8478 2cbe 3372 223e
00000030: 0131 a2bb d0e9 d1bc f58e 95bd 8928 b53d
00000040: 1bee 0cbe f061 893d f5e2 ffbd 024e 8ebd
00000050: 347d dfbd fc6c dfbd 3e60 b9bc 679f 01be
00000060: 0160 eebd d978 2dbe 8036 3f3d 84ad 08be
00000070: d27f a4bc 48a6 2bbd 81aa 10be 5343 edbd
00000080: 9299 67bc 1521 023e 7170 3cbd 9b8e 1a3e
00000090: f0df 823d 2eef 05be ff30 593d e5f3 28be
000000a0: d161 cbbd 953f 2c3e c4c3 2d3e 4bb2 cbbd
000000b0: 8be3 ac3c 4109 2fbe 61cd c1bd 2eb7 f83c
000000c0: 9cd3 24be 51f2 72bd 13ad aabd 8b45 05be
000000d0: 900c be3d c9c1 e8bd ef16 1d3e f031 053d
000000e0: 7cd9 6c3d 8b5c 00be 9e10 1a3c f16d 243e
000000f0: f4c0 b5bd fa47 8dbd 1e6f 88bd 0059 13bd
00000100: 29e6 d43d 042a b43d 02fd 7abd 67b3 f73d
00000110: 88eb 23be cd2a 54bd 38cf e1bc 7a58 eebb
00000120: 8be6 35bc 5440 783d 192e 723d 0e44 19be
00000130: 7de4 923d 017d 913c 4f48 e33d c14e c2bc
00000140: acba 22be e750 493d d11a 93bd 6469 e3bd
00000150: 94b9 00bd 4fe3 0b3e a536 12be f7f5 8fbd
00000160: 8c92 29be 4c26 eebc 5f15 4a3d ad24 b03d
00000170: cb7d 60bd d7b5 023e 4939 9e3d 3f51 ce3d
00000180: cafd b5bd 6cdd f53d 40a4 34bd fc3f 043e
00000190: ebc3 ff3d 0310 1bbe a81a a23c 5e1e a23c
000001a0: ffcd f9bc a533 f93d 6853 873d 4704 2fbe
000001b0: 3725 f93d ab71 203d bc95 5e3d 68a3 033d
000001c0: a1ff 1f3c a43e b9bd e270 023d 49cc 733b
000001d0: eca8 8a3d 1740 13bd 6286 053e 2dd7 a4bb
000001e0: 9638 fbbc fea2 7ebd d191 1f3e da71 bcbb
000001f0: 1e1c 89bd 993d 9dbd e087 2a3e b60c 1ebe

bn1.weight f4 [128]
0.3995845 0.59658796 0.6573506 0.52197856 0.4519235 0.3468522 0.5582994 0.5442525
0.67378235 0.52713794 0.14035107 0.7948275 0.33929294 0.45809722 0.4125578 0.7262914
0.60957104 0.7710336 0.42057297 0.98478794 0.4865792 0.4115293 0.44370827 0.61148226
0.4185654 0.633558 0.8584465 0.7210091 0.69002277 0.7074432 0.7542973 0.70517975
0.6075787 0.47400147 0.89996487 0.60003537 0.43235114 0.6138845 0.72398585 0.6759521
0.51133436 0.61485875 0.4289784 0.50173616 0.55345565 0.39020532 0.3370387 0.70031595
0.75425875 1.0770031 0.62769234 0.75797504 0.7748147 0.4857989 0.85007215 0.0010688858
0.3522109 0.8467484 0.8282697 0.7936618 0.8791502 1.0653026 0.7630525 0.65473753
0.72026515 0.5725015 0.78657323 0.53162116 0.69153273 0.7387257 0.5273892 0.6274755
0.8627522 0.7472956 0.6661857 0.9474861 0.48422146 0.4678937 1.2650133 0.5036169
0.8940202 0.4976245 1.0434229 0.5680618 0.98972195 0.42255056 0.56511 0.44412845
0.39346355 0.64252263 1.3368254 0.5532519 0.4212648 0.5250879 0.77063644 0.9132023
0.44216698 0.62322366 0.7782306 0.4031256 0.8002458 0.3448367 0.61744624 0.83169806
0.5282625 0.62496394 0.6413621 0.6579115 0.8492239 0.7719981 0.58220935 0.56439245
0.4586421 0.67582643 0.4279809 0.36898127 0.7052904 1.171177 0.6534934 0.45330185
0.6801338 0.4233105 0.69315654 0.48660356 0.8265789 0.3806264 0.90507275 0.63162965
00000000: 5796 cc3e fdb9 183f 2148 283f 63a0 053f
00000010: 8462 e73e 9d96 b13e b6ec 0e3f 2254 0b3f
00000020: 007d 2c3f 83f2 063f 31b8 0f3e d179 4b3f
00000030: ceb7 ad3e b88b ea3e c73a d33e 3cee 393f
00000040: d90c 1c3f 7562 453f 5755 d73e 101b 7c3f
00000050: e920 f93e f8b3 d23e bb2d e33e 1a8a 1c3f
00000060: 344e d63e db30 223f 26c3 5b3f 0d94 383f
00000070: 55a5 303f ff1a 353f a119 413f a986 343f
00000080: 478a 1b3f 52b0 f23e 1964 663f eb9b 193f
00000090: 215d dd3e 8927 1d3f 2357 393f 320b 2d3f
000000a0: cfe6 023f 6267 1d3f 0fa3 db3e c871 003f
000000b0: 45af 0d3f fec8 c73e 5690 ac3e e847 333f
000000c0: 1a17 413f 3ddb 893f 72b0 203f a70a 423f
000000d0: 425a 463f a2ba f83e 549e 593f db19 8c3a
000000e0: fd54 b43e 81c4 583f 7c09 543f 6b2d 4b3f
000000f0: fd0f 613f d65b 883f 6957 433f e19c 273f
00000100: 4c63 383f 758f 123f dd5c 493f 5318 083f
00000110: 4a08 313f 211d 3d3f fb02 073f 3ca2 203f
00000120: 54dd 5c3f c44e 3f3f 258b 2a3f 738e 723f
00000130: e0eb f73e c38f ef3e f5eb a13f 0aed 003f
00000140: 82de 643f a3c8 fe3e e28e 853f 806c 113f
00000150: 6b5e 7d3f 8c58 d83e 0dab 103f ce64 e33e
00000160: 0e74 c93e 5d7c 243f 181d ab3f eba1 0d3f
00000170: 05b0 d73e 296c 063f 6e48 453f a0c7 693f
00000180: b663 e23e 968b 1f3f 1f3a 473f 7b66 ce3e
00000190: e9dc 4c3f 708e b03e f510 1e3f 2aea 543f
000001a0: 363c 073f a3fd 1f3f 4e30 243f e36c 283f
000001b0: bd66 593f aba1 453f ac0b 153f 067c 103f
000001c0: 23d3 ea3e f602 2d3f 5020 db3e 1deb bc3e
000001d0: e98d 343f 21e9 953f 584b 273f 2e17 e83e
000001e0: 401d 2e3f 27bc d83e b572 313f 1a24 f93e
000001f0: ad9a 533f 77e1 c23e d9b2 673f 7bb2 213f

bn1.bias f4 [128]
-0.033367734 -0.118055545 -0.006413483 -0.17710605 -0.018818038 -0.18060271 0.19227436 -0.12656806
0.011947914 -0.27156824 0.18591419 0.079405576 0.2687118 -0.079152994 -0.12008303 -0.3136319
-0.12148873 -0.021803048 -0.035358023 -0.20169127 0.0014074562 -0.10975933 -0.32716262 -0.27081946
0.14713761 0.19648874 -0.25462297 -0.2615783 0.08324419 -0.12045678 -0.28350142 -0.039534908
-0.12920704 -0.13931607 -0.17485894 -0.20458178 -0.1310909 -0.3403605 -0.2006864 -0.35980013
0.03867096 0.062657274 -0.20337245 -0.32305026 -0.32102916 0.040181227 -0.08725712 -0.06518109
-0.119270444 -0.016594961 -0.047881655 -0.18356907 0.08756083 -0.09007531 -0.2566472 -0.01065799
0.097142115 -0.3132146 -0.21077293 -0.22769472 -0.22203976 -0.37442875 0.022457857 -0.18003
-0.13329013 -0.087511174 -0.34272224 -0.070448525 -0.29853615 -0.15136954 -0.45453483 0.14695841
0.06583523 -0.18829642 -0.24647048 -0.22949675 -0.07911719 -0.122039594 -0.13810202 -0.2525724
-0.2652452 -0.11253868 -0.217248 0.03382123 -0.016166741 0.053657133 0.1313599 -0.011425013
-0.13956231 -0.27814174 -0.13576795 0.039764527 -0.22506219 -0.15332156 -0.121948145 -0.26777148
-0.17275813 -0.04623567 -0.18579485 0.05252077 0.032492615 -0.15929703 -0.14941934 -0.39659926
-0.089104384 -0.08433284 -0.2880533 -0.34060612 0.06242645 0.10296744 -0.057949178 -0.13289748
-0.27041754 -0.1150222 -0.16327398 0.12740996 -0.2739016 -0.3669347 0.27472317 -0.19499934
-0.018980453 0.12589133 -0.13550693 -0.18439656 -0.04181593 -0.2318078 -0.1585282 -0.11234287
00000000: 9bac 08bd 1bc7 f1bd 3228 d2bb 4a5b 35be
00000010: 4928 9abc ebef 38be 92e3 443e 0f9b 01be
00000020: 2fc1 433c fe0a 8bbe 4a60 3e3e 649f a23d
00000030: 9894 893e f71a a2bd 17ee f5bd 5c94 a0be
00000040: 15cf f8bd 4e9c b2bc 93d3 10bd 2888 4ebe
00000050: 657a b83a 80c9 e0bd dc81 a7be d9a8 8abe
00000060: 3eab 163e 5834 493e f15d 82be 97ed 85be
00000070: ee7b aa3d 0bb2 f6bd 1927 91be 5bef 21bd
00000080: da4e 04be dfa8 0ebe 390e 33be e37d 51be
00000090: b13c 06be bb43 aebe bc80 4dbe b937 b8be
000000a0: 7165 1e3d 7552 803d de40 50be d866 a5be
000000b0: ef5d a4be 1295 243d dcb3 b2bd aa7d 85bd
000000c0: 1044 f4bd 28f2 87bc 8e1f 44bd 88f9 3bbe
000000d0: 1853 b33d 6779 b8bd 4367 83be da9e 2ebc
000000e0: 72f2 c63d aa5d a0be dcd4 57be ce28 69be
000000f0: 645e 63be 20b5 bfbe 8af9 b73c c959 38be
00000100: 357d 08be 0f39 b3bd 4a79 afbe 5147 90bd
00000110: bbd9 98be 9e00 1bbe cab8 e8be 447c 163e
00000120: 9fd4 863d c7d0 40be c262 7cbe 3201 6bbe
00000130: 3108 a2bd e5ef f9bd 9e6a 0dbe 2b51 81be
00000140: 38ce 87be ae7a e6bd 4276 5ebe 2188 0a3d
00000150: 1d70 84bc 95c7 5b3d 3683 063e fa2f 3bbc
00000160: 6ce9 0ebe 9868 8ebe c106 0bbe 21e0 223d
00000170: b476 66be 5400 1dbe f3bf f9bd 5819 89be
00000180: 82e7 30be 9d61 3dbd 0141 3ebe 0520 573d
00000190: fa16 053d c31e 23be 6201 19be 0f0f cbbe
000001a0: 5c7c b6bd b2b6 acbd b97b 93be ed63 aebe
000001b0: e1b2 7f3d 98e0 d23d 1e5c 6dbd 4716 08be
000001c0: 2b74 8abe c290 ebbd 4b31 27be c277 023e
000001d0: d53c 8cbe ddde bbbe 84a8 8c3e e8ad 47be
000001e0: e57c 9bbc a8e9 003e 54c2 0abe 74d2 3cbe
000001f0: 2e47 2bbd 065f 6dbe 3755 22be 0514 e6bd

bn1.running_mean f4 [128]
-0.44537553 -0.5603779 -0.1489883 -0.5975446 -0.61127746 -0.74916935 0.42772657 -0.54867536
-0.31538886 -0.9175725 0.38883826 0.022164749 0.20844075 -0.52736133 -0.004126796 -0.19106501
0.31139156 -0.07553094 0.054974742 0.17240775 -0.030866014 0.34259048 0.34850848 -0.46601063
0.43582228 -0.04321989 0.06823013 -0.339943 -0.19737712 0.62520075 -0.24894172 -0.46846914
-0.49226287 0.45296443 0.3777178 0.0013781466 0.105496824 -0.026577165 0.25807324 -0.5127214
0.40606156 0.104049556 -0.387676 -0.9168716 -0.08342799 -0.05975601 -0.16745314 0.36167753
-0.49218068 -0.41834632 0.730494 -0.98270035 0.9203359 -0.23407426 -0.72394127 0.22630146
0.12004035 -0.46211007 -0.5662022 0.050426833 0.1916252 -0.10627475 0.6906262 0.23072708
-0.052927617 0.5771986 -0.20066082 0.27643162 -0.48895887 -0.0044150823 -0.41878322 0.74681526
0.08180814 0.581912 -0.34504637 -0.08100269 0.5096434 0.19243003 0.030060591 -0.00031715885
0.054390028 -0.10753612 -0.30590597 0.3898485 0.204635 0.26288614 -0.96239716 -0.18317346
-0.018666288 -0.47275263 0.10871216 -0.63337034 0.27719298 0.10052948 -0.44092616 -0.15216236
0.17970394 0.08244246 0.32504466 0.2021015 0.09145845 -0.6463362 -0.1631962 0.2669686
-0.33616385 0.31135827 -0.88861144 -0.36132705 0.39105725 -0.1267376 0.20286302 -0.23135898
-0.9713154 0.81934464 -0.3198815 -0.15663008 0.14408635 -0.1475439 0.16568507 -0.10647538
0.11356154 0.20532745 0.6055085 -0.46942335 -0.3262385 -0.39949453 0.9240191 -0.045298234
00000000: 4308 e4be ed74 0fbf 6490 18be aff8 18bf
00000010: ae7c 1cbf 90c9 3fbf fafe da3e fd75 0cbf
00000020: a67a a1be 08e6 6abf cf15 c73e d992 b53c
00000030: 7e71 553e 2701 07bf 133a 87bb 8ca6 43be
00000040: b76e 9f3e f7af 9abd 322d 613d a88b 303e
00000050: b9da fcbc 0568 af3e b46f b23e f298 eebe
00000060: 1924 df3e 5707 31bd 3dbc 8b3d 020d aebe
00000070: 3a1d 4abe 280d 203f 94ea 7ebe 30db efbe
00000080: e109 fcbe f4ea e73e 3a64 c13e eda2 b43a
00000090: b80e d83d 5bb8 d9bc 2d22 843e b641 03bf
000000a0: 4de7 cf3e ef17 d53d 787d c6be 19b8 6abf
000000b0: 4bdc aabd b8c2 74bd d678 2bbe cc2d b93e
000000c0: 1bff fbbe 7d31 d6be a801 3b3f 4092 7bbf
000000d0: 229b 6b3f 2ab1 6fbe 3754 39bf 92bb 673e
000000e0: b7d7 f53d b199 ecbe a1f2 10bf 5e8c 4e3d
000000f0: 6539 443e 93a6 d9bd e1cc 303f b843 6c3e
00000100: a1ca 58bd 4ac3 133f 087a 4dbe 7288 8d3e
00000110: d158 fabe 65ac 90bb c16a d6be 492f 3f3f
00000120: 078b a73d 2ff8 143f eba9 b0be bde4 a5bd
00000130: fd77 023f 610c 453e a141 f63c 5748 a6b9
00000140: 14c8 5e3d e63b dcbd b59f 9cbe 399a c73e
00000150: d68b 513e 0399 863e a95f 76bf d391 3bbe
00000160: 0bea 98bc a20c f2be 7ba4 de3d 8f24 22bf
00000170: 3dec 8d3e 66e2 cd3d 13c1 e1be 73d0 1bbe
00000180: 4f04 383e 98d7 a83d 416c a63e b2f3 4e3e
00000190: 914e bb3d 4a76 25bf e81c 27be 1cb0 883e
000001a0: ab1d acbe 5a6a 9f3e 0a7c 63bf dcff b8be
000001b0: a838 c83e 80c7 01be 53bb 4f3e 5ee9 6cbe
000001c0: 20a8 78bf 92c0 513f 82c7 a3be a363 20be
000001d0: 5f8b 133e c015 17be 59a9 293e c40f dabd
000001e0: f492 e83d 5c41 523e 9b02 1b3f 4258 f0be
000001f0: bc08 a7be 8c8a ccbe 848c 6c3f a48a 39bd

bn1.running_var f4 [128]
0.6407008 0.36262277 0.23965761 0.45634985 0.5256107 0.52085346 3.3288257 0.54589134
0.7209992 0.41677064 0.8419779 3.5115373 1.4738549 0.3714561 0.25289634 0.3754049
0.8858518 0.43768233 0.21773295 0.621471 1.3250067 0.6805682 0.32792607 0.31585556
1.1871682 0.30451265 0.39711553 0.32958964 0.55406976 0.49183106 0.31771648 0.43538532
0.22887859 0.278142 0.48687008 0.66951114 0.54630876 0.3845175 0.28437442 0.19384895
0.41493934 0.46599028 0.6736605 0.6280386 1.4268936 1.0132035 0.40129167 1.5486243
0.4617167 0.7198162 0.8954567 0.4190122 0.87159103 0.5752888 0.9361356 0.48822126
1.8637295 0.48639008 0.41821656 0.5615936 0.1353201 0.40847632 0.62545127 0.44299108
0.2529958 0.38959253 0.21337713 1.065667 0.29293826 0.47610345 1.0417317 0.94074374
2.8951433 0.8193443 0.35959825 0.73293227 1.2505294 0.3163535 0.49966615 0.33076158
0.64340246 0.70809436 0.753784 0.73836803 0.51170355 0.24607605 1.3187985 0.34920374
0.36951193 0.3138859 0.59119695 1.5367138 0.46278223 0.2342946 0.3673132 0.45181155
0.5903043 0.33358163 0.75141805 0.40699106 0.4805703 0.4391965 0.1704708 0.60056007
0.6526489 0.30363685 0.8607099 0.32838997 1.6612618 0.70002234 2.1361036 0.9975874
0.38841715 0.6605873 0.42332035 1.6251422 1.0350331 0.4834787 3.046327 0.7696503
0.9498007 1.7498355 0.40698394 0.9665365 0.24688976 1.0358306 0.81863946 0.3828226
00000000: f804 243f b1a9 b93e ce68 753e b0a6 e93e
00000010: 6c8e 063f a756 053f 7b0b 5540 89bf 0b3f
00000020: 6793 383f f662 d53e dd8b 573f 07bd 6040
00000030: 47a7 bc3f 7e2f be3e a17b 813e 1235 c03e
00000040: 2fc7 623f e617 e03e 63f5 5e3e b918 1f3f
00000050: d299 a93f b839 2e3f ede5 a73e d2b7 a13e
00000060: 21f5 973f 15e9 9b3e ba52 cb3e f9bf a83e
00000070: 84d7 0d3f 48d1 fb3e bcab a23e d3ea de3e
00000080: 265f 6a3e a168 8e3e 0947 f93e 1565 2b3f
00000090: e4da 0b3f 7adf c43e 8699 913e 5780 463e
000000a0: ee72 d43e 4796 ee3e 0475 2c3f 23c7 203f
000000b0: 73a4 b63f a7b0 813f 1a76 cd3e 5239 c63f
000000c0: 2266 ec3e e045 383f a63c 653f c488 d63e
000000d0: 9720 5f3f 2046 133f 95a6 6f3f 23f8 f93e
000000e0: b08e ee3f 1f08 f93e 7b20 d63e 99c4 0f3f
000000f0: 5a91 0a3e cf23 d13e 931d 203f bacf e23e
00000100: aa88 813e ac78 c73e 897f 5a3e c767 883f
00000110: 01fc 953e d5c3 f33e 7757 853f 95d4 703f
00000120: 074a 3940 8cc0 513f 431d b83e 73a1 3b3f
00000130: 5911 a03f 16f9 a13e 3ed4 ff3e 9559 a93e
00000140: 06b6 243f ac45 353f fdf7 403f b005 3d3f
00000150: 01ff 023f 5cfb 7b3e 64ce a83f d5ca b23e
00000160: ab30 bd3e a7b5 a03e af58 173f 0ab3 c43f
00000170: cbf1 ec3e ecea 6f3e 7a10 bc3e d853 e73e
00000180: 2f1e 173f 36cb aa3e ef5c 403f 2261 d03e
00000190: 4f0d f63e 5dde e03e e68f 2e3e 4ebe 193f
000001a0: 0014 273f 4a76 9b3e 7c57 5c3f bb22 a83e
000001b0: 3aa4 d43f aa34 333f ecb5 0840 e361 7f3f
000001c0: 9dde c63e 401c 293f 72bd d83e a904 d03f
000001d0: f77b 843f 858a f73e 06f7 4240 cd07 453f
000001e0: 2426 733f 9cfa df3f 3360 d03e f06e 773f
000001f0: abd0 7c3e 1996 843f 5b92 513f 5301 c43e

fc2.weight f4 [128, 132]
0.29794353 -0.022514777 -0.021963192 -0.15786909 0.079364784 0.14266355 -0.04964294 0.10750516
0.091627374 -0.09059721 0.12911974 0.060284145 0.25797462 -0.0102219945 0.010649076 -0.06800992
-0.1468755 0.10866789 -0.39316505 0.22040814 -0.118280046 0.020264603 -0.13997956 0.12149913
-0.07036248 0.028931564 -0.055334084 0.03329293 -0.017051646 -0.09869573 -0.15587181 -0.032731593
-0.025099926 0.11380505 -0.021805288 -0.08434618 -0.027236346 0.09157169 -0.18450072 -0.08830222
0.0039900523 -0.008787194 0.011556283 0.039274417 -0.085927464 0.0023833567 -0.21263081 -0.015153587
-0.42005447 0.050716233 -0.05118493 -0.12616861 0.17753431 -0.10139127 0.01494838 0.072030425
-0.09660513 0.18596736 0.006543389 0.06492345 -0.15110973 0.076603666 0.061137848 0.20443577
-0.14744726 0.0763366 0.0019378333 0.023419008 -0.033722505 0.029981751 0.053513262 0.018552082
0.06282351 -0.30403477 0.12684172 0.05587915 0.10413997 -0.379803 0.04237175 -0.028421763
0.03582711 0.010569758 -0.00626882 0.040854827 -0.023721805 -0.14550498 -0.105380386 -0.12551571
0.072566085 0.08620926 0.0015026552 0.12360073 0.033426516 -0.053665675 0.13293636 -0.022732286
0.07164131 -0.1167934 -0.24517137 0.076932184 -0.23147628 -0.38772565 -0.41558507 -0.00072198565
-0.24335851 -0.20655678 -0.0737306 -0.42457044 0.087962665 -0.022549402 -0.05812963 0.100529894
0.17309482 0.06754426 -0.11913589 -0.05302346 0.07469125 -0.15881701 0.0016458621 0.011708949
0.06545306 -0.005358712 -0.005127016 -0.27408215 -0.14850505 -0.073909976 0.01191386 0.034829084
-0.0026374734 0.006308017 0.05500471 0.0391771 -0.054335147 -0.064705156 -0.004821665 -0.032757506
-0.0044482513 0.043941967 0.056651127 -0.06768311 -0.40988338 -0.04773292 -0.027609194 0.12146962
-0.22558331 0.01626756 -0.06665326 0.18457356 0.1872805 -0.102286935 0.11634044 0.045768842
0.02116647 -0.063102946 -0.050513815 -0.029064624 0.061545294 0.081319906 0.0508028 -0.046737336
-0.1449185 0.17509425 0.061503816 -0.1668695 -0.10604118 -0.01056104 -0.21445031 -0.090155035
0.090787865 0.09916833 -0.10206995 0.10831097 0.20973136 0.013370598 0.16442233 0.059853725
-0.09531906 -0.19055273 -0.28195515 -0.12922251 -0.14591993 -0.34771287 0.13916291 -0.006466991
0.014269496 0.034328125 0.006458802 -0.039371796 0.32968652 -0.04556084 0.015146751 -0.07115303
0.050815243 -0.026677864 -0.18748789 -0.4152993 -0.028984355 -0.054852065 0.17940947 0.052440774
0.022453578 -0.00906382 0.03535026 -0.031954538 -0.07027607 -0.059213344 0.123760946 -0.007859686
-0.22493792 -0.0013708989 0.04678468 -0.06850001 -0.17793941 -0.063049994 -0.2909289 -0.2613572
-0.023919826 -0.16622809 -0.0924824 -2.7811653e-05 0.00999085 0.11934634 -0.15275308 0.14126058
-0.046466824 -0.18292159 0.1891882 -0.11908672 0.17481472 0.106931575 -0.11161629 0.1950023
-0.11555193 -0.05319727 -0.19151339 -0.43292838 -0.15495063 0.10189566 -0.07230653 -0.13413978
0.057657108 -0.102630675 0.096981004 0.14493679 0.06252011 -0.059954192 -0.20052466 -0.004957692
0.20467465 0.061311938 -0.062970795 0.11433987 -0.04632881 0.014943483 -0.0916891 -0.17116891
00000000: 0e8c 983e e970 b8bc 27ec b3bc 6fa8 21be
00000010: 018a a23d 6516 123e 6556 4bbd aa2b dc3d
00000020: 22a7 bb3d 088b b9bd f737 043e 82ec 763d
00000030: 4015 843e 277a 27bc 7679 2e3c c948 8bbd
00000040: 8866 16be 458d de3d ee4c c9be acb2 613e
00000050: cf3c f2bd f401 a63c cd56 0fbe 89d4 f83d
00000060: 341a 90bd e301 ed3c fea5 62bd 2b5e 083d
00000070: e5af 8bbc fd20 cabd dc9c 1fbe 9011 06bd
00000080: 5c9e cdbc 9f12 e93d 01a1 b2bc b1bd acbd
00000090: c21e dfbc f089 bb3d c2ed 3cbe cbd7 b4bd
000000a0: fcbe 823b 2af8 0fbc 9056 3d3c 36de 203d
000000b0: bdfa afbd 1732 1c3b e4bb 59be c046 78bc
000000c0: 6111 d7be d3bb 4f3d 4aa7 51bd 5832 01be
000000d0: 8ecb 353e 3aa6 cfbd 0dea 743c b084 933d
000000e0: e9d8 c5bd 3a6e 3e3e ed69 d63b 96f6 843d
000000f0: 82bc 1abe 62e2 9c3d ae6b 7a3d 9c57 513e
00000100: 6afc 16be 5d56 9c3d e5fe fd3a 38d9 bf3c
00000110: 9c20 0abd 4a9c f53c b930 5b3d 89fa 973c
00000120: 9da9 803d 72aa 9bbe cce2 013e 89e1 643d
00000130: 5647 d53d 8a75 c2be 008e 2d3d c2d4 e8bc
00000140: 73bf 123d c72c 2d3c ac6a cdbb 6457 273d
00000150: 3b54 c2bc 42ff 14be acd1 d7bd 3187 00be
00000160: 879d 943d 7b8e b03d bef4 c43a 6122 fd3d
00000170: 3eea 083d 8ad0 5bbd 7820 083e 0f39 babc
00000180: aeb8 923d 6131 efbd 340e 7bbe 9f8e 9d3d
00000190: 1e08 6dbe fa83 c6be 91c7 d4be a343 3dba
000001a0: f932 79be 9f83 53be 1200 97bd 4c61 d9be
000001b0: c525 b43d 86b9 b8bc 5619 6ebd 9ee2 cd3d
000001c0: c53f 313e a554 8a3d 84fd f3bd 212f 59bd
000001d0: baf7 983d eda0 22be f8b9 d73a e4d6 3f3c
000001e0: 410c 863d 2298 afbb 8700 a8bb 7f54 8cbe
000001f0: b511 18be 1d5e 97bd 5a32 433c f1a8 0e3d
00000200: 76d9 2cbb 7bb3 ce3b 9e4c 613d 2b78 203d
00000210: 888e 5ebd 2384 84bd 0fff 9dbb bc2c 06bd
00000220: a3c2 91bb 7efc 333d 030b 683d 719d 8abd
00000230: 3cdc d1be 9883 43bd ad2c e2bc 10c5 f83d
00000240: 50ff 66be 8c43 853c 8181 88bd da00 3d3e
00000250: 76c6 3f3e d07b d1bd e643 ee3d 1c78 3b3d
00000260: 4e65 ad3c 1e3c 81bd 93e7 4ebd ef18 eebc
00000270: eb16 7c3d 0d8b a63d 9916 503d a66f 3fbd
00000280: 8465 14be e84b 333e 6deb 7b3d d7df 2abe
00000290: 1e2c d9bd 3608 2dbc dd98 5bbe 34a3 b8bd
000002a0: fdee b93d c418 cb3d 0d0a d1bd 24d2 dd3d
000002b0: d1c3 563e 5a10 5b3c 545e 283e 2e29 753d
000002c0: a436 c3bd 4120 43be 6d5c 90be e852 04be
000002d0: 096c 15be 6c07 b2be b980 0e3e 0de9 d3bb
000002e0: 9bca 693c a69b 0c3d 5ca4 d33b 5244 21bd
000002f0: accc a83e 019e 3abd 142a 783c aeb8 91bd
00000300: a523 503d 898b dabc d3fc 3fbe 1ca2 d4be
00000310: 9970 edbc 8fac 60bd 1eb7 373e 23cc 563d
00000320: 91f0 b73c 6b80 14bc 6fcb 103d c3e2 02bd
00000330: e6ec 8fbd b189 72bd 6176 fd3d eac5 00bc
00000340: 2056 66be bcaf b3ba 4ba1 3f3d bc49 8cbd
00000350: c035 36be 5b20 81bd a2f4 94be 9cd0 85be
00000360: 83f3 c3bc b237 2abe 6a67 bdbd 124d e9b7
00000370: aab0 233c db6b f43d 4e6b 1cbe 9da6 103e
00000380: ff53 3ebd cc4f 3bbe 8dba 413e bde3 f3bd
00000390: a102 333e f1fe da3d 1597 e4bd afae 473e
000003a0: 7ea6 ecbd 61e5 59bd 161c 44be caa8 ddbe
000003b0: 61ab 1ebe acae d03d 7215 94bd f05b 09be
000003c0: dc29 6c3d 0830 d2bd fa9d c63d 4f6a 143e
000003d0: 8b0a 803d 8792 75bd 5656 4dbe 2374 a2bb
000003e0: 3b96 513e 3a22 7b3d d5f6 80bd 062b ea3d
000003f0: 47c3 3dbd 83d5 743c 7fc7 bbbd e746 2fbe

fc2.bias f4 [128]
-0.229351 0.1242859 -0.005184948 0.2603262 0.110378735 0.07445976 0.10944209 0.2516925
0.046534374 0.13137254 0.3601195 -0.14380692 -0.24552394 0.23563194 0.039008074 0.03994889
0.042296134 0.008087956 0.24182653 -0.008148856 -0.08020289 0.2029364 0.33493337 0.38809574
0.35588267 0.1236358 -0.12751108 0.054245714 0.13839707 0.10939139 -0.040383395 -0.1627288
0.121175855 0.3915485 0.09870142 0.057358984 0.24096568 -0.0101169655 -0.2849018 -0.11376033
-0.13366397 -0.08119625 -0.13114502 0.048765995 0.51718193 0.02396404 0.13330568 0.32316923
-0.003396975 0.17307964 -0.1525558 0.14163405 -0.034540966 -0.11132844 -0.07328402 -0.01007383
0.42880592 0.30291048 0.33585498 0.3109999 0.09014107 0.04038597 0.20437735 -0.19745329
0.3338309 0.30310017 -0.07463073 0.22413857 0.19007409 -0.17209649 0.2302792 -0.16456266
0.30126485 0.22408803 -0.004047204 0.004347957 0.26891026 0.12699531 0.29786265 -0.16176453
0.0907721 -0.039608873 0.043929942 0.022443503 0.38366774 -0.029468523 -0.04092902 0.31237656
0.4304161 0.17164083 0.026861507 -0.09014816 0.11142175 -0.0016267014 -0.0231218 -0.03233088
-0.0530504 0.3600805 -0.03444329 0.1586292 0.2591759 -0.10423712 -0.041825123 0.12186851
0.06776039 -0.052607257 0.10584127 -0.04626178 -0.1296982 0.28021324 0.27911475 -0.04425312
0.29990533 -0.22242808 -0.16699795 0.15713122 -0.19971004 -0.05806391 0.29657966 -0.14962092
-0.22647297 0.117035225 0.39728954 0.16350034 -0.03207456 -0.14131968 0.15995745 -0.16463128
00000000: fdda 6abe 9b89 fe3d 7fe6 a9bb 7a49 853e
00000010: 3f0e e23d 5c7e 983d 2d23 e03d d7dd 803e
00000020: d49a 3e3d 8686 063e 9561 b83e 1f42 13be
00000030: a16a 7bbe 8049 713e eec6 1f3d 73a1 233d
00000040: b63e 2d3d 5983 043c 60a1 773e c882 05bc
00000050: 6a41 a4bd 8fce 4f3e 637c ab3e 7cb4 c63e
00000060: 4136 b63e c434 fd3d 4492 02be c130 5e3d
00000070: f6b7 0d3e 9808 e03d 0f69 25bd 61a2 26be
00000080: 0c2b f83d 0c79 c83e f823 ca3d 41f1 6a3d
00000090: b5bf 763e a1c1 25bc a6de 91be 2dfb e8bd
000000a0: 35df 08be 384a a6bd e14a 06be dabe 473d
000000b0: 0966 043f 3c50 c43c 4981 083e 7076 a53e
000000c0: c99f 5ebb ca3b 313e 9637 1cbe 8408 113e
000000d0: d47a 0dbd 2a00 e4bd ef15 96bd b50c 25bc
000000e0: 738c db3e 1517 9b3e 2ff5 ab3e 613b 9f3e
000000f0: e29b b83d c26b 253d 4c48 513e 3231 4abe
00000100: e2eb aa3e f22f 9b3e ffd7 98bd 9584 653e
00000110: c8a2 423e 103a 30be 50ce 6b3e 1d83 28be
00000120: 633f 9a3e 5577 653e 689e 84bb 4f79 8e3b
00000130: 9bae 893e 0f0b 023e 7481 983e 9aa5 25be
00000140: b9e6 b93d ea3c 22bd e2ef 333d 70db b73c
00000150: 1970 c43e f967 f1bc 30a5 27bd d2ef 9f3e
00000160: 805f dc3e 9dc2 2f3e aa0c dc3c 999f b8bd
00000170: 1631 e43d 0b37 d5ba ee69 bdbc 636d 04bd
00000180: 604b 59bd 795c b83e 6814 0dbd b16f 223e
00000190: b4b2 843e 457a d5bd d250 2bbd 3396 f93d
000001a0: f6c5 8a3d b57a 57bd 4fc3 d83d fe7c 3dbd
000001b0: 9bcf 04be 1c78 8f3e 21e8 8e3e c242 35bd
000001c0: 318d 993e 30c4 63be 8301 2bbe 02e7 203e
000001d0: ca80 4cbe 6cd4 6dbd 4ad9 973e 3a36 19be
000001e0: 88e8 67be 2ab0 ef3d 8969 cb3e a26c 273e
000001f0: 9d60 03bd 1bb6 10be e3cb 233e 1a95 28be

fc3.weight f4 [1, 128]
-0.22282647 0.2051869 -0.22313553 0.15001425 0.22196215 -0.29362643 0.2728685 0.1528344
-0.14384866 0.18160951 0.12138888 -0.277255 -0.13560796 0.2341576 0.29784152 0.30822137
-0.28474036 -0.19953567 0.1870565 -0.2381987 -0.24802227 0.24247257 0.15385622 0.16733213
0.23826724 0.1812838 -0.13167408 0.26564422 0.18703137 0.17695625 -0.23535655 -0.25380468
0.29174972 0.17110156 -0.17099264 0.1913548 0.25540864 -0.25234511 -0.10463109 -0.13388911
-0.26695567 -0.4322219 -0.16161117 0.39872602 0.28519335 -0.4778639 0.12860943 0.20397314
-0.23792218 0.1948095 -0.3086587 0.23239514 -0.15909803 -0.17828065 -0.30328974 0.46934703
0.22444266 0.18548083 0.15129538 0.16541041 0.2583027 -0.535952 0.24113734 -0.29478994
0.19015148 0.17642014 -0.13554117 0.12858437 0.19112295 -0.2758817 0.17805877 -0.18413277
0.22963823 0.1404914 -0.44872528 -0.36385304 0.26754057 0.18450595 0.22579315 -0.35829362
-0.1945528 -0.17525734 -0.13106918 -0.5275632 0.13293734 -0.113483265 -0.17230889 0.15874125
0.19981882 0.19890209 -0.27531153 -0.1742255 -0.286001 -0.3238497 -0.15205336 -0.42835954
-0.25686368 0.17846204 -0.20652074 0.19463767 0.17785536 -0.23022354 -0.30789077 0.1971034
-0.18053968 -0.22037852 0.22775993 -0.30585355 -0.2190085 0.24119473 0.13070853 -0.29540476
0.12603933 -0.18866187 -0.15421066 0.1928045 -0.13619062 -0.1055787 0.25597632 -0.16283502
-0.25880468 0.1261352 0.182946 0.20815544 -0.24500892 -0.19710998 0.21614292 -0.13906927
00000000: 9f2c 64be 841c 523e a47d 64be 569d 193e
00000010: 0c4a 633e 3456 96be 6cb5 8b3e 9f80 1c3e
00000020: 104d 13be d8f7 393e bc9a f83d 5ef4 8dbe
00000030: d0dc 0abe 03c7 6f3e af7e 983e 31cf 9d3e
00000040: 7dc9 91be 1453 4cbe bd8b 3f3e 5cea 73be
00000050: 8df9 7dbe bb4a 783e 7c8c 1d3e 1d59 2b3e
00000060: 54fc 733e 76a2 393e 92d5 06be 8502 883e
00000070: 2785 3f3e 0534 353e 4f01 71be b0f2 81be
00000080: 3860 953e 3f35 2f3e b218 2fbe 83f2 433e
00000090: ecc4 823e 6133 81be d348 d6bd 3a1a 09be
000000a0: 6aae 88be 304c ddbe 667d 25be d125 cc3e
000000b0: dd04 923e 94aa f4be 31b2 033e 56de 503e
000000c0: dfa1 73be 247c 473e 8308 9ebe fef8 6d3e
000000d0: 98ea 22be 348f 36be cb48 9bbe 414e f03e
000000e0: 4cd4 653e b0ee 3d3e 2ded 1a3e 5961 293e
000000f0: 4040 843e 2634 09bf b5ec 763e b5ee 96be
00000100: 12b7 423e 7ba7 343e 4ecb 0abe 9fab 033e
00000110: bcb5 433e 5e40 8dbe 0a55 363e 4d8d 3cbe
00000120: 4926 6b3e fadc 0f3e 52bf e5be f24a babe
00000130: 14fb 883e 21ef 3c3e 5236 673e 4372 b7be
00000140: d938 47be a976 33be 0037 06be 620e 07bf
00000150: ba20 083e ea69 e8bd be71 30be 118d 223e
00000160: 4e9d 4c3e fdac 4b3e a2f5 8cbe 2b68 32be
00000170: b96e 92be a1cf a5be e0b3 1bbe f151 dbbe
00000180: a383 83be c1be 363e 2c7a 53be 194f 473e
00000190: b71f 363e b8bf 6bbe dca3 9dbe 79d5 493e
000001a0: 65df 38be e8aa 61be e639 693e d698 9cbe
000001b0: c443 60be c0fb 763e 75d8 053e 4b3f 97be
000001c0: 7410 013e 9430 41be 66e9 1dbe 8b6e 453e
000001d0: 8e75 0bbe a539 d8bd 540f 833e 39be 26be
000001e0: 0c82 84be 9629 013e 3256 3b3e b326 553e
000001f0: 9ee3 7abe 33d7 49be 9254 5d3e 2d68 0ebe
