checkpoint_critic.pth (torch_old, 435540 bytes, 7 tensors)

fcs1.weight f4 [256, 33]
000000 9e a4 02 00 ef 4f 00 00 ad 9f 01 80 f4 ca 00 00
       2.42725e-40 2.8675e-41 -1.49116e-40 7.2806e-41
000010 cf 8a 02 80 89 1c 00 80 ba 9e 01 80 15 84 00 00
       -2.33466e-40 -1.0236e-41 -1.48776e-40 4.7382e-41
000020 1d dd 00 00 20 e1 01 80 7f 24 01 80 50 00 01 80
       7.932e-41 -1.72595e-40 -1.04928e-40 -9.1948e-41
000030 b3 3b 01 80 e7 0b 02 80 ac 65 01 00 76 09 02 80
       -1.13252e-40 -1.87941e-40 1.28308e-40 -1.87065e-40
000040 45 ee 01 00 28 99 00 80 e2 b3 00 00 02 16 01 00
       1.7731e-40 -5.4942e-41 6.453e-41 9.973e-41
000050 ba f5 02 00 89 9e 00 80 c1 71 00 80 70 ef 01 80
       2.71821e-40 -5.6872e-41 -4.0807e-41 -1.7773e-40
000060 3e 4d 02 80 55 86 01 80 4d 42 02 00 38 88 02 00
       -2.1138e-40 -1.40025e-40 2.07455e-40 2.32537e-40
000070 13 94 01 80 32 f5 01 80 f1 58 00 80 21 d9 01 00
       -1.44955e-40 -1.79795e-40 -3.1906e-41 1.69727e-40
000080 df 26 01 00 82 c4 01 80 3c 2e 02 80 11 a8 01 80
       1.0578e-40 -1.62329e-40 -2.00257e-40 -1.52126e-40
000090 91 80 01 00 32 3d 02 80 f6 78 02 00 df c0 01 80
       1.37956e-40 -2.05624e-40 2.27064e-40 -1.61025e-40
0000a0 fa 58 00 80 73 f0 01 00 ae f6 00 80 8a 9b 01 80
       -3.1919e-41 1.78092e-40 -8.8492e-41 -1.47632e-40
0000b0 e9 d8 00 00 a6 a8 00 00 17 f5 01 80 15 92 01 80
       7.7813e-41 6.05e-41 -1.79757e-40 -1.4424e-40
0000c0 e2 5d 01 00 a7 2d 03 80 18 6a 01 80 a4 94 01 00
       1.25514e-40 -2.91883e-40 -1.29895e-40 1.45158e-40
0000d0 29 f5 00 80 57 ba 00 00 cf c3 01 80 3b 61 00 80
       -8.7947e-41 6.6846e-41 -1.62078e-40 -3.488e-41
0000e0 ed 12 01 80 52 5c 01 80 6c 17 01 80 8f 9c 01 00
       -9.8625e-41 -1.24954e-40 -1.00238e-40 1.47998e-40
0000f0 3b 11 01 80 65 2c 01 00 01 44 02 80 ad fd 00 80
       -9.8017e-41 1.07761e-40 -2.08066e-40 -9.1002e-41
000100 d7 82 02 00 65 56 01 80 02 3e 01 80 86 92 01 00
       2.30607e-40 -1.22828e-40 -1.1408e-40 1.44398e-40
000110 46 23 02 80 e3 a2 02 80 7c 7f 01 80 0a e2 00 00
       -1.96325e-40 -2.42104e-40 -1.37568e-40 8.1088e-41
000120 ba 69 02 00 74 17 01 00 48 93 01 00 fe 31 00 00
       2.21599e-40 1.00249e-40 1.4467e-40 1.7934e-41
000130 3b 2f 00 00 ec 5a 01 80 0e 6f 02 80 50 42 02 80
       1.6943e-41 -1.24452e-40 -2.2351e-40 -2.0746e-40
000140 ab 16 01 80 64 67 00 80 a4 d9 01 80 c3 a2 02 80
       -9.9967e-41 -3.709e-41 -1.6991e-40 -2.42059e-40
000150 24 64 01 80 9e 5e 00 80 45 a3 02 00 e1 d7 01 00
       -1.27759e-40 -3.3942e-41 2.42241e-40 1.69278e-40
000160 3f 10 01 80 b3 00 02 80 f4 e1 00 80 56 28 01 80
       -9.7663e-41 -1.83922e-40 -8.1057e-41 -1.06305e-40
000170 a3 76 02 80 90 39 00 00 ac 9b 00 80 26 af 01 80
       -2.2623e-40 2.065e-41 -5.5845e-41 -1.54667e-40
000180 91 c1 02 80 01 27 00 00 1b f8 02 00 c7 0c 01 00
       -2.5311e-40 1.3992e-41 2.72674e-40 9.6419e-41
000190 df aa 01 80 f3 0f 00 00 4b df 01 80 d4 83 02 00
       -1.53132e-40 5.722e-42 -1.71938e-40 2.30962e-40
0001a0 ef 45 00 00 b5 c4 00 80 ee f3 01 00 9c 54 01 00
       2.5087e-41 -7.0565e-41 1.79341e-40 1.22188e-40
0001b0 4c d9 00 00 31 a5 01 00 8e a0 02 80 f7 9d 01 00
       7.7951e-41 1.51095e-40 -2.41267e-40 1.48503e-40
0001c0 a3 23 00 00 08 85 01 00 24 98 01 00 2d a4 00 80
       1.2784e-41 1.39558e-40 1.46413e-40 -5.8895e-41
0001d0 0c a7 00 00 a4 3e 01 80 76 40 01 80 d3 4b 03 00
       5.9925e-41 -1.14307e-40 -1.1496e-40 3.02707e-40
0001e0 7f b9 00 80 d7 eb 02 80 bf c7 02 00 6f ea 01 80
       -6.6543e-41 -2.68274e-40 2.55326e-40 -1.75934e-40
0001f0 36 06 00 00 83 4a 01 00 83 9d 00 00 e2 16 02 00
       2.228e-42 1.18565e-40 5.6505e-41 1.9188e-40
000200 52 67 01 00 11 51 01 00 54 27 02 00 4a 0c 00 80
       1.289e-40 1.20917e-40 1.97779e-40 -4.408e-42
000210 3d fb 02 80 8f 3f 01 80 f5 00 02 80 c1 c8 00 80
       -2.73798e-40 -1.14636e-40 -1.84014e-40 -7.2017e-41
000220 de 30 01 80 cc 6f 02 80 20 22 01 00 76 ac 00 00
       -1.09366e-40 -2.23776e-40 1.04077e-40 6.1867e-41
000230 5f 49 00 80 f8 fd 00 00 2a 8b 01 80 02 31 00 80
       -2.632e-41 9.1107e-41 -1.41758e-40 -1.758e-41
000240 9c 7f 01 80 d0 bf 01 00 0c 45 01 00 0b 07 00 00
       -1.37613e-40 1.60645e-40 1.16605e-40 2.527e-42
000250 0a 67 00 00 0b f5 02 80 a5 ae 00 00 1e f0 02 80
       3.6963e-41 -2.71576e-40 6.265e-41 -2.69809e-40
000260 b0 23 01 00 99 f5 00 00 a8 21 02 80 b5 5e 00 00
       1.04638e-40 8.8104e-41 -1.95745e-40 3.3974e-41
000270 cb 39 02 80 e9 30 01 80 e7 7d 01 00 bc 42 00 00
       -2.04403e-40 -1.09381e-40 1.37001e-40 2.394e-41
000280 42 2f 01 00 77 4f 01 80 4c 66 02 00 47 90 00 80
       1.08788e-40 -1.20342e-40 2.20368e-40 -5.1757e-41
000290 74 17 01 80 46 06 02 80 ac 69 01 80 62 58 02 00
       -1.00249e-40 -1.85921e-40 -1.29743e-40 2.15377e-40
0002a0 76 d8 01 00 9c 5b 00 00 e3 00 01 00 9d be 01 00
       1.69487e-40 3.2863e-41 9.2154e-41 1.60215e-40
0002b0 e2 af 01 80 c7 1a 00 00 b1 a2 02 00 05 d1 00 80
       -1.5493e-40 9.606e-42 2.42034e-40 -7.4982e-41
0002c0 7c 99 00 00 67 ca 02 00 5a da 00 80 20 c8 00 00
       5.506e-41 2.56279e-40 -7.833e-41 7.1791e-41
0002d0 c7 9e 02 80 50 dd 01 00 a3 79 00 80 52 76 00 80
       -2.4063e-40 1.71227e-40 -4.3635e-41 -4.2445e-41
0002e0 8a 1f 00 00 b6 4a 01 80 a7 b2 01 00 ca 2d 02 80
       1.1314e-41 -1.18637e-40 1.55924e-40 -2.00097e-40
0002f0 a1 97 02 80 0c 56 01 00 33 67 01 80 22 5f 02 00
       -2.38065e-40 1.22703e-40 -1.28856e-40 2.17798e-40
000300 31 79 02 80 6d 20 01 00 1f b2 00 00 55 6a 03 00
       -2.27146e-40 1.03468e-40 6.3898e-41 3.13651e-40
000310 01 6f 01 00 e8 b8 00 80 b7 4a 02 00 cc 1a 00 80
       1.31656e-40 -6.6332e-41 2.10474e-40 -9.613e-42
000320 59 e2 01 80 23 c3 00 80 c7 68 02 00 05 54 01 00
       -1.73034e-40 -7.0002e-41 2.21258e-40 1.21976e-40
000330 3f 0c 01 00 f4 15 00 80 70 96 01 00 79 a9 01 80
       9.6229e-41 -7.875e-42 1.45802e-40 -1.52631e-40
000340 df cb 01 80 1b cd 02 80 29 a6 01 00 5a df 00 80
       -1.6497e-40 -2.57249e-40 1.51443e-40 -8.0123e-41
000350 5f c7 00 80 72 3f 02 00 24 6c 01 80 b1 5e 00 80
       -7.1521e-41 2.06431e-40 -1.30629e-40 -3.3969e-41
000360 d9 a0 01 00 5f 1d 01 80 3a 52 02 00 46 06 01 00
       1.49537e-40 -1.02372e-40 2.13168e-40 9.4086e-41
000370 b2 65 00 00 84 88 02 80 41 0f 01 00 fb 6f 00 00
       3.6481e-41 -2.32644e-40 9.7308e-41 4.0171e-41
000380 9a d7 02 00 27 1c 03 00 f4 a5 02 00 ef 55 00 80
       2.61014e-40 2.85606e-40 2.43204e-40 -3.0827e-41
000390 10 c7 00 00 0d 03 00 00 af 43 02 80 fa 8c 02 80
       7.141e-41 1.094e-42 -2.07951e-40 -2.34244e-40
0003a0 d0 58 02 80 e3 12 00 80 70 d9 00 80 d8 1a 01 00
       -2.15531e-40 -6.775e-42 -7.8002e-41 1.01465e-40
0003b0 fc 7f 01 80 da 49 00 80 88 35 01 80 5f 4d 02 80
       -1.37748e-40 -2.6493e-41 -1.11039e-40 -2.11427e-40
0003c0 3d 16 01 00 64 fa 00 80 07 aa 00 80 df aa 00 00
       9.9813e-41 -8.9823e-41 -6.0994e-41 6.1297e-41
0003d0 45 f5 01 00 10 6f 01 80 c8 84 01 00 f0 34 02 80
       1.79822e-40 -1.31677e-40 1.39468e-40 -2.02661e-40
0003e0 f7 8d 01 00 93 3a 00 00 80 5a 02 00 75 2c 01 00
       1.42763e-40 2.1012e-41 2.16136e-40 1.07784e-40
0003f0 53 03 01 80 cf 11 01 80 30 24 00 80 fe 72 01 00
       -9.3028e-41 -9.8224e-41 -1.2982e-41 1.33087e-40

fcs1.bias f4 [256]
000000 e7 ae 00 80 d8 21 01 00 fe 86 01 80 af 8c 01 80
       -6.2743e-41 1.03976e-40 -1.40262e-40 -1.42303e-40
000010 0f a0 01 00 38 93 02 00 c1 78 00 80 60 17 03 80
       1.49254e-40 2.36483e-40 -4.3318e-41 -2.83892e-40
000020 d9 4f 02 00 b3 b8 01 80 ba 9f 01 80 3a 5a 00 80
       2.12315e-40 -1.58093e-40 -1.49135e-40 -3.2367e-41
000030 fb 22 00 00 d3 d3 01 00 5f 0c 00 00 5b 88 01 80
       1.2549e-41 1.67824e-40 4.438e-42 -1.4075e-40
000040 98 8c 01 00 52 d0 02 80 a3 3e 02 00 00 14 00 80
       1.42271e-40 -2.58402e-40 2.06141e-40 -7.175e-42
000050 60 41 01 80 91 77 01 00 22 b5 00 00 f1 b7 01 80
       -1.15288e-40 1.34728e-40 6.4978e-41 -1.57821e-40
000060 0f ce 00 00 6a f4 01 00 97 87 01 00 5f f8 01 80
       7.392e-41 1.79515e-40 1.40476e-40 -1.80934e-40
000070 10 c2 00 00 e2 8e 01 00 f7 1c 01 00 55 17 00 00
       6.9617e-41 1.43092e-40 1.02226e-40 8.37e-42
000080 65 15 01 80 2d 81 00 80 3d 50 01 00 a4 ac 01 00
       -9.951e-41 -4.634e-41 1.2062e-40 1.53767e-40
000090 dc 97 01 00 f5 c4 00 80 c9 a4 01 00 62 70 01 80
       1.46312e-40 -7.0655e-41 1.50949e-40 -1.32151e-40
0000a0 2f 9e 00 80 15 c2 01 00 1b 6b 00 00 50 01 01 00
       -5.6746e-41 1.61459e-40 3.8422e-41 9.2306e-41
0000b0 49 20 00 80 29 07 01 00 47 5f 00 80 8b 23 00 00
       -1.1582e-41 9.4404e-41 -3.4179e-41 1.275e-41
0000c0 e8 5a 01 80 64 21 01 00 cc ba 01 80 05 18 00 80
       -1.24447e-40 1.03814e-40 -1.58846e-40 -8.617e-42
0000d0 5b 97 02 80 93 18 00 80 af 53 03 00 9a e0 01 00
       -2.37967e-40 -8.816e-42 3.05527e-40 1.72407e-40
0000e0 e7 aa 01 00 c1 ab 00 80 96 9a 01 00 dd 61 00 00
       1.53144e-40 -6.1614e-41 1.4729e-40 3.5107e-41
0000f0 22 6d 02 00 51 5e 00 00 1f 45 01 00 00 f6 01 80
       2.2282e-40 3.3834e-41 1.16631e-40 -1.80084e-40
000100 94 ce 01 80 ef 5b 01 00 31 d9 00 00 77 ba 00 80
       -1.65942e-40 1.24815e-40 7.7914e-41 -6.6891e-41
000110 91 3f 01 80 35 f4 01 00 f6 8c 00 80 0e 7a 01 00
       -1.14639e-40 1.7944e-40 -5.0567e-41 1.3562e-40
000120 72 c0 01 80 a5 84 01 00 0b 22 01 00 eb 8c 01 00
       -1.60872e-40 1.3942e-40 1.04048e-40 1.42387e-40
000130 e3 7a 00 80 82 f0 00 00 a2 1b 01 80 0f 52 02 00
       -4.4083e-41 8.6278e-41 -1.01748e-40 2.13108e-40
000140 92 0c 02 80 66 50 01 00 39 fd 01 00 2b 96 02 80
       -1.8818e-40 1.20677e-40 1.82675e-40 -2.37541e-40
000150 55 34 01 00 dd b6 00 00 b9 65 01 80 9a 90 00 80
       1.10609e-40 6.5599e-41 -1.28327e-40 -5.1873e-41
000160 47 c7 01 80 4d 33 00 00 fa 58 01 00 ae 30 01 00
       -1.63323e-40 1.8403e-41 1.23754e-40 1.09298e-40
000170 f0 0e 01 00 40 bf 00 00 86 2f 02 80 9f 85 02 00
       9.7194e-41 6.8608e-41 -2.00719e-40 2.31605e-40
000180 a3 0d 00 80 cf 64 01 80 b2 be 02 00 63 54 01 00
       -4.892e-42 -1.27999e-40 2.5208e-40 1.22108e-40
000190 57 e5 00 00 0a 5c 00 00 6b 7c 02 80 07 94 01 00
       8.2272e-41 3.3017e-41 -2.28304e-40 1.44938e-40
0001a0 c2 1e 01 00 71 ba 00 80 54 ac 01 80 8d 07 03 00
       1.0287e-40 -6.6883e-41 -1.53655e-40 2.78215e-40
0001b0 11 3b 01 00 a6 7b 01 80 e2 95 01 80 10 c9 01 00
       1.13025e-40 -1.36192e-40 -1.45603e-40 1.63963e-40
0001c0 3f 64 02 80 b9 a8 01 00 c6 bb 02 00 61 b4 02 00
       -2.19633e-40 1.52362e-40 2.51031e-40 2.48379e-40
0001d0 3e f9 01 80 05 85 01 00 2e bc 01 80 f6 09 00 80
       -1.81247e-40 1.39554e-40 -1.59342e-40 -3.573e-42
0001e0 e7 3b 01 80 5b 9b 01 80 01 67 02 80 b8 bf 00 00
       -1.13324e-40 -1.47567e-40 -2.20622e-40 6.8776e-41
0001f0 9d b8 00 80 e4 f4 00 00 cc f7 01 00 2b de 01 80
       -6.6227e-41 8.785e-41 1.80728e-40 -1.71534e-40
000200 f1 3f 00 80 91 3b 01 80 f8 b1 00 00 47 d5 00 00
       -2.2938e-41 -1.13204e-40 6.3843e-41 7.651e-41
000210 60 32 01 00 99 67 00 00 c4 8d 00 80 fb 9e 01 00
       1.09907e-40 3.7164e-41 -5.0856e-41 1.48867e-40
000220 7c 73 02 80 3f 5f 03 00 13 7d 01 00 b5 d6 01 00
       -2.25099e-40 3.09674e-40 1.36704e-40 1.68858e-40
000230 ea c4 01 80 af 89 01 00 d9 fd 00 80 5a 78 02 00
       -1.62475e-40 1.41227e-40 -9.1063e-41 2.26845e-40
000240 c6 20 03 80 50 0c 01 00 3e 5b 00 80 50 7b 00 80
       -2.87263e-40 9.6252e-41 -3.2732e-41 -4.4236e-41
000250 4b 12 02 80 ea 01 00 00 98 75 00 80 98 30 01 80
       -1.90233e-40 6.87e-43 -4.2185e-41 -1.09268e-40
000260 48 42 01 80 a0 6d 02 80 03 97 00 80 b1 1a 00 80
       -1.15613e-40 -2.22997e-40 -5.4173e-41 -9.575e-42
000270 4a fb 02 80 6c a4 00 00 d0 28 00 00 25 79 00 80
       -2.73817e-40 5.8983e-41 1.4641e-41 -4.3458e-41
000280 f1 a2 01 00 80 58 01 00 af 11 01 00 45 b4 01 80
       1.50288e-40 1.23583e-40 9.8179e-41 -1.56504e-40
000290 c2 08 01 80 a4 33 02 80 90 85 01 80 9e 57 00 00
       -9.4977e-41 -2.02196e-40 -1.39749e-40 3.1431e-41
0002a0 37 ef 01 80 75 37 01 80 99 82 01 00 78 32 01 80
       -1.7765e-40 -1.1173e-40 1.38685e-40 -1.0994e-40
0002b0 b1 b8 01 80 04 be 01 80 f7 2b 01 80 c0 39 01 80
       -1.5809e-40 -1.6e-40 -1.07607e-40 -1.12552e-40
0002c0 8f e9 01 00 b9 c8 01 00 53 ac 00 80 53 15 00 00
       1.7562e-40 1.63841e-40 -6.1818e-41 7.65e-42
0002d0 4e 1b 02 00 63 ba 00 00 12 75 02 80 66 c3 01 80
       1.93466e-40 6.6863e-41 -2.25668e-40 -1.61931e-40
0002e0 ae 0d 03 80 6c 07 01 80 7e bf 01 80 cc 17 01 80
       -2.80414e-40 -9.4498e-41 -1.6053e-40 -1.00372e-40
0002f0 e1 27 02 00 9c ec 01 00 ac 9d 02 00 2e 23 00 80
       1.97977e-40 1.76715e-40 2.40233e-40 -1.262e-41
000300 36 67 00 80 6e 2b 01 00 29 fd 01 00 9b 9d 00 00
       -3.7025e-41 1.07415e-40 1.82652e-40 5.6538e-41
000310 46 6b 01 80 2e fd 00 00 05 4c 00 00 f6 be 01 80
       -1.30318e-40 9.0824e-41 2.727e-41 -1.6034e-40
000320 75 fd 00 80 f6 51 03 80 d7 ca 00 80 e8 42 00 80
       -9.0923e-41 -3.04909e-40 -7.2765e-41 -2.4001e-41
000330 90 a3 00 00 86 1c 01 00 a0 a3 01 80 5a 3e 00 80
       5.8675e-41 1.02068e-40 -1.50533e-40 -2.2368e-41
000340 35 ff 01 00 13 31 00 00 53 16 01 80 b2 c9 01 00
       1.83387e-40 1.7605e-41 -9.9844e-41 1.6419e-40
000350 b6 5b 01 00 40 d7 00 80 03 82 01 80 3e 07 00 80
       1.24735e-40 -7.7217e-41 -1.38475e-40 -2.598e-42
000360 94 bb 02 80 89 f7 01 00 8e 62 00 00 b5 1c 02 00
       -2.50961e-40 1.80634e-40 3.5355e-41 1.93969e-40
000370 25 9a 02 00 32 61 00 00 4f f1 00 00 b2 69 02 00
       2.38968e-40 3.4867e-41 8.6565e-41 2.21587e-40
000380 65 2a 01 00 33 4f 00 80 55 6d 02 80 d5 80 00 80
       1.07044e-40 -2.8411e-41 -2.22892e-40 -4.6216e-41
000390 16 a1 00 00 d2 b8 00 80 eb 3c 01 00 ca 22 00 00
       5.7787e-41 -6.6301e-41 1.13689e-40 1.248e-41
0003a0 ec b7 02 00 e3 57 03 00 fd b8 00 00 c7 9c 01 00
       2.4965e-40 3.07034e-40 6.6361e-41 1.48077e-40
0003b0 85 25 00 00 bb 62 00 00 51 ed 02 80 97 82 01 80
       1.346e-41 3.5418e-41 -2.68804e-40 -1.38682e-40
0003c0 2c 41 01 00 75 59 02 80 27 59 01 00 c8 0d 02 00
       1.15215e-40 -2.15762e-40 1.23817e-40 1.88615e-40
0003d0 38 36 00 80 56 c3 01 00 df 77 01 80 50 78 00 80
       -1.945e-41 1.61909e-40 -1.34837e-40 -4.316e-41
0003e0 51 61 01 80 31 e1 01 00 16 b8 01 00 a5 e1 00 00
       -1.26746e-40 1.72619e-40 1.57873e-40 8.0946e-41
0003f0 cd 5f 02 00 ed e4 01 00 3b 15 00 80 24 8e 00 00
       2.18038e-40 1.73959e-40 -7.616e-42 5.099e-41

fc2.weight f4 [256, 260]
000000 03 e1 00 00 4a c0 01 80 b8 0b 02 80 37 e1 01 80
       8.0719e-41 -1.60816e-40 -1.87875e-40 -1.72627e-40
000010 aa f7 00 80 a7 d6 00 00 dc c0 01 80 a9 7b 02 80
       -8.8845e-41 7.7003e-41 -1.6102e-40 -2.28032e-40
000020 f0 b4 00 00 3e 48 01 00 9b f4 01 00 2f 66 02 00
       6.4908e-41 1.17751e-40 1.79583e-40 2.20328e-40
000030 22 4f 01 80 7c 8c 01 80 08 18 00 00 fb f7 01 80
       -1.20223e-40 -1.42232e-40 8.621e-42 -1.80794e-40
000040 69 5a 01 80 dd 9c 02 80 65 ab 00 00 e1 8f 02 00
       -1.24269e-40 -2.39943e-40 6.1485e-41 2.35285e-40
000050 df 9e 01 80 d0 87 01 80 fd a8 03 00 8d 74 00 80
       -1.48828e-40 -1.40556e-40 3.36128e-40 -4.181e-41
000060 17 7b 01 80 0e da 02 80 3f 71 00 00 d5 96 02 80
       -1.35992e-40 -2.61894e-40 4.0625e-41 -2.3778e-40
000070 32 6c 02 80 9f ee 00 80 02 76 02 00 18 0a 01 00
       -2.22484e-40 -8.5601e-41 2.26004e-40 9.5456e-41
000080 76 10 01 00 77 c3 00 00 07 cf 01 00 91 8e 02 00
       9.774e-41 7.012e-41 1.66103e-40 2.34814e-40
000090 c7 78 02 80 60 25 01 80 a7 2a 02 80 ab 3e 01 00
       -2.26998e-40 -1.05243e-40 -1.98972e-40 1.14317e-40
0000a0 a4 c2 00 00 d2 a7 01 00 ff cc 00 80 32 f2 01 80
       6.9824e-41 1.52038e-40 -7.3539e-41 -1.78719e-40
0000b0 59 c3 00 80 b3 7a 02 00 37 36 01 80 8a 37 01 80
       -7.0078e-41 2.27687e-40 -1.11284e-40 -1.11759e-40
0000c0 02 34 02 00 7d 4b 02 00 fd 06 00 00 c7 ec 00 00
       2.02328e-40 2.10751e-40 2.507e-42 8.494e-41
0000d0 13 70 01 80 ba d5 01 80 c9 33 02 00 cc 67 02 00
       -1.3204e-40 -1.68506e-40 2.02248e-40 2.20906e-40
0000e0 c9 67 01 80 96 30 00 80 04 f7 00 00 5d 1b 01 80
       -1.29067e-40 -1.743e-41 8.8613e-41 -1.01652e-40
0000f0 e2 b0 02 00 73 24 02 80 d2 56 00 00 d8 50 02 00
       2.47125e-40 -1.96747e-40 3.1145e-41 2.12672e-40
000100 41 ef 01 80 6a 39 00 00 04 14 01 80 90 b3 02 00
       -1.77664e-40 2.0596e-41 -9.9016e-41 2.48086e-40
000110 03 22 01 00 1d 44 01 80 48 ba 00 80 23 84 01 00
       1.04037e-40 -1.1627e-40 -6.6825e-41 1.39237e-40
000120 2d 0c 00 00 0c 2e 01 00 13 a5 02 00 89 8b 01 80
       4.368e-42 1.08354e-40 2.42888e-40 -1.41891e-40
000130 e2 09 01 00 b9 1e 02 80 af 48 02 00 cc 0a 00 00
       9.5381e-41 -1.94692e-40 2.09745e-40 3.873e-42
000140 ee 7c 01 00 6d 2b 00 80 79 2d 01 00 95 47 02 00
       1.36652e-40 -1.5578e-41 1.08148e-40 2.0935e-40
000150 38 34 01 80 62 55 01 00 72 ee 00 80 01 4c 02 80
       -1.10568e-40 1.22465e-40 -8.5538e-41 -2.10936e-40
000160 f8 9c 01 00 30 b1 01 80 72 6f 01 80 fa 26 01 80
       1.48145e-40 -1.55398e-40 -1.31815e-40 -1.05818e-40
000170 66 26 00 00 f2 6c 00 00 59 d2 00 00 c0 bc 00 00
       1.3775e-41 3.9082e-41 7.5459e-41 6.7711e-41
000180 f6 6e 01 80 64 75 01 80 c4 3d 02 80 e6 83 00 00
       -1.31641e-40 -1.33947e-40 -2.05828e-40 4.7316e-41
000190 77 8a 02 00 fb 8a 01 80 4b d3 01 00 96 61 01 80
       2.33343e-40 -1.41692e-40 1.67633e-40 -1.26843e-40
0001a0 02 4b 00 00 c0 1a 02 80 31 c0 01 80 d4 4d 01 80
       2.6908e-41 -1.93267e-40 -1.60781e-40 -1.19755e-40
0001b0 fb 7f 01 00 1f 3a 01 80 09 7c 02 00 38 08 00 00
       1.37746e-40 -1.12685e-40 2.28166e-40 2.948e-42
0001c0 e3 cd 00 00 5c c5 02 00 15 35 01 80 44 09 02 00
       7.3858e-41 2.5447e-40 -1.10878e-40 1.86995e-40
0001d0 6d c4 01 00 28 08 00 80 af 89 01 00 91 14 00 00
       1.623e-40 -2.926e-42 1.41227e-40 7.378e-42
0001e0 ed 76 00 00 ce d2 00 00 ee 88 02 00 da 3d 00 80
       4.2663e-41 7.5622e-41 2.32792e-40 -2.2188e-41
0001f0 5d ca 01 00 fa 3b 01 00 17 39 01 00 48 a1 00 00
       1.6443e-40 1.13351e-40 1.12315e-40 5.7857e-41
000200 d0 43 00 00 8d c4 01 00 17 11 01 00 d4 19 00 00
       2.4327e-41 1.62345e-40 9.7966e-41 9.265e-42
000210 16 a2 02 80 51 58 00 80 6c bc 00 80 5c 39 02 00
       -2.41816e-40 -3.1682e-41 -6.7593e-41 2.04248e-40
000220 54 5d 02 80 2a a0 00 00 b1 68 02 00 42 db 01 80
       -2.17151e-40 5.7456e-41 2.21227e-40 -1.7049e-40
000230 30 41 02 80 da 8b 01 00 ad 2f 00 00 24 1f 00 80
       -2.07056e-40 1.42005e-40 1.7103e-41 -1.1171e-41
000240 41 83 00 80 b4 d2 01 00 c8 af 01 00 07 31 01 80
       -4.7085e-41 1.67422e-40 1.54894e-40 -1.09423e-40
000250 87 52 02 00 1c 7d 01 80 78 fc 01 80 98 77 02 00
       2.13276e-40 -1.36716e-40 -1.82404e-40 2.26573e-40
000260 27 03 02 00 7e de 00 00 6c 82 00 80 3b 4b 01 80
       1.84802e-40 7.9815e-41 -4.6787e-41 -1.18823e-40
000270 29 25 01 00 6c 53 01 80 3a f0 01 80 47 f3 01 80
       1.05166e-40 -1.21762e-40 -1.78013e-40 -1.79107e-40
000280 9d 0a 01 00 71 9a 02 00 6f 0b 01 00 3f 3c 00 80
       9.5643e-41 2.39074e-40 9.5937e-41 -2.1612e-41
000290 73 fb 00 00 47 2f 01 80 08 8a 01 00 f6 9a 01 80
       9.0203e-41 -1.08795e-40 1.41352e-40 -1.47425e-40
0002a0 bd 8e 01 00 f8 22 00 00 1b 7d 00 80 11 60 00 80
       1.4304e-40 1.2544e-41 -4.488e-41 -3.4462e-41
0002b0 4c 30 02 00 20 93 00 80 cb 4a 02 80 02 69 01 00
       2.00997e-40 -5.2779e-41 -2.10502e-40 1.29505e-40
0002c0 bb c5 01 80 a6 10 00 00 4a 87 01 80 4a 9e 01 00
       -1.62768e-40 5.972e-42 -1.40368e-40 1.48619e-40
0002d0 9f 7e 01 80 61 fc 00 80 91 54 00 80 c9 0a 00 80
       -1.37259e-40 -9.0536e-41 -3.0337e-41 -3.869e-42
0002e0 bf 96 02 80 77 c8 00 00 da 37 01 00 25 24 01 80
       -2.37749e-40 7.1913e-41 1.11871e-40 -1.04802e-40
0002f0 60 80 00 80 c6 22 00 80 7a e6 02 00 53 1a 02 00
       -4.6052e-41 -1.2474e-41 2.6635e-40 1.93114e-40
000300 d5 0f 00 00 9b 61 00 80 a3 e4 02 80 45 89 02 00
       5.68e-42 -3.5014e-41 -2.6569e-40 2.32914e-40
000310 fd ba 01 00 8e 2b 00 80 bb b6 01 00 cf 89 01 80
       1.58914e-40 -1.5624e-41 1.57387e-40 -1.41272e-40
000320 e5 b5 01 80 41 1c 01 00 ef f9 00 00 8c 0b 01 80
       -1.57087e-40 1.01971e-40 8.9659e-41 -9.5978e-41
000330 6b 4b 02 80 43 7d 02 80 54 7f 00 00 3f e7 00 80
       -2.10726e-40 -2.28606e-40 4.5677e-41 -8.2955e-41
000340 b3 9b 02 00 50 91 01 80 47 f5 01 80 87 bb 01 00
       2.39525e-40 -1.43964e-40 -1.79824e-40 1.59108e-40
000350 25 fe 02 00 90 a0 01 80 45 5b 01 80 16 39 01 80
       2.74841e-40 -1.49434e-40 -1.24577e-40 -1.12314e-40
000360 9f 07 00 00 65 2a 02 00 70 a5 01 00 91 83 01 80
       2.734e-42 1.98879e-40 1.51183e-40 -1.39033e-40
000370 e2 22 01 80 07 93 00 80 e5 48 00 00 16 92 02 00
       -1.04349e-40 -5.2743e-41 2.615e-41 2.36077e-40
000380 a0 a0 00 80 bf a1 01 80 a4 8b 02 00 3e 38 01 00
       -5.7621e-41 -1.49859e-40 2.33765e-40 1.12011e-40
000390 a2 7b 02 00 07 dd 02 00 35 f4 02 00 0b 6c 03 80
       2.28022e-40 2.6296e-40 2.71276e-40 -3.14265e-40
0003a0 c4 28 00 80 35 47 02 80 f3 03 01 80 59 f7 01 80
       -1.4624e-41 -2.09215e-40 -9.3252e-41 -1.80567e-40
0003b0 b3 45 01 80 7e 5a 02 80 3e 85 01 80 3d c6 00 80
       -1.16839e-40 -2.16133e-40 -1.39634e-40 -7.1114e-41
0003c0 99 a1 00 80 34 73 02 80 1a d8 02 00 9d 9c 00 80
       -5.797e-41 -2.24998e-40 2.61194e-40 -5.6182e-41
0003d0 b9 69 02 80 70 43 01 80 ea 97 01 00 c5 15 00 80
       -2.21597e-40 -1.16028e-40 1.46332e-40 -7.81e-42
0003e0 aa fb 00 00 d0 64 00 00 c9 14 00 00 8c 6b 01 00
       9.028e-41 3.6165e-41 7.456e-42 1.30416e-40
0003f0 b9 bf 00 80 3f 53 02 00 55 24 02 00 5d 64 01 80
       -6.8777e-41 2.13534e-40 1.96704e-40 -1.27839e-40

fc2.bias f4 [256]
000000 da 0b 00 00 01 bd 02 00 c2 ad 01 00 3a bd 02 80
       4.252e-42 2.51473e-40 1.54168e-40 -2.51553e-40
000010 89 a4 00 00 8a 73 01 00 88 ac 00 00 4f 29 01 00
       5.9024e-41 1.33283e-40 6.1893e-41 1.06654e-40
000020 66 65 01 00 de 16 01 00 78 2e 03 80 67 97 01 80
       1.2821e-40 1.00039e-40 -2.92176e-40 -1.46148e-40
000030 0b 0b 03 00 fe cb 01 80 43 97 03 80 b0 2d 00 80
       2.79468e-40 -1.65014e-40 -3.29769e-40 -1.639e-41
000040 aa d3 01 00 46 2c 00 80 7f 83 01 00 05 aa 00 80
       1.67766e-40 -1.5882e-41 1.39007e-40 -6.0992e-41
000050 f3 7f 01 00 34 6a 00 80 64 77 00 80 80 56 02 80
       1.37735e-40 -3.8099e-41 -4.2829e-41 -2.14701e-40
000060 2a 5d 03 80 97 6a 02 00 c1 b6 00 00 a1 5b 00 00
       -3.08927e-40 2.21908e-40 6.556e-41 3.287e-41
000070 b7 d4 00 80 63 7c 01 80 ec 4b 01 80 37 8d 01 00
       -7.6308e-41 -1.36457e-40 -1.19071e-40 1.42494e-40
000080 de b2 02 00 26 b1 02 00 9d c2 01 00 0f 56 01 00
       2.47836e-40 2.4722e-40 1.6165e-40 1.22708e-40
000090 68 39 00 00 a7 ed 01 80 91 f9 02 80 c7 7e 02 00
       2.0593e-41 -1.77089e-40 -2.73199e-40 2.2915e-40
0000a0 0b 1f 03 80 7e 93 00 00 7f b6 00 80 35 3d 01 80
       -2.86643e-40 5.291e-41 -6.5467e-41 -1.13792e-40
0000b0 f9 a2 00 80 59 a8 01 00 02 d6 02 00 e4 56 01 80
       -5.8464e-41 1.52227e-40 2.60443e-40 -1.23006e-40
0000c0 ed e3 00 80 07 0b 00 00 33 2b 03 80 4d a9 01 00
       -8.1764e-41 3.956e-42 -2.91003e-40 1.52569e-40
0000d0 f4 20 00 80 80 a7 01 80 bc 5d 02 80 0c 96 01 80
       -1.1821e-41 -1.51923e-40 -2.17297e-40 -1.45662e-40
0000e0 90 71 00 00 11 88 00 00 db 85 01 00 e6 dc 00 00
       4.0739e-41 4.8811e-41 1.39854e-40 7.9243e-41
0000f0 65 6b 01 80 10 22 03 80 f2 b5 00 00 d6 4a 03 00
       -1.30361e-40 -2.87726e-40 6.527e-41 3.02353e-40
000100 6c 75 02 00 cc d7 02 80 4d aa 00 80 fa a4 00 80
       2.25794e-40 -2.61084e-40 -6.1092e-41 -5.9182e-41
000110 3b 26 03 00 ca d0 00 00 4e e4 01 00 85 2b 01 80
       2.89221e-40 7.49e-41 1.73736e-40 -1.07447e-40
000120 28 4f 00 80 7e 7f 00 80 ca 5b 00 80 2e a3 01 80
       -2.8396e-41 -4.5736e-41 -3.2928e-41 -1.50373e-40
000130 ee 85 01 00 3a 05 02 80 8a 49 02 80 e8 e8 00 00
       1.3988e-40 -1.85546e-40 -2.10052e-40 8.3551e-41
000140 fc dc 00 80 82 54 01 80 d5 6c 03 80 32 56 00 80
       -7.9274e-41 -1.22151e-40 -3.14548e-40 -3.0921e-41
000150 31 bd 00 80 94 47 01 80 80 97 00 80 6a fd 00 00
       -6.7869e-41 -1.17513e-40 -5.4348e-41 9.0908e-41
000160 e2 44 01 80 46 61 00 80 33 fe 01 00 11 ff 00 80
       -1.16546e-40 -3.4895e-41 1.83025e-40 -9.15e-41
000170 5c 01 01 80 9a a8 00 80 6b 38 01 00 c8 1b 03 00
       -9.2323e-41 -6.0483e-41 1.12074e-40 2.85473e-40
000180 b9 48 01 80 32 2b 01 00 e1 ab 01 80 26 aa 01 80
       -1.17923e-40 1.07331e-40 -1.53494e-40 -1.52873e-40
000190 64 58 03 00 d3 7d 00 00 d5 3f 01 80 a0 cd 00 00
       3.07215e-40 4.5137e-41 -1.14734e-40 7.3764e-41
0001a0 b4 d5 02 00 6d 4f 01 00 7b 1d 00 00 d0 80 01 00
       2.60333e-40 1.20328e-40 1.0576e-41 1.38045e-40
0001b0 fd 1d 02 00 40 23 01 00 66 35 02 00 d9 cb 01 00
       1.94429e-40 1.04481e-40 2.02827e-40 1.64962e-40
0001c0 82 fd 02 00 7e 32 02 80 49 28 01 00 2b 96 01 00
       2.74612e-40 -2.01784e-40 1.06287e-40 1.45706e-40
0001d0 07 59 03 80 70 a9 00 00 40 7d 00 80 94 0c 02 00
       -3.07443e-40 6.0783e-41 -4.4931e-41 1.88183e-40
0001e0 1b 68 02 00 5f 52 01 00 0b 6e 00 00 38 d6 02 00
       2.21017e-40 1.21385e-40 3.9476e-41 2.60518e-40
0001f0 cf c7 00 80 0e ce 00 00 6a 8d 00 80 02 52 00 80
       -7.1678e-41 7.3918e-41 -5.073e-41 -2.9419e-41
000200 eb 2a 00 80 b5 d9 00 00 3f 76 02 00 fd 60 00 80
       -1.5396e-41 7.8099e-41 2.2609e-40 -3.4793e-41
000210 f7 34 02 80 36 c3 00 00 22 c2 00 80 f2 75 02 80
       -2.02671e-40 7.0028e-41 -6.9642e-41 -2.25982e-40
000220 d2 5b 00 00 c0 f4 01 00 07 30 00 80 bb 07 02 80
       3.2939e-41 1.79635e-40 -1.7229e-41 -1.86444e-40
000230 b6 ec 01 00 b5 fe 02 00 5c 2e 02 00 9e 7e 01 00
       1.76751e-40 2.75043e-40 2.00302e-40 1.37257e-40
000240 6b 1e 01 80 5b 4a 00 80 d3 89 00 80 04 5e 01 80
       -1.02747e-40 -2.6674e-41 -4.9442e-41 -1.25562e-40
000250 ab 35 00 80 25 0b 02 00 28 14 00 00 75 b4 02 00
       -1.9252e-41 1.87669e-40 7.23e-42 2.48407e-40
000260 e3 96 03 00 eb 97 00 00 c2 5b 00 80 51 35 02 00
       3.29634e-40 5.4498e-41 -3.2917e-41 2.02797e-40
000270 20 31 02 00 66 7e 01 80 81 40 01 00 db 29 00 80
       2.01294e-40 -1.37179e-40 1.14975e-40 -1.5015e-41
000280 14 b3 02 00 3b 06 00 00 97 f5 01 00 11 91 01 80
       2.47912e-40 2.235e-42 1.79937e-40 -1.43876e-40
000290 54 34 01 00 11 33 00 80 a9 59 00 00 f3 2e 00 80
       1.10607e-40 -1.8319e-41 3.2164e-41 -1.6842e-41
0002a0 a0 16 00 80 bb 50 02 80 c3 c6 01 00 53 ab 01 00
       -8.116e-42 -2.12632e-40 1.63138e-40 1.53295e-40
0002b0 c6 54 01 00 ac 19 00 00 e5 bb 01 80 c5 02 03 00
       1.22246e-40 9.21e-42 -1.5924e-40 2.765e-40
0002c0 e7 47 03 00 31 f5 02 00 e0 c6 01 00 72 76 01 80
       3.013e-40 2.71629e-40 1.63178e-40 -1.34326e-40
0002d0 ca 2c 02 00 ae 16 00 00 7d 1f 00 00 bf 66 03 80
       1.99738e-40 8.136e-42 1.1296e-41 -3.12365e-40
0002e0 6e e8 02 00 5f f4 01 00 77 a6 00 80 35 78 03 00
       2.67051e-40 1.795e-40 -5.9716e-41 3.18629e-40
0002f0 74 49 01 00 b2 8a 02 80 3e de 02 00 22 0e 03 80
       1.18186e-40 -2.33425e-40 2.63396e-40 -2.80576e-40
000300 40 a7 00 80 d3 a6 00 80 fb 52 01 80 a1 9c 01 80
       -5.9998e-41 -5.9845e-41 -1.21603e-40 -1.48023e-40
000310 9a 16 02 80 8b 9e 01 80 8f 07 02 00 02 3a 00 80
       -1.91779e-40 -1.4871e-40 1.86383e-40 -2.0809e-41
000320 57 a8 00 00 b8 e8 01 80 68 ac 01 00 18 d5 02 80
       6.0389e-41 -1.75319e-40 1.53683e-40 -2.60115e-40
000330 9b b6 00 00 ba 88 00 00 d1 f0 01 00 c7 79 00 80
       6.5506e-41 4.9048e-41 1.78224e-40 -4.3685e-41
000340 fb 52 01 00 6a ad 01 80 be 1c 02 00 39 29 01 80
       1.21603e-40 -1.54045e-40 1.93982e-40 -1.06623e-40
000350 5c ef 02 80 96 b5 00 00 7c da 00 00 a0 af 00 80
       -2.69537e-40 6.5141e-41 7.8377e-41 -6.3002e-41
000360 26 ac 00 00 5a da 00 00 bc 3d 02 80 74 a9 02 00
       6.1755e-41 7.833e-41 -2.05817e-40 2.4446e-40
000370 44 2f 00 80 8e 10 03 00 dd 11 02 00 ec 7a 00 80
       -1.6956e-41 2.81445e-40 1.90079e-40 -4.4096e-41
000380 11 50 02 80 7e 08 03 80 ad 29 03 00 46 93 02 80
       -2.12393e-40 -2.78553e-40 2.90457e-40 -2.36503e-40
000390 a7 0e 00 00 64 fe 02 00 89 15 00 00 67 c5 02 80
       5.256e-42 2.74929e-40 7.725e-42 -2.54486e-40
0003a0 45 46 02 00 dc 49 00 80 7f 25 02 00 60 9a 01 00
       2.08879e-40 -2.6496e-41 1.97122e-40 1.47215e-40
0003b0 da 98 00 00 4c af 00 80 a8 08 03 80 3f 0b 02 00
       5.4833e-41 -6.2885e-41 -2.78612e-40 1.87705e-40
0003c0 58 32 00 00 b3 01 03 00 13 4e 01 00 07 17 00 80
       1.806e-41 2.76116e-40 1.19843e-40 -8.26e-42
0003d0 31 3c 02 80 06 b3 00 80 8f 96 01 80 6f 7e 01 00
       -2.05264e-40 -6.4222e-41 -1.45846e-40 1.37191e-40
0003e0 02 c9 00 00 7f 5c 01 80 f4 d9 02 80 18 18 01 00
       7.2108e-41 -1.25017e-40 -2.61858e-40 1.00479e-40
0003f0 21 39 02 00 de a7 01 80 6a 8d 02 80 0a 3b 01 00
       2.04165e-40 -1.52055e-40 -2.34401e-40 1.13015e-40

fc3.weight f4 [128, 256]
000000 f3 8a 01 00 ee 5e 02 80 3b fa 00 80 77 9b 01 80
       1.41681e-40 -2.17725e-40 -8.9766e-41 -1.47606e-40
000010 46 6f 02 00 50 65 01 00 3d 75 01 00 f6 72 00 00
       2.23588e-40 1.2818e-40 1.33893e-40 4.124e-41
000020 b5 05 01 80 df ef 00 00 d8 c5 01 80 b7 0f 00 80
       -9.3883e-41 8.605e-41 -1.62808e-40 -5.637e-42
000030 dd 06 00 00 a1 51 00 00 ba 69 01 00 e6 43 00 80
       2.462e-42 2.9283e-41 1.29763e-40 -2.4357e-41
000040 d8 fa 00 00 bc 09 01 80 63 14 03 00 46 ab 00 80
       8.9986e-41 -9.5328e-41 2.8282e-40 -6.1441e-41
000050 7e 8a 01 00 ad 09 03 80 84 da 01 00 e6 6b 00 00
       1.41517e-40 -2.78978e-40 1.70224e-40 3.8707e-41
000060 35 37 00 00 f6 c7 00 00 87 51 02 00 40 89 00 80
       1.9805e-41 7.1732e-41 2.12917e-40 -4.9236e-41
000070 0b 1d 02 00 35 b8 02 80 3f 3a 01 00 1c 22 00 80
       1.9409e-40 -2.49752e-40 1.1273e-40 -1.2236e-41
000080 d1 3f 02 00 3a 30 02 00 53 80 01 80 95 fa 00 00
       2.06564e-40 2.00971e-40 -1.3787e-40 8.9892e-41
000090 6c b0 02 00 1f 8c 00 00 e2 3b 02 00 6e fa 00 80
       2.46959e-40 5.0266e-41 2.05153e-40 -8.9837e-41
0000a0 b3 30 02 80 26 45 02 80 b4 16 01 80 f9 27 01 00
       -2.01141e-40 -2.08477e-40 -9.998e-41 1.06175e-40
0000b0 65 89 00 80 6a e6 01 00 d7 ea 00 80 f8 41 00 00
       -4.9288e-41 1.74492e-40 -8.4245e-41 2.3665e-41
0000c0 3e 3d 00 00 d6 12 01 80 b3 4f 02 00 c0 04 02 00
       2.197e-41 -9.8593e-41 2.12262e-40 1.85375e-40
0000d0 63 08 01 80 85 83 01 00 5b c4 01 80 ac 6e 00 80
       -9.4844e-41 1.39016e-40 -1.62275e-40 -3.9702e-41
0000e0 cd 7f 02 80 59 21 02 80 c2 62 01 00 bd 58 01 80
       -2.29517e-40 -1.95634e-40 1.27263e-40 -1.23669e-40
0000f0 ce c2 00 80 f5 63 02 80 bc ce 00 00 64 fa 01 00
       -6.9883e-41 -2.19529e-40 7.4162e-41 1.81659e-40
000100 6f 40 03 80 69 7a 00 80 35 25 01 00 e1 72 02 00
       -2.98621e-40 -4.3912e-41 1.05183e-40 2.24882e-40
000110 35 14 03 80 52 8e 01 80 c7 f1 00 00 6d 05 03 80
       -2.82755e-40 -1.4289e-40 8.6733e-41 -2.77453e-40
000120 5e 9b 00 00 66 06 01 80 b0 6d 01 80 52 a6 00 00
       5.5735e-41 -9.4131e-41 -1.31184e-40 5.9664e-41
000130 59 d4 01 80 b6 6c 02 00 5f f0 01 00 71 51 01 80
       -1.68011e-40 2.22669e-40 1.78064e-40 -1.21051e-40
000140 c3 b4 00 00 3f c1 01 00 c8 da 01 80 8e cc 00 80
       6.4845e-41 1.61159e-40 -1.7032e-40 -7.338e-41
000150 12 75 00 80 31 fc 00 00 68 a7 00 80 b4 4b 00 00
       -4.1997e-41 9.0469e-41 -6.0054e-41 2.7157e-41
000160 20 dd 02 80 73 40 02 80 01 5e 02 00 79 bd 00 00
       -2.62996e-40 -2.06791e-40 2.17393e-40 6.797e-41
000170 db 41 02 00 3e e7 01 00 a8 d0 00 80 8f 6f 02 80
       2.07295e-40 1.7479e-40 -7.4852e-41 -2.2369e-40
000180 2c e8 01 80 31 84 02 80 df 02 00 00 6e 3d 00 80
       -1.75123e-40 -2.31092e-40 1.03e-42 -2.2037e-41
000190 d0 25 01 80 e6 01 03 00 89 25 00 80 9f 66 01 80
       -1.054e-40 2.76188e-40 -1.3465e-41 -1.28649e-40
0001a0 be ac 01 80 42 6e 01 00 49 90 00 80 c7 9d 01 00
       -1.53804e-40 1.31389e-40 -5.176e-41 1.48435e-40
0001b0 d8 d7 00 00 7f cf 01 00 0f 5f 01 80 b8 d8 01 00
       7.743e-41 1.66271e-40 -1.25936e-40 1.6958e-40
0001c0 21 df 00 80 f1 50 02 00 d1 98 00 80 11 da 01 00
       -8.0044e-41 2.12707e-40 -5.482e-41 1.70063e-40
0001d0 c8 a1 01 00 2a 79 00 80 13 64 01 00 6b 84 00 80
       1.49872e-40 -4.3465e-41 1.27735e-40 -4.7503e-41
0001e0 18 2b 01 80 9f 9d 02 00 22 11 03 00 fd b9 01 80
       -1.07295e-40 2.40215e-40 2.81653e-40 -1.58556e-40
0001f0 c0 5e 00 80 17 2a 00 00 2b 6a 02 00 96 0c 03 00
       -3.399e-41 1.5099e-41 2.21757e-40 2.80021e-40
000200 77 46 02 00 0e b9 00 80 23 e6 01 80 fe f9 00 80
       2.08949e-40 -6.6385e-41 -1.74393e-40 -8.968e-41
000210 87 86 00 00 7a d9 00 00 80 d7 01 80 b9 ec 01 80
       4.826e-41 7.8016e-41 -1.69142e-40 -1.76756e-40
000220 6c 4f 00 00 06 57 03 80 2c 8d 00 80 88 64 01 80
       2.8491e-41 -3.06725e-40 -5.0643e-41 -1.279e-40
000230 96 80 02 00 05 3d 01 00 78 02 00 80 82 1c 03 80
       2.29799e-40 1.13725e-40 -8.86e-43 -2.85733e-40
000240 3c 32 02 80 3a e2 00 00 da e0 00 00 1a 1c 01 00
       -2.01692e-40 8.1155e-41 8.0662e-41 1.01916e-40
000250 9e 7f 01 00 94 9b 01 00 6b 4c 01 80 24 15 03 80
       1.37616e-40 1.47646e-40 -1.19249e-40 -2.8309e-40
000260 a3 f7 00 00 95 fe 01 80 61 64 00 80 26 66 00 00
       8.8835e-41 -1.83162e-40 -3.6009e-41 3.6644e-41
000270 b9 8f 00 00 23 83 00 80 b4 75 01 00 88 38 02 00
       5.1558e-41 -4.7043e-41 1.3406e-40 2.0395e-40
000280 ea f3 01 80 06 82 00 00 a3 21 02 00 65 98 01 00
       -1.79335e-40 4.6644e-41 1.95738e-40 1.46504e-40
000290 01 42 00 00 c5 b7 00 00 8e 19 01 00 89 23 01 80
       2.3678e-41 6.5924e-41 1.01003e-40 -1.04583e-40
0002a0 f1 dc 02 00 0d 5f 02 00 aa 2a 00 80 0a 60 01 80
       2.6293e-40 2.17769e-40 -1.5305e-41 -1.26288e-40
0002b0 b5 0e 01 80 1d 6a 00 00 36 13 02 80 85 27 02 00
       -9.7111e-41 3.8066e-41 -1.90563e-40 1.97848e-40
0002c0 13 47 01 80 8c 33 02 00 ad 6d 02 00 d6 6e 00 80
       -1.17332e-40 2.02163e-40 2.23015e-40 -3.976e-41
0002d0 7c fa 00 80 d9 8b 01 80 20 ab 02 00 85 6d 00 80
       -8.9857e-41 -1.42003e-40 2.45059e-40 -3.9288e-41
0002e0 8a 6f 00 00 ab 05 00 80 d0 87 00 00 c7 50 01 00
       4.0013e-41 -2.033e-42 4.872e-41 1.20813e-40
0002f0 b7 f6 02 80 1c 51 03 80 6b 18 03 80 dd 12 02 00
       -2.72176e-40 -3.04603e-40 -2.84266e-40 1.90438e-40
000300 d1 06 01 80 d1 02 01 00 ea 6b 02 80 bb 0a 01 00
       -9.4281e-41 9.2846e-41 -2.22383e-40 9.5685e-41
000310 ec a7 00 00 af 83 00 00 9d 3e 01 00 65 0b 01 00
       6.0239e-41 4.7239e-41 1.14297e-40 9.5923e-41
000320 eb 98 00 80 76 e9 00 80 ed 3b 01 00 44 6a 01 00
       -5.4857e-41 -8.375e-41 1.13333e-40 1.29956e-40
000330 a2 2e 01 00 54 5f 01 80 f6 20 01 80 23 8e 02 00
       1.08564e-40 -1.26033e-40 -1.0366e-40 2.3466e-40
000340 73 b3 00 00 8f b0 00 80 b5 06 03 80 da 9c 00 80
       6.4374e-41 -6.3337e-41 -2.77913e-40 -5.6268e-41
000350 b9 f9 00 80 28 13 00 80 11 0e 01 80 c5 9d 00 80
       -8.9584e-41 -6.872e-42 -9.6882e-41 -5.6597e-41
000360 c3 40 00 00 c0 ec 02 00 af 29 02 00 b3 66 01 00
       2.3232e-41 2.68601e-40 1.98624e-40 1.28677e-40
000370 41 6a 01 80 37 d8 01 00 88 92 00 80 17 93 01 00
       -1.29952e-40 1.69399e-40 -5.2566e-41 1.44601e-40
000380 5c 08 01 00 f5 10 02 00 c7 43 00 00 b7 4b 00 00
       9.4834e-41 1.89754e-40 2.4314e-41 2.7161e-41
000390 00 4d 02 00 24 a3 01 80 b5 10 01 80 3f 9c 00 80
       2.11293e-40 -1.5036e-40 -9.7829e-41 -5.605e-41
0003a0 0f 74 02 00 a2 25 02 80 aa b1 01 00 54 b4 01 80
       2.25305e-40 -1.97171e-40 1.5557e-40 -1.56525e-40
0003b0 5e ea 02 80 23 3f 03 00 64 48 01 00 99 91 01 80
       -2.67746e-40 2.98156e-40 1.17804e-40 -1.44066e-40
0003c0 c9 0e 00 00 43 1d 03 80 bf 02 00 80 27 92 02 80
       5.304e-42 -2.86004e-40 -9.85e-43 -2.361e-40
0003d0 7b 5a 00 80 1e 73 01 80 a2 90 02 00 d4 45 01 00
       -3.2458e-41 -1.33132e-40 2.35555e-40 1.16885e-40
0003e0 2d d3 00 00 b4 ba 01 00 1c 17 01 00 51 26 02 00
       7.5756e-41 1.58812e-40 1.00126e-40 1.97416e-40
0003f0 9c cb 00 00 85 ad 01 80 44 1d 01 00 dd f0 01 80
       7.3041e-41 -1.54083e-40 1.02334e-40 -1.78241e-40

fc3.bias f4 [128]
000000 4b 17 85 9d e3 b6 76 bb 08 e3 aa b1 9d 3c 77 a5
       -3.522889e-21 -0.003764563 -4.9734616e-09 -2.1444372e-16
000010 6d 7a 9d 80 db 81 a2 33 9f 7d fc a6 1c de 6d 37
       -1.4462091e-38 7.5673334e-08 -1.7520062e-15 1.4178015e-05
000020 ea a5 cc 9b c5 30 78 b3 95 5e a4 35 12 d7 73 a8
       -3.3856188e-22 -5.7786355e-08 1.2246479e-06 -1.3535846e-14
000030 75 4d 06 80 e4 cc 94 83 22 5d 27 b5 0b 5f c4 ae
       -5.788e-40 -8.745699e-37 -6.2347874e-07 -8.929931e-11
000040 67 fa d7 88 56 74 98 a2 e1 fd 0d 25 7b 95 b1 16
       -1.2998711e-33 -4.132286e-18 1.2315818e-16 2.8690228e-25
000050 97 c9 00 84 67 09 e2 b0 1e 10 3a a2 5f 46 e4 b4
       -1.5138893e-36 -1.6446337e-09 -2.5216233e-18 -4.251951e-07
000060 36 64 ec 0c 5d be e2 36 52 ef da ac bb 01 50 37
       3.642187e-31 6.757486e-06 -6.2225025e-12 1.2398169e-05
000070 35 99 31 28 84 05 8a 38 9a 87 99 8a bb 0b 7d 8d
       9.858695e-15 6.58138e-05 -1.4784372e-32 -7.7975764e-31
000080 33 98 40 b2 73 96 10 9e 0c d3 9d b6 b6 ed a3 ae
       -1.1210477e-08 -7.654409e-21 -4.7035337e-06 -7.454608e-11
000090 83 3f 50 35 a3 e2 8b 30 f9 a1 13 b0 df c1 b1 ac
       7.757846e-07 1.0177995e-09 -5.3708465e-10 -5.0521666e-12
0000a0 9f 75 3e b0 b7 be 04 12 c8 4c 4e b3 c4 e2 e6 31
       -6.9288747e-10 4.188693e-28 -4.8032945e-08 6.7196613e-09
0000b0 3d 28 20 b4 8b 7d ff a2 2e 75 11 29 04 fb 01 a4
       -1.49158e-07 -6.9250812e-18 3.2298105e-14 -2.8185035e-17
0000c0 63 01 ab a4 d5 13 9d 36 2f c2 ca b1 fe 73 75 b5
       -7.416178e-17 4.6812734e-06 -5.90105e-09 -9.1438403e-07
0000d0 09 98 e8 a5 da cc 32 84 ed 15 3e b9 bc 18 c8 99
       -4.0348608e-16 -2.1017863e-36 -0.0001812798 -2.0689505e-23
0000e0 13 0c d8 ad 19 5e 6b b9 d6 1f 5d b6 1e a0 00 80
       -2.4561719e-11 -0.000224464 -3.2950097e-06 -5.7439e-41
0000f0 fb 91 41 b9 67 3f 9a 38 a3 82 00 00 2f 05 89 06
       -0.00018460296 7.355102e-05 4.6864e-41 5.154129e-35
000100 65 7c b1 ae c2 73 86 a2 b0 11 e5 18 aa 38 1e 1f
       -8.071125e-11 -3.6443336e-18 5.9212972e-24 3.3504673e-20
000110 a9 4d 56 b0 61 03 c9 ab 80 9d 3d ba 94 d3 a5 32
       -7.796311e-10 -1.4282847e-12 -0.0007233247 1.9304743e-08
000120 7c 23 83 ae ec 23 f8 2a b0 c2 21 24 33 40 c6 a3
       -5.9634936e-11 4.4078575e-13 3.5076217e-17 -2.1494392e-17
000130 c5 3a bf 32 7b 05 1a 00 89 cc 9b 31 c7 66 43 83
       2.2262052e-08 2.389689e-39 4.5343467e-09 -5.742333e-37
000140 4f 00 4c 9f 71 b5 0c b7 09 7d 5b b1 f4 7a 9c b8
       -4.3198936e-20 -8.386895e-06 -3.1939769e-09 -7.4615615e-05
000150 f5 49 56 b5 9f 63 b2 a8 62 56 05 1d 90 de 24 a3
       -7.9828834e-07 -1.9805174e-14 1.7647062e-21 -8.937587e-18
000160 83 63 4f a9 bc a7 98 25 9b 1c 51 31 2d c4 24 2d
       -4.6049546e-14 2.6481458e-16 3.0429763e-09 9.3658805e-12
000170 f3 4d 1d 80 c6 40 db 35 0b 56 5c 31 92 6a ce 32
       -2.691192e-39 1.6335623e-06 3.2063123e-09 2.4030019e-08
000180 79 bb 4a a7 d3 57 f3 09 2b 16 cd a5 fa e5 8a 99
       -2.813476e-15 5.858271e-33 -3.5576853e-16 -1.4361752e-23
000190 ed 17 60 a9 94 3c 40 2f 84 6e 8f b2 d3 ec 05 a8
       -4.9758744e-14 1.748382e-10 -1.6697648e-08 -7.434336e-15
0001a0 78 97 07 23 7f 67 a5 b8 8f 76 80 82 a1 31 7d 8e
       7.3504394e-18 -7.887091e-05 -1.887596e-37 -3.1208553e-30
0001b0 64 fd 83 81 73 bc 75 80 70 9c 62 38 8d f9 e2 38
       -4.84854e-38 -1.0812356e-38 5.4028293e-05 0.00010823002
0001c0 6a f7 b0 34 fd b3 0d 2d 98 da 86 2e b3 7b 97 9b
       3.2962572e-07 8.0548875e-12 6.1324446e-11 -2.5060793e-22
0001d0 8f 40 d6 2e 46 1c 43 30 28 05 9a 99 3d 39 9e aa
       9.743061e-11 7.0980766e-10 -1.592531e-23 -2.8106155e-13
0001e0 cf 10 02 14 16 99 18 b1 94 15 e8 32 63 5e 3e a1
       6.566638e-27 -2.220593e-09 2.7018167e-08 -6.4499424e-19
0001f0 e7 4f 02 80 6e ea 5b a5 65 ad c2 aa b4 44 ed a4
       -2.12335e-40 -1.907465e-16 -3.458164e-13 -1.02898754e-16

fc4.weight f4 [1, 128]
000000 08 42 ca 1c 97 32 82 3b 34 3e 6f b1 07 a1 10 25
       1.3384307e-21 0.003973316 -3.4814436e-09 1.2544567e-16
000010 b0 54 a1 00 b1 f5 8c b3 b5 a9 22 26 bb 2e 77 b7
       1.4815895e-38 -6.563949e-08 5.6435037e-16 -1.47332275e-05
000020 63 b6 c9 1b 6f 1c 78 33 cd 54 30 b5 14 ec 77 28
       3.3370525e-22 5.776786e-08 -6.568851e-07 1.3762446e-14
000030 81 1d 05 00 39 85 4e 84 04 ca f8 b4 f4 0c 39 ae
       4.69761e-40 -2.4276356e-36 -4.6340585e-07 -4.2075635e-11
000040 94 61 47 89 23 41 e1 a1 9c 28 55 a5 1f 99 ce 96
       -2.3999635e-33 -1.5263835e-18 -1.8488564e-16 -3.3377728e-25
000050 bb f2 4e 04 d5 56 97 b1 66 7c 60 a2 de e3 bb 34
       2.432664e-36 -4.40455e-09 -3.0423517e-18 3.499726e-07
000060 0f 4d ef 8c ed 87 e2 b6 e2 2e 0a 2d d2 fc 4f b7
       -3.6870158e-31 -6.7511487e-06 7.854802e-12 -1.2397026e-05
000070 de f1 22 a8 c7 ee 89 b8 36 32 df 0a f1 1e 18 8d
       -9.045253e-15 -6.577145e-05 2.1493006e-32 -4.687586e-31
000080 a1 60 c6 b1 e6 fa 77 1d 9b 00 9d b6 dd b4 a3 2e
       -5.773544e-09 3.281989e-21 -4.679035e-06 7.4445096e-11
000090 45 fc 78 b6 a1 f5 90 b0 6c 93 90 30 06 2b 46 ab
       -3.710172e-06 -1.0547191e-09 1.0519279e-09 -7.040344e-13
0000a0 9c e7 43 30 09 d4 04 92 aa 8e 8e b3 34 57 b2 b2
       7.1269723e-10 -4.191321e-28 -6.638341e-08 -2.0761583e-08
0000b0 4f 11 ed b2 43 4a 0f a6 92 ea 82 a9 80 be 0b 24
       -2.7598302e-08 -4.9713735e-16 -5.813851e-14 3.030218e-17
0000c0 ec 9f c0 a5 8b 5e 9d b6 a0 e1 cd b1 c9 71 86 b5
       -3.3415058e-16 -4.689971e-06 -5.991936e-09 -1.0016894e-06
0000d0 6f 42 06 26 67 59 45 84 fd 75 85 39 60 7f 43 99
       4.6580623e-16 -2.319829e-36 0.00025455645 -1.0106987e-23
0000e0 8f 67 a0 2d 6d 2f 85 39 5d cf d9 b5 0b 2d 00 00
       1.8235883e-11 0.00025403072 -1.622811e-06 1.6158e-41
0000f0 28 aa 5f b9 8c e8 9d b8 8d 7f 00 80 d0 10 89 86
       -0.00021330325 -7.5296586e-05 -4.5757e-41 -5.1558376e-35
000100 ab 33 73 af d9 b6 e1 22 5a 6a 28 99 68 8b c6 1f
       -2.2119077e-10 6.117997e-18 -8.706874e-24 8.408689e-20
000110 6f b2 6b 2e 56 36 2b ac ec f4 3e 3a f2 40 31 b4
       5.3591295e-11 -2.4330724e-12 0.0007284421 -1.6508037e-07
000120 68 b5 82 2e 3e e2 fd aa 32 2c 1e a5 ca 19 86 24
       5.94394e-11 -4.5098815e-13 -1.371929e-16 5.8156925e-17
000130 a8 48 c1 b2 ab 83 ea 80 af 19 9b b1 2a dd 93 84
       -2.2501197e-08 -2.153674e-38 -4.5140136e-09 -3.476264e-36
000140 f7 f2 64 9f 45 38 4e 37 8c a1 09 30 72 7d 08 b9
       -4.8481854e-20 1.2291658e-05 5.006988e-10 -0.00013016703
000150 61 ea 42 35 cb 4a 89 27 06 de e0 9c 19 32 a5 a2
       7.26117e-07 3.810623e-15 -1.4880468e-21 -4.4776383e-18
000160 d1 38 94 a9 04 48 9c a5 50 61 92 b2 06 35 ec ae
       -6.5823764e-14 -2.7110486e-16 -1.704089e-08 -1.0741456e-10
000170 07 4d 1b 00 e7 88 0c b5 b2 08 5c b1 07 b7 d1 b2
       2.50719e-39 -5.2353283e-07 -3.2019156e-09 -2.4414033e-08
000180 9b 7d 62 27 1e 5c 1d 8a b1 3d aa a6 d5 cb 81 19
       3.1431891e-15 -7.5766e-33 -1.1812841e-15 1.3420614e-23
000190 40 f3 d9 2a d6 99 90 af 37 4c b1 32 04 73 f2 27
       3.8715732e-13 -2.6302754e-10 2.064017e-08 6.7293193e-15
0001a0 20 53 dd a2 0a c4 9a 38 46 4c e1 01 62 ab 05 8e
       -5.999018e-18 7.379807e-05 8.2761394e-38 -1.6476034e-30
0001b0 0e c7 34 83 5c 02 78 00 ea fc e0 b7 15 28 5e b9
       -5.312575e-37 1.1021106e-38 -2.6820653e-05 -0.00021186502
0001c0 3e 88 ab b4 95 ed 64 2e 7b 6c 7f 2e 90 42 06 9c
       -3.195036e-07 5.2052213e-11 5.8076637e-11 -4.442291e-22
0001d0 51 d4 d6 ae b9 bb d3 b0 3f ef a1 99 9d bf 96 aa
       -9.769308e-11 -1.5405625e-09 -1.674364e-23 -2.677831e-13
0001e0 b4 9b 16 94 6b 36 54 30 f6 89 ee b2 c2 af 1d a1
       -7.603772e-27 7.7202483e-10 -2.7769584e-08 -5.3426283e-19
0001f0 4c 4a 02 80 1e fd ee a5 0e 07 a3 2a 22 2d 8e 24
       -2.10324e-40 -4.1457938e-16 2.8959512e-13 6.165914e-17
