checkpoint_critic.pth (torch_old, 435540 bytes, 7 tensors)

fcs1.weight f4 [256, 33]
9.155e-41 -1.92487e-40 2.1528e-41 3.3722e-41 1.75203e-40 -9.8053e-41 -6.995e-41 -8.1191e-41
-1.73911e-40 5.4276e-41 8.6981e-41 9.128e-41 1.1349e-40 -4.3666e-41 1.64994e-40 -1.0323e-41
-8.2426e-41 8.4466e-41 -1.08487e-40 4.5793e-41 2.0402e-41 -1.4288e-40 3.437e-42 -1.217e-41
-8.3491e-41 1.621e-41 7.1763e-41 2.23707e-40 -3.00117e-40 -1.80313e-40 -2.40268e-40 1.70562e-40
5.1597e-41 2.29694e-40 -8.0914e-41 4.5594e-41 1.4031e-40 4.0859e-41 2.23906e-40 -2.4705e-41
-2.33234e-40 2.1831e-41 1.48906e-40 -1.091e-40 -8.1584e-41 1.5788e-41 -4.766e-41 7.0617e-41
-1.06395e-40 -1.58372e-40 -1.40849e-40 1.20208e-40 5.8798e-41 5.182e-41 -1.78614e-40 -5.8398e-41
1.73065e-40 -1.13382e-40 -1.70967e-40 9.743e-42 -2.0055e-41 2.50462e-40 8.6195e-41 1.39059e-40
2.30707e-40 5.6687e-41 5.796e-41 1.81579e-40 -5.912e-42 -1.87471e-40 2.25767e-40 1.03392e-40
-1.6388e-41 -3.074e-42 -6.2728e-41 -2.1174e-41 -9.618e-41 1.09866e-40 -1.52045e-40 -9.7818e-41
9.7874e-41 1.42072e-40 -8.1822e-41 1.14764e-40 1.9439e-40 8.247e-42 1.38098e-40 -2.40632e-40
-4.7903e-41 -2.38357e-40 -2.9451e-41 -2.00819e-40 -1.52023e-40 -9.0033e-41 1.10257e-40 -1.56564e-40
-2.24761e-40 -2.8046e-41 -1.78919e-40 -1.70766e-40 2.37812e-40 1.23086e-40 -7.1898e-41 -3.3197e-41
-1.59804e-40 -1.08552e-40 1.49205e-40 -6.925e-42 -1.18222e-40 1.43281e-40 -7.7754e-41 1.68798e-40
5.9859e-41 -2.84728e-40 1.019e-42 -3.7782e-41 1.6397e-40 1.78059e-40 1.36074e-40 -4.6943e-41
-3.02081e-40 -2.51928e-40 2.15553e-40 1.15401e-40 -2.8679e-41 -2.51017e-40 1.10548e-40 3.7307e-41
-7.9951e-41 -1.17298e-40 1.97959e-40 -7.6427e-41 2.50484e-40 1.71555e-40 1.36297e-40 2.33468e-40
-8.6069e-41 -9.4033e-41 8.6662e-41 2.15318e-40 2.06982e-40 -5.0716e-41 -2.51635e-40 -1.36023e-40
-8.7098e-41 -2.7115e-41 -1.99217e-40 -4.9544e-41 6.108e-42 -1.4054e-41 -9.4394e-41 -1.04217e-40
-1.602e-40 -7.17e-43 1.89009e-40 -2.04469e-40 -6.2872e-41 4.83e-42 3.0091e-41 7.2436e-41
-1.42747e-40 1.7231e-40 1.51067e-40 1.58344e-40 3.2293e-41 -3.2632e-41 1.0999e-41 1.0944e-41
1.43145e-40 -1.85273e-40 -2.22836e-40 1.191e-40 -2.58827e-40 9.6582e-41 -1.14328e-40 1.53065e-40
5.7012e-41 1.66113e-40 1.89712e-40 2.75927e-40 5.6406e-41 1.99395e-40 1.13635e-40 -1.6865e-41
1.18488e-40 1.88615e-40 -1.9041e-40 -1.09376e-40 1.27803e-40 2.12676e-40 1.66033e-40 8.8705e-41
-2.90475e-40 -1.41635e-40 -1.45435e-40 -1.9704e-41 -7.7678e-41 -2.25246e-40 -1.90607e-40 -1.75103e-40
-4.2915e-41 -2.0864e-41 1.5113e-40 -5.892e-42 -2.90177e-40 2.6447e-41 -1.05676e-40 -6.7522e-41
7.0215e-41 1.45557e-40 -1.62661e-40 -1.021e-40 -1.56549e-40 1.17967e-40 -1.26959e-40 1.40706e-40
-2.0154e-40 1.3196e-40 1.30953e-40 1.58163e-40 -5.5489e-41 -1.11095e-40 -1.09301e-40 8.3683e-41
-1.12e-43 1.99871e-40 1.56043e-40 -3.092e-41 6.0399e-41 4.3161e-41 -2.33609e-40 -1.52153e-40
6.1893e-41 -2.28752e-40 2.20857e-40 3.04426e-40 2.75145e-40 2.10577e-40 1.70808e-40 1.18474e-40
1.8182e-41 -1.61877e-40 -1.02092e-40 -2.44223e-40 -2.13713e-40 -1.052e-40 1.20451e-40 1.12293e-40
1.27999e-40 -1.13102e-40 2.8082e-41 1.81209e-40 -8.1308e-41 -1.0179e-40 -5.0336e-41 -2.3648e-40
00000000: 34ff 0000 9318 0280 033c 0000 015e 0000
00000010: 65e8 0100 5511 0180 fec2 0080 54e2 0080
00000020: cbe4 0180 4d97 0000 78f2 0000 74fe 0000
00000030: 5d3c 0100 b979 0080 f0cb 0100 c71c 0080
00000040: c5e5 0080 75eb 0000 6b2e 0180 a77f 0000
00000050: df38 0000 4b8e 0180 9509 0000 ed21 0080
00000060: bde8 0080 302d 0000 0cc8 0000 9b6f 0200
00000070: 9b44 0380 a4f6 0180 c59d 0280 75db 0100
00000080: d58f 0000 4b80 0200 8ee1 0080 197f 0000
00000090: 2187 0100 e671 0000 2970 0200 de44 0080
000000a0: 298a 0280 db3c 0000 179f 0100 2030 0180
000000b0: 6ce3 0080 032c 0000 db84 0080 dac4 0000
000000c0: 9628 0180 7ab9 0180 a188 0180 174f 0100
000000d0: e8a3 0000 7490 0000 e7f1 0180 caa2 0080
000000e0: 6fe2 0100 103c 0180 96dc 0180 291b 0000
000000f0: e837 0080 30ba 0200 47f0 0000 a483 0100
00000100: 1e83 0200 059e 0000 92a1 0000 2bfa 0100
00000110: 7b10 0080 980a 0280 5975 0200 3720 0100
00000120: af2d 0080 9208 0080 dcae 0080 063b 0080
00000130: 1c0c 0180 4332 0100 d7a7 0180 ad10 0180
00000140: d510 0100 0a8c 0100 16e4 0080 ea3f 0100
00000150: e11d 0200 fd16 0000 f680 0100 c99e 0280
00000160: 8985 0080 7198 0280 1952 0080 cd2f 0280
00000170: c7a7 0180 fafa 0080 5a33 0100 70b4 0180
00000180: 8b72 0280 2e4e 0080 c1f2 0180 07dc 0180
00000190: ec96 0200 1d57 0100 6cc8 0080 8a5c 0080
000001a0: 78bd 0180 992e 0180 ec9f 0100 4e13 0080
000001b0: 8e49 0180 698f 0100 bfd8 0080 8ad6 0100
000001c0: dda6 0000 b519 0380 d702 0000 5269 0080
000001d0: 15c9 0100 5bf0 0100 527b 0100 dc82 0080
000001e0: 144a 0380 46be 0280 e058 0200 b141 0100
000001f0: f24f 0080 bcbb 0280 2a34 0100 ff67 0000
00000200: dfde 0080 fb46 0180 d427 0200 0cd5 0080
00000210: 3fba 0200 3ade 0100 f17b 0100 d08a 0200
00000220: edef 0080 2006 0180 94f1 0000 3858 0200
00000230: fb40 0200 608d 0080 75bd 0280 2d7b 0180
00000240: cbf2 0080 964b 0080 562b 0280 1c8a 0080
00000250: 0711 0000 2d27 0080 2207 0180 8422 0180
00000260: 93be 0180 0002 0080 e10e 0200 fa39 0280
00000270: 43af 0080 770d 0000 e253 0000 ecc9 0000
00000280: ec8d 0180 55e0 0100 1da5 0100 66b9 0100
00000290: 055a 0000 f75a 0080 a91e 0000 821e 0000
000002a0: 088f 0100 7704 0280 2d6d 0280 014c 0100
000002b0: 81d1 0280 3b0d 0100 b33e 0180 afaa 0100
000002c0: ed9e 0000 0ecf 0100 d710 0200 2c01 0300
000002d0: 3d9d 0000 d52b 0200 c53c 0100 032f 0080
000002e0: 4c4a 0100 c80d 0200 c912 0280 e530 0180
000002f0: 4364 0100 db50 0200 d5ce 0100 46f7 0000
00000300: ba29 0380 d28a 0180 6a95 0180 ed36 0080
00000310: 89d8 0080 e573 0280 5613 0280 1ee8 0180
00000320: a177 0080 293a 0080 4aa5 0100 6d10 0080
00000330: e528 0380 b949 0000 9526 0180 39bc 0080
00000340: bbc3 0000 c195 0100 6fc5 0180 9d1c 0180
00000350: 65b4 0180 d848 0100 e961 0180 3b88 0100
00000360: d031 0280 da6f 0100 0b6d 0100 e5b8 0100
00000370: ae9a 0080 b035 0180 b030 0180 46e9 0000
00000380: 5000 0080 292d 0200 fcb2 0100 3156 0080
00000390: 5ea8 0000 5178 0000 358b 0280 24a8 0180
000003a0: 88ac 0000 ab7d 0280 a967 0200 9e50 0300
000003b0: fefe 0200 014b 0200 25dc 0100 424a 0100
000003c0: af32 0000 3fc3 0180 971c 0180 cba8 0280
000003d0: bf53 0280 4125 0180 c54f 0100 0739 0100
000003e0: cf64 0100 483b 0180 484e 0000 23f9 0100
000003f0: a7e2 0080 c01b 0180 518c 0080 3693 0280

fcs1.bias f4 [256]
-1.1704e-40 4.5038e-41 -2.31668e-40 -3.608e-42 1.54555e-40 1.72354e-40 -1.30677e-40 1.5503e-40
-1.69141e-40 -4.4546e-41 2.28173e-40 1.2016e-40 1.46873e-40 1.51895e-40 6.9667e-41 1.4736e-41
1.23338e-40 2.0926e-41 -2.54771e-40 -5.9976e-41 3.4934e-41 2.12794e-40 -4.3756e-41 -2.34045e-40
1.27707e-40 -5.831e-42 2.00009e-40 5.8085e-41 4.7078e-41 1.62286e-40 2.46664e-40 2.27323e-40
-2.9911e-41 -1.47704e-40 2.59177e-40 1.57918e-40 -1.35833e-40 1.90899e-40 1.59326e-40 -2.40139e-40
-1.1474e-40 -5.5623e-41 -5.8033e-41 2.69388e-40 -1.06853e-40 2.86982e-40 -7.083e-41 2.9951e-41
1.16368e-40 4.4102e-41 -1.08218e-40 7.9328e-41 1.34079e-40 -2.34242e-40 -1.48283e-40 9.2819e-41
1.62126e-40 -1.38608e-40 1.86573e-40 1.60496e-40 4.8936e-41 1.1966e-41 -7.5101e-41 -3.921e-41
2.34527e-40 -6.0627e-41 9.9712e-41 -1.40375e-40 2.53032e-40 1.88832e-40 -7.5747e-41 -2.80714e-40
2.93976e-40 1.15901e-40 -1.06508e-40 4.7e-41 5.498e-41 9.178e-41 1.27867e-40 3.0908e-40
1.4174e-41 -2.11104e-40 -1.6666e-41 -1.49884e-40 -7.3578e-41 -9.8237e-41 1.01433e-40 -6.5369e-41
2.37524e-40 1.52904e-40 1.30929e-40 -1.27381e-40 -1.7475e-40 2.3849e-41 1.35e-40 1.54083e-40
-1.97437e-40 -1.39045e-40 2.3511e-41 4.6159e-41 -4.993e-42 2.563e-42 2.2244e-41 1.86244e-40
6.7217e-41 -1.85165e-40 1.34868e-40 1.66127e-40 1.23031e-40 -1.90053e-40 6.36e-43 -6.8938e-41
5.9358e-41 -8.0751e-41 2.246e-40 -6.2093e-41 -5.971e-42 -1.9624e-40 -1.79616e-40 -5.2888e-41
1.756e-41 1.56945e-40 -9.819e-41 6.1814e-41 -1.53783e-40 -8.9214e-41 8.8981e-41 -1.4531e-41
-1.80969e-40 -7.613e-41 5.0902e-41 -2.0327e-41 1.21437e-40 6.01e-42 -1.87277e-40 -1.27748e-40
1.05041e-40 -1.92122e-40 -4.5785e-41 5.7498e-41 -1.02335e-40 -1.99745e-40 1.33387e-40 3.6463e-41
3.302e-41 -1.18752e-40 -9.5494e-41 -2.19317e-40 2.18381e-40 1.12636e-40 -3.7859e-41 2.19656e-40
-1.55984e-40 -2.47413e-40 8.8336e-41 4.383e-42 -9.5968e-41 -2.9907e-40 -7.9592e-41 1.64105e-40
-9.1174e-41 2.9311e-41 -9.3064e-41 -4.9341e-41 -4.9043e-41 1.61501e-40 -1.31564e-40 6.8857e-41
5.8992e-41 1.1191e-40 2.85234e-40 -4.1707e-41 -1.58549e-40 -7.1105e-41 5.6045e-41 -1.66989e-40
-2.28409e-40 -1.63356e-40 1.79613e-40 1.29441e-40 1.71491e-40 1.30126e-40 -2.64704e-40 1.23635e-40
2.17573e-40 -1.1579e-41 1.05027e-40 3.5615e-41 -1.05137e-40 1.60376e-40 -2.21315e-40 3.0771e-41
-7.5679e-41 -5.4435e-41 1.46104e-40 -7.08e-42 -2.11439e-40 -1.49265e-40 -1.1144e-40 7.7102e-41
1.07133e-40 1.56064e-40 -1.93318e-40 -5.8277e-41 3.9222e-41 2.23878e-40 1.2002e-40 -1.31295e-40
-5.3485e-41 1.54318e-40 -2.1769e-41 2.05803e-40 2.08449e-40 -1.19668e-40 1.8239e-40 -4.5684e-41
2.29314e-40 -7.9756e-41 7.7978e-41 -1.29568e-40 -1.7513e-41 -1.1353e-40 1.23586e-40 -1.50068e-40
1.87523e-40 5.3971e-41 3.4361e-41 1.9456e-41 -1.0612e-40 4.687e-42 6.2603e-41 -6.7026e-41
-5.3666e-41 2.13471e-40 -6.3899e-41 -1.1114e-40 3.7059e-41 -7.647e-42 6.63e-42 1.16203e-40
1.48294e-40 -1.619e-41 1.3836e-41 2.45209e-40 -3.2929e-41 -2.63901e-40 2.9836e-41 1.86213e-40
7.4501e-41 6.2585e-41 -9.4174e-41 -1.58e-43 -6.0828e-41 9.1732e-41 8.942e-42 -1.58665e-40
00000000: 4346 0180 8c7d 0000 cc85 0280 0f0a 0080
00000010: d6ae 0100 74e0 0100 466c 0180 29b0 0100
00000020: 7fd7 0180 2d7c 0080 0e7c 0200 f54e 0100
00000030: 6c99 0100 6ca7 0100 34c2 0000 1429 0000
00000040: d157 0100 553a 0000 33c6 0280 30a7 0080
00000050: 6261 0000 2f51 0200 f979 0080 6c8c 0280
00000060: ff63 0100 4110 0080 8b2d 0200 eba1 0000
00000070: 3c83 0000 63c4 0100 99af 0200 af79 0200
00000080: 6153 0080 bd9b 0180 7bd2 0200 36b8 0100
00000090: a67a 0180 2614 0200 23bc 0100 699d 0280
000000a0: d93f 0180 0e9b 0080 c6a1 0080 f2ee 0200
000000b0: dd29 0180 fd1f 0300 72c5 0080 7e53 0000
000000c0: 6344 0100 f07a 0000 ab2d 0180 22dd 0000
000000d0: c275 0100 f98c 0280 5a9d 0180 be02 0100
000000e0: f1c3 0100 6282 0180 1708 0200 66bf 0100
000000f0: 6a88 0000 5b21 0000 5ad1 0080 4d6d 0080
00000100: c48d 0200 01a9 0080 f515 0100 4f87 0180
00000110: 5ac1 0200 630e 0200 27d3 0080 840e 0380
00000120: 7c33 0300 1643 0100 e728 0180 0483 0000
00000130: 4399 0000 d8ff 0000 7164 0100 975d 0300
00000140: 8327 0000 794c 0280 752e 0080 d1a1 0180
00000150: 1bcd 0080 d811 0180 c11a 0100 39b6 0080
00000160: 1f96 0200 3caa 0100 fa6c 0100 1663 0180
00000170: 22e7 0180 7b42 0000 5378 0100 85ad 0100
00000180: 6026 0280 9a83 0180 8a41 0000 ac80 0000
00000190: eb0d 0080 2507 0000 023e 0000 2c07 0200
000001a0: 60bb 0000 2a04 0280 f577 0100 18cf 0100
000001b0: f656 0100 ca11 0280 c601 0000 2cc0 0080
000001c0: 77a5 0000 1ae1 0080 1872 0200 17ad 0080
000001d0: a510 0080 0a23 0280 b2f4 0180 6e93 0080
000001e0: f330 0000 80b5 0100 b711 0180 50ac 0000
000001f0: afac 0180 b1f8 0080 0bf8 0000 8228 0080
00000200: 78f8 0180 38d4 0080 e58d 0000 aa38 0080
00000210: 8452 0100 c110 0000 0d0a 0280 1c64 0180
00000220: d024 0100 8f17 0280 a17f 0080 48a0 0000
00000230: 451d 0180 cf2c 0280 d473 0100 a565 0000
00000240: 0c5c 0000 084b 0180 330a 0180 5e63 0280
00000250: c260 0200 fc39 0100 8969 0080 5064 0200
00000260: d2b2 0180 b0b1 0280 3ff6 0000 380c 0000
00000270: 850b 0180 af41 0380 dfdd 0080 75c9 0100
00000280: 28fe 0080 b551 0000 6d03 0180 8b89 0080
00000290: b688 0080 33c2 0100 bf6e 0180 f2bf 0000
000002a0: 72a4 0000 f637 0100 1e1b 0300 4374 0080
000002b0: f8b9 0180 36c6 0080 3b9c 0000 7fd1 0180
000002c0: b67c 0280 5fc7 0180 b0f4 0100 d468 0100
000002d0: 0cde 0100 bd6a 0100 e3e1 0280 a558 0100
000002e0: 815e 0200 4720 0080 c624 0100 4863 0000
000002f0: 1425 0180 10bf 0100 f068 0280 c755 0000
00000300: f6d2 0080 be97 0080 4797 0100 bc13 0080
00000310: 684d 0280 17a0 0180 a636 0180 eed6 0000
00000320: a52a 0100 0bb3 0100 e41a 0280 74a2 0080
00000330: 566d 0000 1570 0200 914e 0100 ff6d 0180
00000340: 1895 0080 2dae 0100 af3c 0080 b23d 0200
00000350: 1245 0200 964d 0180 6efc 0100 597f 0080
00000360: 3c7f 0200 54de 0080 5fd9 0000 2f69 0180
00000370: d230 0080 7a3c 0180 8258 0100 54a2 0180
00000380: bd0a 0200 7396 0000 c95f 0000 3c36 0000
00000390: d227 0180 110d 0000 83ae 0000 d7ba 0080
000003a0: 9995 0080 1253 0200 20b2 0080 d035 0180
000003b0: 4e67 0000 5115 0080 7b12 0000 ed43 0100
000003c0: 629d 0100 222d 0080 9226 0000 8bab 0200
000003d0: cb5b 0080 a6df 0280 2c53 0000 1607 0200
000003e0: aecf 0000 76ae 0000 8506 0180 7100 0080
000003f0: 90a9 0080 b6ff 0000 ed18 0000 4bba 0180

fc2.weight f4 [256, 260]
9.6308e-41 5.083e-42 -5.8681e-41 -7.1597e-41 -1.56123e-40 -1.58614e-40 2.404e-41 -1.25556e-40
-1.5303e-40 -1.51022e-40 -1.0583e-41 -6.9794e-41 -1.4924e-41 1.7875e-40 -1.05198e-40 2.22764e-40
-1.83717e-40 2.38784e-40 1.34605e-40 -8.6321e-41 -2.06158e-40 2.0093e-41 -5.195e-41 2.13984e-40
-5.825e-41 1.96498e-40 1.86797e-40 1.43227e-40 5.9063e-41 -2.02042e-40 -2.45384e-40 1.36122e-40
2.7138e-41 1.26264e-40 -1.57405e-40 -2.60545e-40 1.75838e-40 -1.77616e-40 1.41741e-40 -1.30136e-40
5.1894e-41 -5.616e-42 2.23021e-40 -2.2292e-41 1.00896e-40 -1.66836e-40 -3.6423e-41 1.81704e-40
1.5955e-41 2.20375e-40 -1.36782e-40 7.1224e-41 2.18416e-40 6.6801e-41 6.87e-43 2.00111e-40
-1.63904e-40 6.112e-42 1.24989e-40 -1.52575e-40 1.64264e-40 -5.857e-41 2.3829e-40 1.044e-40
2.06074e-40 -4.5577e-41 -9.2539e-41 -8.8395e-41 -1.79616e-40 3.4927e-41 -2.03448e-40 -5.1992e-41
5.9578e-41 1.48605e-40 -3.15092e-40 1.35625e-40 3.0191e-41 -4.5822e-41 2.9639e-41 -3.08591e-40
-1.52685e-40 -3.6491e-41 1.59614e-40 1.56236e-40 1.53352e-40 -4.1202e-41 -2.80724e-40 -1.93249e-40
-2.59106e-40 2.8022e-41 -1.63069e-40 1.3164e-41 1.07447e-40 2.00159e-40 -1.44307e-40 1.41164e-40
1.92196e-40 -2.4094e-41 -7.5175e-41 2.82856e-40 -1.38507e-40 1.07698e-40 -5.3971e-41 -9.1468e-41
1.00884e-40 1.30517e-40 2.4405e-41 1.42251e-40 -7.4514e-41 3.9557e-41 -2.01893e-40 -7.8003e-41
-1.016e-41 -9.4491e-41 -1.54354e-40 1.66272e-40 -5.5175e-41 4.5377e-41 -6.7271e-41 8.6257e-41
-2.4726e-41 -1.23572e-40 3.585e-42 -1.46856e-40 -3.2397e-41 -3.6694e-41 -3.179e-41 2.57029e-40
2.00132e-40 8.3084e-41 -4.0465e-41 -1.60663e-40 2.01933e-40 -9.2388e-41 1.04552e-40 -9.5854e-41
-8.945e-41 -6.132e-41 -1.09461e-40 -1.08165e-40 7.1253e-41 4.8412e-41 3.2584e-41 -1.23198e-40
1.19821e-40 -1.23286e-40 1.9158e-40 -8.1167e-41 -9.6464e-41 -1.97694e-40 1.04863e-40 -2.10841e-40
-4.9539e-41 1.80336e-40 9.21e-42 -9.1719e-41 2.0147e-40 -2.1437e-40 -1.21899e-40 -4.648e-42
8.7515e-41 1.69025e-40 5.3013e-41 2.163e-41 1.15554e-40 -4.3827e-41 -1.36359e-40 -4.7795e-41
1.45777e-40 2.0759e-41 1.16208e-40 1.1222e-40 1.87114e-40 -2.40452e-40 1.46139e-40 2.08358e-40
-7.8212e-41 1.17862e-40 -4.013e-42 -1.1355e-40 1.16008e-40 -2.28817e-40 -1.65849e-40 2.334e-41
-1.38144e-40 7.932e-41 -9.696e-42 -4.4257e-41 -4.5772e-41 2.16887e-40 -1.74003e-40 5.6392e-41
-3.14028e-40 7.1571e-41 -1.377e-41 1.66944e-40 2.18156e-40 -1.26271e-40 -9.3115e-41 1.94294e-40
2.26262e-40 -1.10883e-40 -2.38423e-40 -6.8128e-41 1.5131e-41 -1.35367e-40 1.02837e-40 9.7005e-41
-9.1918e-41 -8.1735e-41 8.4545e-41 1.15932e-40 -1.24536e-40 -1.88658e-40 2.83564e-40 7.123e-42
7.616e-41 1.26292e-40 -2.67022e-40 -1.70953e-40 -7.589e-41 8.3957e-41 2.02649e-40 2.15396e-40
1.00992e-40 1.48379e-40 1.15246e-40 -4.5836e-41 -1.21785e-40 -1.68423e-40 1.73774e-40 -8.9306e-41
7.7901e-41 -4.9298e-41 1.41327e-40 -2.7702e-41 2.14867e-40 6.7862e-41 -9.6582e-41 -1.11342e-40
-5.9788e-41 2.35682e-40 3.7666e-41 2.15982e-40 3.7691e-41 -8.6222e-41 9.5305e-41 -5.915e-42
-2.66597e-40 -1.9194e-41 7.2632e-41 1.42861e-40 -2.19918e-40 -6.746e-41 -3.269e-42 -1.44292e-40
00000000: 780c 0100 2b0e 0000 94a3 0080 95c7 0080
00000010: 35b3 0180 27ba 0180 0443 0000 005e 0180
00000020: 96aa 0180 fda4 0180 801d 0080 8fc2 0080
00000030: 9a29 0080 48f2 0100 4025 0180 fa6c 0200
00000040: 2100 0280 a299 0200 3977 0100 a1f0 0080
00000050: af3e 0280 0338 0000 d190 0080 8054 0200
00000060: 61a2 0080 c223 0200 b708 0200 428f 0100
00000070: a5a4 0000 3633 0280 08ac 0280 747b 0100
00000080: a64b 0000 f95f 0100 c8b6 0180 4bd6 0280
00000090: 2aea 0100 1fef 0180 1e8b 0100 c46a 0180
000000a0: a990 0000 a80f 0080 b16d 0200 243e 0080
000000b0: 4219 0100 12d1 0180 8865 0080 84fa 0100
000000c0: 7a2c 0000 5166 0200 4b7d 0180 8bc6 0000
000000d0: db60 0200 37ba 0000 ea01 0000 d42d 0200
000000e0: e6c8 0180 0a11 0000 6b5c 0100 51a9 0180
000000f0: e7c9 0100 45a3 0080 4198 0200 0623 0100
00000100: 733e 0200 0d7f 0080 f601 0180 69f6 0080
00000110: b2f4 0180 5d61 0000 2137 0280 ef90 0080
00000120: 14a6 0000 409e 0100 596e 0380 117a 0100
00000130: 2954 0000 bc7f 0080 9f52 0000 3a5c 0380
00000140: a0a9 0180 b965 0080 f0bc 0100 86b3 0100
00000150: 7cab 0100 db72 0080 8b0e 0380 b31a 0280
00000160: 48d2 0280 1d4e 0000 92c6 0180 b224 0000
00000170: 852b 0100 f62d 0200 4592 0180 8289 0100
00000180: c417 0200 2a43 0080 8fd1 0080 7d14 0300
00000190: 1a82 0180 382c 0100 7396 0080 fafe 0080
000001a0: 3919 0100 d46b 0100 0844 0000 8a8c 0100
000001b0: b7cf 0080 456e 0000 cc32 0280 71d9 0080
000001c0: 521c 0080 6707 0180 47ae 0180 80cf 0100
000001d0: ce99 0080 7e7e 0000 86bb 0080 73f0 0000
000001e0: ed44 0080 7858 0180 fe09 0000 6099 0180
000001f0: 4f5a 0080 4a66 0080 9e58 0080 7ecc 0200
00000200: e32d 0200 9be7 0000 cd70 0080 ddbf 0180
00000210: e832 0200 8a01 0180 7323 0100 340b 0180
00000220: 5af9 0080 efaa 0080 2231 0180 852d 0180
00000230: a0c6 0000 f486 0000 d55a 0000 6d57 0180
00000240: 034e 0100 ac57 0180 0c16 0200 43e2 0080
00000250: e70c 0180 1727 0280 5124 0100 bd4b 0280
00000260: 188a 0080 b4f6 0100 ac19 0000 adff 0080
00000270: 9e31 0200 9455 0280 ce53 0180 f50c 0080
00000280: f5f3 0000 2cd7 0100 c793 0000 4c3c 0000
00000290: 1e42 0100 2c7a 0080 1d7c 0180 3c85 0080
000002a0: 5e96 0100 de39 0000 f143 0100 d338 0100
000002b0: 9909 0200 489e 0280 6097 0100 d144 0200
000002c0: 06da 0080 8d48 0100 300b 0080 883c 0180
000002d0: 6243 0100 d97d 0280 52ce 0180 1041 0000
000002e0: 1781 0180 1ddd 0000 071b 0080 5f7b 0080
000002f0: 987f 0080 985c 0200 0de5 0180 339d 0000
00000300: 626b 0380 83c7 0000 6326 0080 5fd1 0100
00000310: 2160 0200 fe5f 0180 9103 0180 9d1d 0200
00000320: ba76 0200 1935 0180 a098 0280 eabd 0080
00000330: 2e2a 0000 5979 0180 ab1e 0100 690e 0100
00000340: 3b00 0180 d8e3 0080 adeb 0000 2c43 0100
00000350: 285b 0180 e70d 0280 7616 0300 db13 0000
00000360: 4ed4 0000 0d60 0100 59e8 0280 8cdc 0180
00000370: 8dd3 0080 0aea 0000 e734 0200 7058 0200
00000380: 8619 0100 9f9d 0100 4241 0100 c67f 0080
00000390: 7d53 0180 7fd5 0180 69e4 0100 f3f8 0080
000003a0: 28d9 0000 6c89 0080 f689 0100 394d 0080
000003b0: f656 0200 2cbd 0000 3b0d 0180 6036 0180
000003c0: aaa6 0080 fc90 0200 ff68 0000 125a 0200
000003d0: 1169 0000 5af0 0080 ac09 0100 7d10 0080
000003e0: 2ae7 0280 8135 0080 78ca 0000 3d8e 0100
000003f0: 0b65 0280 0dbc 0080 1d09 0080 3a92 0180

fc2.bias f4 [256]
-7.2855e-41 5.6612e-41 -9.5758e-41 1.28848e-40 -1.35064e-40 3.6923e-41 -1.06601e-40 3.0205e-40
-3.496e-42 1.02656e-40 1.94657e-40 -1.89241e-40 -5.5218e-41 1.35087e-40 3.03859e-40 1.00895e-40
1.7586e-40 -4.0304e-41 -1.53208e-40 -8.2485e-41 -1.64643e-40 1.33987e-40 -2.9174e-40 1.62581e-40
1.77786e-40 -1.47201e-40 -7.32e-41 2.07511e-40 -2.1057e-40 2.7855e-41 -1.4523e-40 -1.08357e-40
-1.12643e-40 -1.95544e-40 -1.369e-40 1.1007e-40 2.37636e-40 2.70912e-40 7.8571e-41 -1.74034e-40
1.05376e-40 8.372e-41 -2.6211e-41 -1.4331e-40 -1.6806e-40 1.04755e-40 3.1028e-41 -1.9627e-41
8.3065e-41 -1.93612e-40 1.239e-42 -8.3202e-41 -1.8748e-41 1.95163e-40 -2.80896e-40 7.1706e-41
-9.2734e-41 -1.12481e-40 2.30273e-40 -9.0283e-41 -2.4625e-40 1.09982e-40 5.3891e-41 -1.29647e-40
-6.1185e-41 2.8395e-41 1.08542e-40 -1.8721e-40 2.00719e-40 2.49364e-40 -1.12384e-40 -1.85752e-40
6.5885e-41 2.47144e-40 -1.8564e-41 -2.6053e-40 -6.7419e-41 -9.5318e-41 1.21238e-40 -1.15232e-40
-3.981e-42 -3.02696e-40 -5.3153e-41 -7.1598e-41 9.58e-43 -2.09214e-40 -1.78506e-40 -3.06639e-40
2.47241e-40 -1.36625e-40 4.356e-41 9.8901e-41 -2.33389e-40 -9.839e-41 -4.0079e-41 1.10726e-40
2.65416e-40 8.58e-41 2.95219e-40 -1.13256e-40 -2.8496e-40 -9.3534e-41 -2.02961e-40 -2.44876e-40
1.52646e-40 -1.52118e-40 1.313e-41 -7.318e-42 -2e-43 -7.0152e-41 1.98331e-40 -3.13623e-40
2.90348e-40 -9.0664e-41 6.1259e-41 -1.07192e-40 -7.089e-41 -2.03121e-40 2.12882e-40 -1.1286e-40
1.09923e-40 1.36418e-40 7.7119e-41 5.2941e-41 1.18738e-40 -9.8563e-41 1.53622e-40 2.63963e-40
-1.87724e-40 9.846e-41 -2.10939e-40 -1.64944e-40 -2.22083e-40 -8.1e-42 -2.25696e-40 1.77326e-40
-2.38089e-40 -1.1495e-41 -5.6992e-41 8.3767e-41 6.1593e-41 3.8885e-41 6.1685e-41 2.98123e-40
-2.7227e-41 -1.88566e-40 1.576e-41 -9.3182e-41 -2.89877e-40 1.03077e-40 -1.08238e-40 -1.6209e-40
1.18169e-40 2.07944e-40 1.16033e-40 -1.27677e-40 1.01804e-40 -1.76914e-40 5.9245e-41 -1.73831e-40
2.02696e-40 1.93392e-40 -8.8755e-41 1.3433e-41 1.0324e-40 9.9222e-41 1.98679e-40 -3.03439e-40
-1.14413e-40 2.06032e-40 -5.9963e-41 -1.292e-42 2.64003e-40 1.66871e-40 -2.06252e-40 6.4376e-41
-1.1735e-40 -2.78453e-40 1.0014e-40 1.53e-41 -9.6432e-41 1.82613e-40 -1.07286e-40 -2.13107e-40
1.123e-40 -8.7845e-41 1.14723e-40 -2.26645e-40 1.14707e-40 -3.008e-41 -1.09247e-40 -1.0309e-40
1.92135e-40 1.7941e-41 2.39232e-40 2.13947e-40 2.01819e-40 -3.414e-41 1.3463e-40 -8.2518e-41
-7.9594e-41 1.03689e-40 -1.36237e-40 7.346e-41 -2.59663e-40 1.48826e-40 -1.556e-41 -4.1518e-41
-7.494e-41 -2.42673e-40 -1.11777e-40 1.12585e-40 2.19994e-40 2.5745e-41 7.1193e-41 -8.9543e-41
2.1629e-41 1.4306e-40 -6.97e-42 1.93062e-40 -2.26235e-40 -2.40173e-40 2.17783e-40 -1.70367e-40
-1.49964e-40 1.13823e-40 -7.0704e-41 -3.12386e-40 -1.29277e-40 -3.41136e-40 1.52233e-40 5.8607e-41
-1.3745e-41 8.0554e-41 1.90895e-40 -2.01758e-40 9.2936e-41 3.6025e-41 3.39554e-40 -1.1124e-40
-2.39064e-40 7.285e-42 2.10612e-40 5.5403e-41 -3.11923e-40 1.26127e-40 -1.71844e-40 -8.62e-41
-2.14167e-40 -1.57729e-40 -1.16145e-40 -1.09558e-40 -2.34495e-40 6.8249e-41 3.11703e-40 -1.32856e-40
00000000: 17cb 0080 d09d 0000 ef0a 0180 2d67 0100
00000010: 8178 0180 ed66 0000 2929 0180 fe49 0300
00000020: bf09 0080 2a1e 0100 a01e 0200 870f 0280
00000030: ed99 0080 9178 0100 094f 0300 4119 0100
00000040: 3aea 0100 5a70 0080 15ab 0180 efe5 0080
00000050: f5ca 0180 8075 0100 412d 0380 36c5 0100
00000060: 98ef 0100 569a 0180 0dcc 0080 7542 0200
00000070: fc4a 0280 a64d 0000 d894 0180 0e2e 0180
00000080: 013a 0180 1921 0280 9f7d 0180 d532 0100
00000090: 6f96 0200 31f3 0200 06db 0000 23e5 0180
000000a0: bf25 0100 61e9 0000 1149 0080 7d8f 0180
000000b0: 7cd4 0180 0424 0100 7e56 0000 b636 0080
000000c0: 8de7 0000 b61b 0280 7403 0000 efe7 0080
000000d0: 4334 0080 0920 0200 060f 0380 e3c7 0000
000000e0: 8102 0180 8d39 0180 e881 0200 acfb 0080
000000f0: 72ae 0280 9632 0100 3a96 0000 6769 0180
00000100: 8faa 0080 274f 0000 922e 0100 de09 0280
00000110: 862f 0200 20b7 0200 4839 0180 cd05 0280
00000120: a9b7 0000 f0b0 0200 c033 0080 40d6 0280
00000130: f0bb 0080 b509 0180 f651 0100 3841 0180
00000140: 190b 0080 cb4b 0380 2b94 0080 96c7 0080
00000150: ac02 0000 3447 0280 9af1 0180 c956 0380
00000160: 35b1 0200 db7c 0180 6d79 0000 b213 0100
00000170: 988a 0280 4512 0180 b96f 0080 a934 0100
00000180: dfe3 0200 2def 0000 f336 0300 b63b 0180
00000190: 5a1a 0380 bc04 0180 c635 0280 9daa 0280
000001a0: 84a9 0100 0ba8 0180 9a24 0000 6614 0080
000001b0: 8f00 0080 8ec3 0080 de28 0200 416a 0380
000001c0: 5f29 0300 bcfc 0080 c4aa 0000 cf2a 0180
000001d0: 9dc5 0080 3836 0280 6e51 0200 9c3a 0180
000001e0: 6c32 0100 477c 0100 fad6 0000 9493 0000
000001f0: fe4a 0100 c112 0180 3cac 0100 d2df 0200
00000200: 4c0b 0280 7712 0100 034c 0280 cccb 0180
00000210: 146b 0280 9416 0080 2675 0280 50ee 0100
00000220: b297 0280 0b20 0080 df9e 0080 82e9 0000
00000230: b2ab 0000 656c 0000 f4ab 0000 0c3f 0300
00000240: e64b 0080 a50d 0280 ef2b 0000 c103 0180
00000250: 0f28 0380 561f 0100 b92d 0180 d7c3 0180
00000260: 6849 0100 aa43 0200 7443 0100 e963 0180
00000270: ca1b 0100 2aed 0180 27a5 0000 92e4 0180
00000280: 0935 0200 191b 0200 6af7 0080 7225 0000
00000290: cb1f 0100 9714 0100 d629 0200 dd4d 0380
000002a0: f03e 0180 553e 0200 27a7 0080 9a03 0080
000002b0: efdf 0200 2bd1 0100 f23e 0280 74b3 0000
000002c0: 2047 0180 3708 0380 2617 0100 a62a 0000
000002d0: d00c 0180 0dfd 0100 122b 0180 0e52 0280
000002e0: 0c39 0100 e0f4 0080 cd3f 0100 cb77 0280
000002f0: c23f 0100 da53 0080 8930 0180 5f1f 0180
00000300: 9817 0200 0332 0000 e29a 0200 6654 0200
00000310: 9732 0200 2b5f 0080 4b77 0100 07e6 0080
00000320: e0dd 0080 0b21 0100 c67b 0180 c7cc 0000
00000330: d6d3 0280 de9e 0100 602b 0080 bc73 0080
00000340: e7d0 0080 79a4 0280 9737 0180 d739 0100
00000350: 4165 0200 c447 0000 75c6 0000 9cf9 0080
00000360: 4b3c 0000 cb8e 0100 6e13 0080 2e1a 0200
00000370: a776 0280 819d 0280 175f 0200 eada 0180
00000380: 0aa2 0180 4b3d 0100 18c5 0080 ce66 0380
00000390: 5f68 0180 f3b6 0380 5da8 0100 5fa3 0000
000003a0: 5126 0080 8de0 0000 2314 0200 6b32 0280
000003b0: 1103 0100 6c64 0000 8ab2 0300 1836 0180
000003c0: 6a9a 0280 4f14 0000 1a4b 0200 719a 0000
000003d0: 8465 0380 975f 0100 08df 0180 4af0 0080
000003e0: 0355 0280 afb7 0180 c443 0180 6731 0180
000003f0: ad8d 0280 40be 0000 e764 0300 5972 0180

fc3.weight f4 [128, 256]
1.12136e-40 1.64574e-40 1.41199e-40 -1.1345e-40 -1.28573e-40 2.43687e-40 2.28106e-40 -1.72046e-40
8.3028e-41 1.53603e-40 3.1609e-41 5.048e-41 -3.0967e-41 -7.71e-41 -5.0501e-41 -2.48963e-40
5.892e-41 -2.51736e-40 3.1496e-41 1.45473e-40 1.43028e-40 1.4229e-41 1.3333e-40 -6.4158e-41
-1.50679e-40 3.644e-41 -8.7863e-41 1.81482e-40 -2.27712e-40 1.865e-40 8.7434e-41 3.10909e-40
-2.91683e-40 1.02313e-40 1.3983e-40 4.1722e-41 -1.6792e-40 4.008e-41 -2.113e-40 -4.3297e-41
4.5335e-41 -2.55085e-40 -3.4113e-41 -4.023e-42 2.0034e-40 8.4524e-41 7.1741e-41 2.3744e-41
1.0008e-40 2.30861e-40 1.14932e-40 -1.43843e-40 -1.3768e-41 1.2881e-40 5.3527e-41 -8.7287e-41
-1.50135e-40 -2.98339e-40 -1.1812e-41 1.74072e-40 -1.58684e-40 -1.58401e-40 -7.2548e-41 -3.474e-42
-1.2585e-41 2.5895e-41 1.23271e-40 3.13266e-40 -2.20562e-40 -1.0875e-40 -1.08459e-40 -1.01743e-40
2.4364e-41 -2.39402e-40 -1.54371e-40 1.55896e-40 -2.40328e-40 1.11469e-40 9.5016e-41 -2.20941e-40
3.4049e-41 -7.2139e-41 -3.4975e-41 2.56767e-40 2.316e-42 -9.1513e-41 -1.6618e-40 -6.1398e-41
2.06808e-40 1.83022e-40 1.79613e-40 -2.0211e-41 1.43168e-40 -2.54958e-40 2.93229e-40 2.23415e-40
-1.06535e-40 -1.15129e-40 -1.86057e-40 8.376e-41 -5.6734e-41 1.09905e-40 -7.2053e-41 -2.8933e-41
5.303e-41 2.2284e-40 1.49635e-40 -1.01363e-40 1.84963e-40 2.67927e-40 -9.5201e-41 -1.9652e-40
2.21046e-40 -1.43986e-40 1.17731e-40 1.18239e-40 8.2133e-41 -1.61652e-40 1.12461e-40 9.0267e-41
-2.629e-41 1.4579e-40 -1.0695e-40 6.0254e-41 -7.9098e-41 -5.9065e-41 2.6162e-41 1.88507e-40
-6.8268e-41 -2.12091e-40 1.15325e-40 2.58388e-40 -2.2653e-40 -1.04255e-40 -8.0374e-41 2.0854e-40
-6.8393e-41 -2.64276e-40 -1.52624e-40 -1.05459e-40 2.95503e-40 -1.16267e-40 1.07034e-40 1.32634e-40
3.07762e-40 1.67769e-40 2.87034e-40 3.02375e-40 -2.4698e-41 3.3659e-41 5.9415e-41 6.3435e-41
1.98968e-40 2.06724e-40 1.1107e-41 1.03734e-40 1.6876e-41 -1.68994e-40 2.82519e-40 2.53782e-40
2.35215e-40 -2.84693e-40 2.0848e-40 -6.006e-42 -2.27159e-40 -1.4986e-40 -8.006e-41 1.00362e-40
-6.6077e-41 1.98965e-40 -3.5594e-41 7.1574e-41 1.30757e-40 -1.77704e-40 1.90102e-40 -8.678e-41
2.95492e-40 -1.09303e-40 -5.4442e-41 -2.36265e-40 -1.6325e-41 -4.7259e-41 -1.11203e-40 6.1853e-41
-2.24e-41 5.8888e-41 -1.5707e-41 8.345e-42 9.0046e-41 -2.16112e-40 -1.2919e-41 -8.7524e-41
2.00272e-40 -1.40933e-40 3.09813e-40 2.09842e-40 1.05222e-40 -6.9322e-41 2.4981e-40 4.1638e-41
7.5927e-41 -1.54398e-40 3.07277e-40 -2.437e-41 5.225e-42 1.4389e-40 -2.48272e-40 2.821e-40
-1.56755e-40 1.33696e-40 -2.61338e-40 -6.9207e-41 2.7425e-41 -2.49028e-40 -1.8329e-41 -8.5786e-41
1.79213e-40 7.5246e-41 2.06247e-40 1.81816e-40 -1.14871e-40 2.049e-42 4.4637e-41 2.2449e-41
9.701e-41 -3.5004e-41 2.81103e-40 1.2587e-40 1.3408e-40 1.2925e-40 -1.63887e-40 1.4663e-40
6.2264e-41 4.6665e-41 -1.1528e-40 -1.34739e-40 6.254e-41 2.71751e-40 -1.96304e-40 6.2436e-41
2.21021e-40 -2.70312e-40 7.2559e-41 -1.02799e-40 1.65395e-40 -6.4087e-41 6.7248e-41 -6.975e-41
2.03733e-40 -1.00376e-40 2.2857e-40 2.33887e-40 -5.3045e-41 2.41856e-40 -2.29167e-40 -2.4804e-40
00000000: 9738 0100 c4ca 0100 9b89 0100 413c 0180
00000010: 6966 0180 4da7 0200 de7b 0200 98df 0180
00000020: 73e7 0000 2fac 0100 1d58 0000 b88c 0000
00000030: 5356 0080 ecd6 0080 c78c 0080 02b6 0280
00000040: 3fa4 0000 bdbd 0280 cc57 0000 8595 0100
00000050: b48e 0100 aa27 0000 ab73 0100 d9b2 0080
00000060: 08a4 0180 9465 0000 edf4 0080 e6f9 0100
00000070: c57a 0280 e307 0200 bbf3 0000 b062 0300
00000080: 182d 0380 351d 0100 ca85 0100 4e74 0000
00000090: 18d4 0180 ba6f 0000 054d 0280 b278 0080
000000a0: 607e 0000 13c7 0280 185f 0080 370b 0080
000000b0: 772e 0200 9eeb 0000 fcc7 0000 3042 0000
000000c0: fb16 0100 8c83 0200 6240 0100 fa90 0180
000000d0: 6126 0080 1267 0100 3695 0000 52f3 0080
000000e0: 84a2 0180 a63f 0380 ed20 0080 3ee5 0100
000000f0: 59ba 0180 8fb9 0180 3cca 0080 af09 0080
00000100: 1523 0080 2f48 0000 a157 0100 4269 0300
00000110: d666 0280 272f 0180 572e 0180 9e1b 0180
00000120: eb43 0000 5b9b 0280 53ae 0180 93b2 0100
00000130: f09d 0280 bb36 0100 de08 0100 e567 0280
00000140: ea5e 0000 18c9 0080 7f61 0080 c3cb 0200
00000150: 7506 0000 1aff 0080 3ecf 0180 27ab 0080
00000160: 7f40 0200 31fe 0100 b0f4 0100 5738 0080
00000170: 188f 0100 b8c6 0280 6731 0300 ca6e 0200
00000180: fa28 0180 ef40 0180 a706 0280 7de9 0000
00000190: 279e 0080 5f32 0100 dbc8 0080 a750 0080
000001a0: d393 0000 306d 0200 1fa1 0100 8f1a 0180
000001b0: 9a03 0200 dfea 0200 6209 0180 d123 0280
000001c0: 3068 0200 6091 0180 3048 0100 9a49 0100
000001d0: f4e4 0000 9fc2 0180 7f39 0100 a1fb 0000
000001e0: 4949 0080 6796 0100 222a 0180 f7a7 0000
000001f0: 7edc 0080 a6a4 0080 ee48 0000 7b0d 0200
00000200: 4ebe 0080 394f 0280 7b41 0100 48d0 0200
00000210: 7977 0280 9f22 0180 0de0 0080 5345 0200
00000220: a7be 0080 b2e0 0280 74a9 0180 fa25 0180
00000230: be37 0300 1b44 0180 5e2a 0100 bb71 0100
00000240: ea59 0300 acd3 0100 2220 0300 e64a 0300
00000250: d944 0080 d45d 0000 a0a5 0000 d5b0 0000
00000260: a42a 0200 4340 0200 f61e 0000 2b21 0100
00000270: 0b2f 0000 16d7 0180 8c13 0300 71c3 0200
00000280: af8f 0200 9c19 0380 2845 0200 be10 0080
00000290: 3a79 0280 c0a1 0180 2ddf 0080 c517 0100
000002a0: 32b8 0080 a22a 0200 3963 0080 85c7 0000
000002b0: 7f6c 0100 5eef 0180 ed11 0200 e8f1 0080
000002c0: b637 0300 b130 0180 c397 0080 9c92 0280
000002d0: 822d 0080 bd83 0080 fd35 0180 6cac 0000
000002e0: 713e 0080 28a4 0000 c92b 0080 4317 0000
000002f0: 03fb 0000 6f5a 0280 0324 0080 fbf3 0080
00000300: 472e 0200 dd88 0180 a25f 0300 f448 0200
00000310: 5125 0100 3ec1 0080 5eb8 0200 1274 0000
00000320: a7d3 0000 66ae 0180 9058 0300 ef43 0080
00000330: 910e 0000 1b91 0100 15b4 0280 6112 0300
00000340: f8b4 0180 b174 0100 81d8 0280 ecc0 0080
00000350: 734c 0000 30b6 0280 1833 0080 23ef 0080
00000360: 93f3 0100 c1d1 0000 ef3e 0200 d4fa 0100
00000370: 3740 0180 b605 0000 6e7c 0000 943e 0000
00000380: 6d0e 0100 9461 0080 9a0f 0300 e05e 0100
00000390: c375 0100 4c68 0100 dac8 0180 bf98 0100
000003a0: 91ad 0000 1582 0000 5b41 0180 9977 0180
000003b0: 56ae 0000 88f5 0200 3723 0280 0cae 0000
000003c0: 1e68 0200 85f1 0280 44ca 0000 901e 0180
000003d0: 0ecd 0100 a6b2 0080 76bb 0000 6fc2 0080
000003e0: ed37 0200 cf17 0180 297d 0200 fb8b 0200
000003f0: de93 0080 32a2 0200 d37e 0280 6fb3 0280

fc3.bias f4 [128]
-1.2724444e-31 -3.425e-41 7.277418e-07 -4.5650485e-19 -1.7536084e-18 1.4600296e-29 -2.6861837e-17 -4.363808e-17
-2.5773565e-28 -1.60241e-40 -3.4996708e-14 4.667071e-24 5.1787758e-08 -9.2810716e-08 5.608931e-05 9.7295805e-26
-2.7914548e-05 -1.9580067e-11 -1.4801426e-13 -4.724471e-05 -8.03603e-40 2.5612819e-20 -1.3033307e-09 -6.358947e-30
1.1162402e-14 2.0701272e-13 -2.3059382e-21 4.0386342e-21 -4.0990126e-06 -1.2133536e-31 -1.06709e-40 7.107074e-11
-1.85985e-40 -2.80331e-40 -1.0604516e-06 -9.86304e-05 -3.2242368e-34 -1.2079299e-17 -8.1189656e-35 -1.2298e-41
-6.154684e-08 -1.6315012e-25 2.5772608e-09 -2.7605038e-08 -1.5744137e-15 -2.21585e-40 8.7300875e-13 3.2133355e-15
-2.6653929e-25 -1.2116766e-17 -1.4194073e-16 -9.4572405e-11 1.8376281e-11 -4.0521586e-09 -2.972909e-17 -9.70036e-40
-5.9899975e-08 -1.1264751e-26 -2.2926482e-11 2.856988e-10 -9.935224e-14 -3.705099e-39 -1.1265318e-18 -2.1008566e-19
-4.8347463e-15 -9.999183e-21 -1.0153731e-15 -2.7578954e-13 -3.88808e-15 -2.0326877e-06 -2.0208083e-23 -5.185502e-23
4.038554e-30 4.9265504e-06 2.208151e-31 2.973752e-20 6.446617e-21 -1.0365129e-29 -6.8156527e-16 -1.1451804e-05
1.1851128e-07 -1.050741e-23 -1.1339724e-09 -1.3323851e-29 3.3913158e-38 -2.062717e-12 4.45466e-12 1.5682237e-22
-3.1724388e-19 -3.131511e-32 -1.448969e-19 -1.3299171e-32 -0.00037161505 -7.832566e-10 0.00030293062 -1.8155916e-07
8.638945e-19 -2.432831e-09 -7.059178e-12 -1.1209615e-09 2.1074518e-26 -1.0561115e-28 2.1295e-40 -2.423385e-36
-8.660035e-17 -9.129782e-22 -1.5770441e-21 -0.00036290084 -4.9405067e-08 7.576241e-12 8.4012455e-35 1.6701415e-29
2.1990761e-27 2.0897135e-14 -5.6243177e-33 -1.2155175e-18 -1.2163537e-10 -5.1392202e-08 -8.604443e-25 -2.9043411e-08
-3.0324636e-24 -1.2473321e-37 -1.1328028e-13 -1.2689194e-26 -8.159528e-13 -1.00529e-39 -4.597881e-26 -3.0218523e-34
00000000: 382c 258c 7a5f 0080 095a 4335 88bc 06a1
00000010: ba64 01a2 8910 940f b8c1 f7a3 c03e 49a4
00000020: 005c a391 b0be 0180 759c 1da9 6f8c b418
00000030: 3e6d 5e33 3b4f c7b3 7041 6b38 8be4 f015
00000040: 092a eab7 643a acad 35a6 26aa 9f28 46b8
00000050: 1ec0 0880 ffe7 f11e df20 b3b0 8af9 008f
00000060: 7e15 4928 5b13 692a 553b 2e9d 4693 981d
00000070: 408a 89b6 9780 1d8c 7629 0180 4549 9c2e
00000080: 7306 0280 730d 0380 d754 8eb5 cbd7 ceb8
00000090: 8c49 d687 e0d2 5ea3 d1d6 d786 4822 0080
000000a0: bc2b 84b3 56f8 4996 a71b 3131 1f20 edb2
000000b0: 9de5 e2a6 b069 0280 e9ba 752b 948b 6727
000000c0: d6fa a496 cf83 5fa3 82a5 23a5 88f7 cfae
000000d0: b5a3 a12d 2a3b 8bb1 ea19 09a4 1190 0a80
000000e0: 5ca2 80b3 131f 5f94 d9a9 c9ad 8810 9d2f
000000f0: abb8 dfa9 4f58 2880 2b3f a6a1 7f06 78a0
00000100: aa30 aea7 15e1 3c9e a854 92a6 7641 9baa
00000110: 3515 8ca7 4f69 08b6 ca70 c399 68c1 7a9a
00000120: bed2 a30e bf4e a536 3451 8f0c 756e 0c1f
00000130: db8b f31d d43a 528f a472 44a6 2021 40b7
00000140: 4480 fe33 2d3e 4b99 1bda 9bb0 b21e 878f
00000150: 0ba4 3801 9b26 11ac 03bc 9c2c 2c96 3d1b
00000160: 8a44 bba0 ec98 228b 6710 2ba0 431b 8a8a
00000170: 54d5 c2b9 c94c 57b0 a9d2 9e39 9af2 42b4
00000180: 06fa 7e21 d12e 27b1 6c5f f8ac 5410 9ab0
00000190: 40b6 d014 c7e0 0591 9e51 0200 a728 4e84
000001a0: d3af c7a4 22f7 899c f050 ee9c ba43 beb9
000001b0: 7231 54b3 5b48 052d ea57 df06 5a5f a90f
000001c0: 903a 2e13 8339 bc28 01a0 e989 f460 b3a1
000001d0: 50bd 05af 53ba 5cb3 b625 8597 237b f9b2
000001e0: 21a0 6a98 2ec7 2982 a315 ffa9 dc55 7b94
000001f0: 98ab 65ab 57f2 0a80 11ad 6395 27d6 c887

fc4.weight f4 [1, 128]
4.604779e-32 -4.5671e-41 8.178671e-07 9.471581e-19 4.8386674e-18 -2.1744416e-29 2.7878256e-17 4.340716e-17
-1.1762032e-30 -1.65e-43 3.4821026e-14 7.30932e-24 -1.9177355e-08 -4.4665562e-08 -5.6088284e-05 -3.9833253e-25
2.7826207e-05 2.0477191e-11 1.1545138e-13 -3.4042812e-05 -7.48438e-40 2.5606276e-20 1.4055679e-09 -6.683905e-30
-6.486377e-14 2.0706292e-13 7.002844e-21 -4.069647e-21 -4.083875e-06 1.4764283e-31 1.0827e-40 -7.111702e-11
6.1964e-41 4.376e-40 -5.6781226e-07 9.283973e-05 -1.393334e-34 -1.2452519e-17 9.194416e-35 -4.927e-42
3.7596593e-08 -4.214513e-25 2.4345532e-09 2.6752566e-08 1.2309791e-15 -3.73466e-40 -1.6035116e-12 -3.7361103e-15
2.6669092e-25 -1.6072917e-17 -4.9781566e-16 9.508591e-11 -1.844794e-11 4.05341e-09 2.965468e-17 -1.331284e-39
5.8619477e-08 1.1343416e-26 2.062073e-12 -2.437317e-10 9.9332116e-14 -2.035277e-39 1.1339188e-18 1.6695847e-19
-6.1003016e-15 -2.5948685e-22 1.0237954e-15 5.268285e-13 9.422658e-15 2.3844418e-06 1.968715e-23 5.1797778e-23
-3.986535e-30 -8.144317e-06 -2.8975336e-31 5.0209162e-20 -6.2688145e-21 1.064303e-29 1.811829e-16 1.1492844e-05
3.0696114e-07 1.0276417e-23 1.1319853e-09 1.3120673e-29 1.8324374e-38 2.0728371e-12 5.0187263e-12 -1.4180733e-22
-2.9774384e-19 2.7593563e-32 2.4949502e-19 1.3467432e-32 0.0003715701 7.9862256e-10 -0.00030544752 1.8272331e-07
-7.830176e-19 2.4596583e-09 7.92848e-12 1.1207772e-09 3.729237e-26 1.0696588e-28 1.1574e-40 -1.0118679e-36
8.637737e-17 -1.7147692e-21 1.5880767e-21 0.00029458213 -4.7376382e-08 9.930585e-12 -9.0819233e-35 -1.2212638e-29
-2.061269e-27 -2.1073663e-14 5.6699143e-33 2.853792e-18 1.3572468e-10 1.11766354e-07 8.593884e-25 2.9207886e-08
2.978168e-24 1.2567596e-37 -1.0437506e-13 -1.228874e-26 -8.978359e-13 -9.91346e-40 -5.0764657e-26 -4.6961253e-33
00000000: 0318 6f0b 507f 0080 668b 5b35 9fc6 8b21
00000010: ec83 b222 bb83 dc8f d690 0024 212e 4824
00000020: 92d9 be8d 7600 0080 e9d1 1c29 0062 0d19
00000030: 73bb a4b2 4ed6 3fb3 5640 6bb8 4f8e f696
00000040: 536c e937 891e b42d 98fc 012a 31c9 0eb8
00000050: 5726 0880 2dd8 f11e 062e c130 d290 078f
00000060: 6b0f 92a9 d321 692a ad47 041e 36bf 999d
00000070: 3808 89b6 bfa6 3f0c d02d 0100 5363 9cae
00000080: bbac 0000 dac3 0400 c36b 18b5 f3b2 c238
00000090: b334 3987 5cb5 65a3 f46d f406 bc0d 0080
000000a0: e479 2133 d06e 0297 1d4d 2731 84cd e532
000000b0: 1d67 b126 1211 0480 98ac e1ab 899b 86a7
000000c0: dd12 a516 1a3f 94a3 507c 0fa6 9c18 d12e
000000d0: 1145 a2ad 2c46 8b31 11c2 0824 147f 0e80
000000e0: ccc4 7b33 f4ad 6014 011b 112c 30fe 85af
000000f0: 11ad df29 8629 1680 3e56 a721 1a1c 4520
00000100: 5ac9 dba7 a5d9 9c9b 628b 9326 ff49 142b
00000110: 57be 2928 6604 2036 0667 be19 8b7a 7a1a
00000120: 8cb6 a18e 93a3 08b7 890f bc8c 271b 6d1f
00000130: 41d4 ec9d c5dd 570f c1e3 5025 64d1 4037
00000140: 6bcc a434 5ac6 4619 3194 9b30 370f 850f
00000150: e688 c700 eadc 112c ab94 b02c 3e6f 2b9b
00000160: c7c1 afa0 2346 0f0b 9f46 9320 93da 8b0a
00000170: 4bcf c239 1186 5b30 7924 a0b9 9a32 4434
00000180: 231b 67a1 c406 2931 b37a 0b2d d809 9a30
00000190: b2a9 3815 6a98 0711 a342 0100 1029 ac83
000001a0: 332c c724 7690 019d befb ef1c 2572 9a39
000001b0: e27a 4bb3 61b3 2e2d 5e70 f186 a4b3 778f
000001c0: 814f 2393 8fd0 bda8 df84 eb09 9b92 5222
000001d0: 1a3b 152f 3404 f033 e2fb 8417 d2e4 fa32
000001e0: b26c 6618 ae0f 2b02 2008 eba9 5167 7394
000001f0: e5b7 7cab 78cb 0a80 d95f 7b95 c511 c389
