checkpoint_actor.pth (torch_old, 39757 bytes, 4 tensors)

fc1.weight f4 [256, 33]
00000000: e75f 9abd 2889 b0bd 4fb2 483d fba3 813c
00000010: 7e0c d0bb d739 263d 5b56 7d3d 604f d93d
00000020: fdd2 a83c 6c80 c43d e624 173c fd2d 98bc
00000030: f5c8 f9bc 8cc4 32bd da12 9fbc 7d62 bd3b
00000040: 069b f1bb b614 d9bb 84dc f6bc 8198 84bd
00000050: e0fb 853d 8cf5 013d 0170 ca3d 2895 b43d
00000060: e1eb 573c b190 dabd 6b5c 0fbe 029a 77bd
00000070: b882 06bc e010 b73c 5377 543d b0cf 62bd
00000080: 6ccf eabc 6190 973d 9eac b4bd 47ea 403d
00000090: c12b 8f3d a184 8c3c 17ff 633c 79a7 39bd
000000a0: 5e80 333d 41f8 e7bb 90c3 813c 2cc7 86bd
000000b0: 692d b8bc cc98 583d c00a 783d 2d8e b0bd
000000c0: a109 b33d eae8 b23d f807 ccbc 2774 4d3d
000000d0: 1ed2 bebb 967f ae3d 235b 51bd 270a 913c
000000e0: 0af9 5ebd f2c0 8fbd 181d 73bb e90b dcbd
000000f0: 0982 0fbe 084e 733d c495 513d d6d7 0d3d
00000100: 8288 3c3d 6a78 12bc 421e 883d ce19 45bd
00000110: f615 fcbc 1854 bdbc 20bd 303d f4ca 8639
00000120: ab97 f73b 7eac 683a 0e7c 83bc 8386 9d3d
00000130: 715f 183c f37c 4dbc b1ff bdbb ff67 c5bc
00000140: 3d3a 873d 70a9 bdbd 4b68 a7bd c6c7 dbbb
00000150: 64d7 c53c 1d3a b9bd 6ad6 923c d3ab 22bd
00000160: 4235 0fbd 6c0d 84bd c39c 27bd e79f 983d
00000170: 9644 e73d c8be dbbd 8dbb ad3d a4dd 16bd
00000180: ca14 483d 3e67 6c3d e77f b6bd c610 dcbc
00000190: 168f a2bb 0a4f 76bd f442 a13d c924 53bb
000001a0: 83a7 513d 17d3 89bd 371f 03bc 2270 c8bc
000001b0: 495f 56bc 5439 84bd eb1d 3c3b 818c 73bc
000001c0: 7aae e1bc 334f 963d 7a8a 9ebd 4edd febc
000001d0: 0b90 e63a cf82 e53b 0012 f03b a9ba 3ebc
000001e0: bbe3 58bd 48bc 6f3d de07 d8bc 8ddf f6bb
000001f0: a6cb 953d 62b2 b83d e4a6 95bd 579f 59bd
00000200: 8861 0b3c bb64 2e3d a223 203d 78fd 29bd
00000210: 68b5 6a3d 6119 7bbd ef5b c8bc 7fec 6c3d
00000220: e04b 79bd c9aa 35bd 9800 0e3d 2672 123b
00000230: 7d6a 993d aef7 973d 2e85 2abd 0b6e 12bc
00000240: 2977 663d 7afa 5d3d 6004 dbbc e8be e0bd
00000250: f03a 953c 3e3c a83c 5108 db3c dab3 f5b9
00000260: 936d ae3d 24a3 333d 466e 8dbc 312f 2e3d
00000270: 08d6 3e3d 7ece 4b3d 0613 933c 9c8f 0dbd
00000280: ca2e c6bd dc5f 893c 121e f83d 96b5 6bbd
00000290: 4865 45bd 988c e43d de55 b2bd f34c 66bd
000002a0: 51ef 973d 663a 0f3d 5f08 08bd 5647 1abd
000002b0: 1ee5 073d cb48 8f3c 96ba 4b3c 9f4a 273d
000002c0: 53d4 a73d 8853 19bc af00 fd3d ee3f 21bd
000002d0: 495a d4bc 48d0 193c 17e8 01bc 3146 0e3c
000002e0: 05c6 a5bc 6821 823c ce5a 703d ed4b 8bbc
000002f0: a8d9 463d ab85 913d 3cbf 9dba 2833 09bc
00000300: 3f40 77bc 5ea8 ee3c 7089 f43b aa74 bb3d
00000310: cccc 94bc fa47 c43a 67ce 4c3d d1a9 963d
00000320: 5808 94bd 4c78 cf3d 9305 2abd f9b9 ef3c
00000330: cb99 d9bd b452 763c 0504 79bd b149 1a3d
00000340: 48a8 66bd 8e23 0dbc c7f1 563d be42 cdbc
00000350: a8ba 6f3d 5042 10bd 6042 e13a f939 cbbc
00000360: f5a4 623c 2f6a 303c 94db f93d 55f4 1c3d
00000370: 5471 483c 45f4 adbd e649 c4bd 5bca 5bbd
00000380: 3dd5 d93d 8b13 d5bd d9a4 acbd 7002 843b
00000390: 9251 113d 18ed 70bd 9886 03bd 5b22 ff3c
000003a0: 1f6e 213b b9ad 50bd 3fae 393d 59db 973c
000003b0: c02f 8d3b 3e4d a73c c3a7 b139 5ef0 7dbd
000003c0: 3925 4f3d 7455 8f3c a011 97bd 7346 12bc
000003d0: 7e42 353d dd9c b93d 6e01 8d3d 5e5a 3ebd
000003e0: 6a54 993b d682 803d 79f5 273d d510 6c3d
000003f0: 25ba 573c a900 d1bc ae37 5bbd c709 99bd
-0.07537823 -0.086199105 0.048998173 0.015825262 -0.0063491454 0.040582504 0.061849933 0.10610843
0.02060842 0.09594807 0.009225106 -0.018576616 -0.030491332 -0.043644473 -0.019418169 0.005779563
-0.0073732166 -0.0066247834 -0.030134447 -0.064744 0.06542182 0.031728312 0.09884644 0.08817512
0.0131787965 -0.10672129 -0.14000098 -0.060449608 -0.008209877 0.022346914 0.05187161 -0.055373847
-0.02866336 0.07400585 -0.088219866 0.047098424 0.06990767 0.017153086 0.013915799 -0.04532573
0.043823592 -0.0070791547 0.015840322 -0.06580958 -0.02248259 0.052880093 0.060557127 -0.08620868
0.08742071 0.08735831 -0.024906144 0.0501596 -0.0058233878 0.08520429 -0.051112305 0.017705036
-0.05443672 -0.07019223 -0.0037096199 -0.10744459 -0.14014448 0.05940059 0.05116822 0.034629665
0.04602862 -0.008939842 0.06646396 -0.048120312 -0.03077219 -0.023111388 0.043149114 0.00025709684
0.007555922 0.0008875801 -0.016050365 0.07691672 0.009300099 -0.012541997 -0.005798303 -0.02409744
0.06602905 -0.09260833 -0.08174189 -0.0067071645 0.024150558 -0.09044287 0.017924506 -0.039714646
-0.0349629 -0.064478725 -0.040920984 0.07452374 0.112923786 -0.10729748 0.08483038 -0.036832467
0.04884795 0.057715647 -0.08911114 -0.026863467 -0.004960905 -0.06013397 0.078740984 -0.003221797
0.051185142 -0.06729715 -0.008003048 -0.024467532 -0.013084241 -0.06456247 0.0028704356 -0.014865042
-0.027549017 0.07339325 -0.07741256 -0.031111386 0.0017590536 0.007004119 0.0073263645 -0.011641183
-0.052951556 0.05852917 -0.026370939 -0.0075339735 0.073142335 0.09018399 -0.073072225 -0.053130474
0.00850714 0.042576533 0.039096482 -0.041501492 0.05730191 -0.0613035 -0.0244579 0.057842728
-0.060863376 -0.044352327 0.034668535 0.002234587 0.07491014 0.07420288 -0.041630916 -0.008937369
0.056265984 0.05419395 -0.026735485 -0.109739125 0.01821658 0.020536538 0.026737364 -0.0004686404
0.085169934 0.043856755 -0.017264497 0.042525474 0.046590835 0.049757473 0.017953407 -0.034560785
-0.09676893 0.016769342 0.121151105 -0.05754622 -0.048192292 0.11159629 -0.08707784 -0.05622573
0.07418693 0.034967802 -0.03321111 -0.037665688 0.033177488 0.017490765 0.012434622 0.04084265
0.081947945 -0.009358294 0.12353646 -0.03936761 -0.025921958 0.009388037 -0.00792887 0.008683727
-0.020236025 0.01588507 0.058680348 -0.017003978 0.048547417 0.07105573 -0.0012035142 -0.008374013
-0.015091001 0.029133018 0.007462673 0.09153111 -0.018164061 0.0014975064 0.050001528 0.07356609
-0.07228154 0.10130367 -0.041509222 0.029263483 -0.10625037 0.015034366 -0.06079485 0.037667934
-0.05631283 -0.008614434 0.05247667 -0.02505624 0.05852762 -0.03521949 0.0017185919 -0.024807917
0.013833274 0.010767504 0.12200084 0.03831895 0.012234051 -0.08493856 -0.095844075 -0.053659778
0.10636375 -0.10404118 -0.0842988 0.004028611 0.035478182 -0.05881986 -0.03211078 0.031144312
0.0024632288 -0.050946925 0.04533219 0.01853721 0.0043086708 0.020422574 0.00033885063 -0.06199681
0.050572608 0.017496802 -0.073764086 -0.008927929 0.044252865 0.090631224 0.06885038 -0.0464729
0.0046792524 0.06274955 0.041005585 0.05763324 0.013166939 -0.02551301 -0.053519897 -0.07472568

fc1.bias f4 [256]
00000000: 4bd9 5c3c 068f 44bd 6bd6 693e 4f7b e23c
00000010: 4d7c e63d b35d 333d 1db4 3f3e 0406 883d
00000020: 1a1b 0abc f955 7b3e 9da6 1c3d ecc9 c2bd
00000030: 9291 303e 9f75 473d 045e bc3d 8932 5f3d
00000040: 4da0 2e3d 2520 333d 7fe7 65bd 6010 a73d
00000050: 7181 103e 75be 823e c862 503e 9ef7 1e3e
00000060: b883 f9bb bc08 fc3d 52cf f9bd 3f78 573e
00000070: 4bbb 223e 3c26 fbbd 8c81 643e 56e8 b83d
00000080: a931 3f3e d7ef 663e ee0c 3f3d 3502 133e
00000090: 09dc 6f3e 12c5 293d adba 57bd cdc0 f0b8
000000a0: f014 c13d 779d fd3d 4980 ba3c a512 a2bb
000000b0: 4cd3 b2bd af65 473d 6358 d33c 513c 373e
000000c0: 34e7 833d 3d7d 3f3e 4a11 203d e1ae 263d
000000d0: 0cc0 a3bd 11bb 863e 90d4 863d 5a0b b03d
000000e0: 7114 723e 1bad fb3d b6de 313d 380a a0bc
000000f0: 2c74 b93d 7c6b 513e 9103 bd3d bc2c 4f3e
00000100: edc2 d83d 3ab5 c2bd fd9f 34bd 70a6 3ebd
00000110: 5ff4 243e bcb1 87bd 9d4d 533e fc72 ac3d
00000120: 02b7 063e 0bfa 763e 6618 d03d acfe 07bc
00000130: b6c9 7f3e 7874 23bd bb27 1e3c a1d6 8d3d
00000140: 3eb4 fc3c 3121 103e 2b40 163e 6784 5b3e
00000150: 6920 723d b5be 833e 7c1e 67bd fc75 613e
00000160: dac7 d2ba a171 b4bd 35ec 3a3b 5757 ab3d
00000170: c947 2c3e 6685 4f3e 8ae9 bf3d 9dcf 363e
00000180: 1862 683e f073 9fbc cc21 1cbd ab45 82bd
00000190: 8e4e ffbc 594f 943b 5cdb fb3c e528 7e3d
000001a0: 1cd8 d7bd f5c0 73bd 5155 bb3d 175a 5e3e
000001b0: 9b99 7f3e 48f3 d1bd 0b13 a53d f652 dc3c
000001c0: 8944 cebd 89b4 0cbd afe7 853d ccec bcbc
000001d0: 96c5 573e 7c66 053e 2d5e 08bc fd60 093e
000001e0: 5bc7 bf3d 15bc 3d3e df86 cb3d d2fc 0d3b
000001f0: 5250 aa3d b6e2 aa3c 551b b1bd ec1c 5e3e
00000200: 7528 60bb 6882 433e 513a 293e 4b67 22bd
00000210: 7e97 43bc 8e6b 613d 34ed 233e 7d27 043e
00000220: 7df9 873c 9dd1 cf3d ad44 843d 727f 343c
00000230: 3d1d 7fbc 03d8 d23d 2036 29bd 3f3f 3e3d
00000240: 4953 bfbd 6b24 3ebc e0cf 223e 3fb0 e33d
00000250: f363 4b3d f720 ca3d 083a 9bbd 2671 223e
00000260: 0d21 b53c 9a72 f03d e29c f5bd 22f1 763e
00000270: da16 6abd 4e5a 6f3e 590a bb3d 6b9b 023e
00000280: d42d 543e 6bb9 623e b4fb ed3d 0590 04bd
00000290: 4831 81bd 2b43 783e cb52 29bd 2280 a6bd
000002a0: 81dc 273e 55cb 713e 696f 963d fecd 623e
000002b0: 4ee2 6d3e 3c1b 87bd 7e72 3c3c 254c 1c3e
000002c0: 0587 d83d 9b9a 8cbd 898f 823e 162d 06be
000002d0: da5b 563d 7bea 833e cf8b 183b 3ede f3bd
000002e0: ced4 4a3d 4eac 803d e56f afbd 83c4 343e
000002f0: 9f1e 323e 383e 713e 8240 173e f648 1b3e
00000300: 3970 13bc ff1b 2f3e 8463 363e 19b2 ad3d
00000310: 392e f53d 645d 023e 6e38 7bbd f57c ffbd
00000320: 9a52 4c3e c6cd d13d 2ae3 9b3d dd81 203e
00000330: 547c 843e 9760 68bd 18e1 a23c d2d4 b83c
00000340: d1eb 3b3d db58 d73d b924 09bd 754f f9bb
00000350: 6e54 703e 96b8 143d 0e3d 2d3c 3658 f53d
00000360: a00c 783e 6fd9 0e3d 8ee0 4e3e 85f3 af3d
00000370: 0c81 d13d fed6 473e f519 2b3e 2821 0a3c
00000380: 6ed8 233e 84d9 5f3e 770b 703e 7fdf 2d3d
00000390: 087b 233c 68c8 cc3d 7114 79ba fbcd 6d3d
000003a0: 3754 e5bb 8782 e83d 9368 f83d 174a 82bc
000003b0: b239 603e b9a2 033e 8890 0d3e 80cf 80bd
000003c0: 29a4 83bd 6735 04bc a1fc 1d3e 62d8 2a3e
000003d0: d226 5bbc 06af 693d 97db 333e e2be 303d
000003e0: f739 e93d 97b3 463e 3e01 9ebd e526 93bd
000003f0: 4622 05bd d498 743e fd1a 3f3e 873e c63c
0.013479541 -0.04798796 0.228357 0.027646689 0.11254177 0.04379053 0.18721052 0.066417724
-0.008429313 0.24544515 0.038244832 -0.0951117 0.1724303 0.048696157 0.091976196 0.054491553
0.042633343 0.043731827 -0.056128975 0.0815742 0.14111878 0.25535932 0.20350182 0.15524146
-0.007614579 0.123063534 -0.12197746 0.21041964 0.15891759 -0.12263152 0.22315043 0.090286896
0.18671288 0.22552429 0.04664319 0.1435631 0.2342378 0.041447707 -0.052668262 -0.00011480004
0.09427822 0.1238355 0.02276625 -0.0049460703 -0.08731708 0.048680957 0.025798982 0.17894103
0.06440583 0.18700118 0.039078988 0.04069412 -0.079956144 0.26314595 0.06583512 0.08595915
0.2364061 0.122888766 0.043425284 -0.019536123 0.09055361 0.20451158 0.09229196 0.20231909
0.10584054 -0.095072225 -0.04409789 -0.046545446 0.16108845 -0.06625697 0.20635076 0.08420369
0.1315575 0.24118821 0.10160904 -0.008300465 0.2497929 -0.039905995 0.009653027 0.06925703
0.030847665 0.14075162 0.14672916 0.21437226 0.05911294 0.25731435 -0.056425557 0.22017664
-0.0016081289 -0.088107355 0.0028522138 0.08366268 0.16824259 0.20265731 0.09370716 0.17852636
0.2269367 -0.019464463 -0.03811817 -0.06360944 -0.031165387 0.0045260605 0.030744247 0.06205072
-0.105392665 -0.05951019 0.09147132 0.21714054 0.2496094 -0.1025148 0.08060273 0.026895028
-0.10071666 -0.03435186 0.06538331 -0.023062132 0.21071467 0.13027376 -0.0083232345 0.13415904
0.09364196 0.18528779 0.09937834 0.0021665585 0.08316101 0.020860057 -0.08647791 0.2169072
-0.0034203802 0.19092715 0.16526152 -0.03964929 -0.011937974 0.055034213 0.16008455 0.12905689
0.016598457 0.101474024 0.06458411 0.011016713 -0.015570936 0.10295107 -0.041311383 0.046447035
-0.09342057 -0.011605362 0.1589961 0.11117601 0.049655866 0.09869569 -0.07579428 0.15863475
0.022110486 0.117406085 -0.11992814 0.24115422 -0.0571507 0.23374292 0.09132833 0.127546
0.20720607 0.22141044 0.11620274 -0.03236391 -0.06308228 0.24244373 -0.041338723 -0.08129908
0.1639271 0.23612721 0.073454686 0.22148892 0.2323086 -0.065969914 0.011501906 0.15263422
0.10572628 -0.06865426 0.25500134 -0.13103136 0.05233369 0.25764832 0.0023276692 -0.11907624
0.049519353 0.062828645 -0.08566264 0.17653088 0.17394494 0.23558891 0.14770702 0.15164551
-0.008998924 0.17100523 0.178114 0.08481235 0.11971707 0.12730938 -0.061333112 -0.124750055
0.19953385 0.10244326 0.076116875 0.15674539 0.25876105 -0.05673274 0.019882724 0.022562418
0.04587919 0.10514995 -0.033482287 -0.007608349 0.23469707 0.036308847 0.010573639 0.119797155
0.24223566 0.03487533 0.20202848 0.085913695 0.10229692 0.19515607 0.1670912 0.008430757
0.1600053 0.2186032 0.23441873 0.04244947 0.009978063 0.09999162 -0.0009501642 0.058057766
-0.0069985646 0.11353021 0.12129321 -0.01590447 0.21897009 0.12855043 0.13824666 -0.062895775
-0.064277954 -0.008069373 0.15428402 0.16684106 -0.013375955 0.05705168 0.17564236 0.04315079
0.11388009 0.19404446 -0.07715081 -0.07185153 -0.03250339 0.23886424 0.18662639 0.024199737

fc2.weight f4 [4, 256]
00000000: d902 c3bc 0191 82bc ad71 a0bc e842 b1bc
00000010: 6a50 7cbc 0d1c a8bc a153 12bc 85bf 55bc
00000020: 2656 d9bc 0edb 38bc 5fef afbc 4360 d9bc
00000030: acf3 b1bc 1381 79bc b8ab b1bc 53ff 69bc
00000040: 20a8 9ebc 9d0b ddbc 958c 73bc ad6c b6bc
00000050: 0650 a1bc f98e b5bc 8e19 abbc 4898 94bc
00000060: 9d2d 91bc fa2f 8ebc 8910 c8bc be9e 60bc
00000070: e6ee 68bc fd76 42bc 7757 99bc 0873 bdbc
00000080: 70b0 9dbc 9adb 29bc ee7d 9ebc de52 9cbc
00000090: f956 8cbc 43f0 7cbc cb7b adbc ff5a a8bc
000000a0: 96f5 6bbc 80cf acbc 8f38 72bc ab79 12bc
000000b0: 7e3c e5bb f3bc 8bbc 2dbb c2bc 2509 25bc
000000c0: ae84 98bc f1b0 bfbc 56f1 a5bc 4c96 bcbc
000000d0: 6f6b 41bc 1c60 adbc 7dec bcbc 150d c0bc
000000e0: 344a 68bc 5860 dfbc b8b1 d9bc 1848 84bc
000000f0: e3bb 75bc be61 c9bc 8f20 dfbc 26e3 a5bc
00000100: 87fa a9bc d247 05bd 7232 9abc c98e aebc
00000110: 4576 30bc 5d98 b0bc 9142 80bc 3164 b6bc
00000120: 8ebf adbc 6157 c8bc 6fa6 d3bc 2757 a5bc
00000130: e954 bfbc ed37 b8bc e4a0 9fbc 93ee 88bb
00000140: 44a2 eabb 87c7 c9bc c9d0 abbc bf34 9ebc
00000150: 2f96 fdbc 837a b2bc 0ba2 02bb c8db 81bc
00000160: e216 82bc 70ec 74bc 0c9d 77bc 9d4b b9bc
00000170: 15e9 2ebc 9485 bdbc 50ed c6bc d987 cdbc
00000180: 8f9f d0bc 0a60 a5bc ede0 55bc 12a4 86bc
00000190: 113e ddbc 8866 7bbc df24 10bc 8bde 05bc
000001a0: c6ab a9bc 487d 77bc d813 9ebc d8f7 00bc
000001b0: 192e b7bc 95b4 3ebc c7cc b3bc a297 abbc
000001c0: a2d9 d2bc 700a 27bc 6e11 acbc 346b c1bc
000001d0: 287f 62bc 3d71 b6bc 0b94 9ebc feb0 d3bc
000001e0: 9187 8dbc 4429 8fbc 9eb5 fbbb 4662 8cbc
000001f0: 40e8 c6bc 4cc5 42bc bb59 8abc 4dce 91bc
00000200: 1879 01bd b072 ffbc e445 fabc 602a 6dbc
00000210: 336f abbc 5aa8 b1bc dea2 e4bc 3839 cdbc
00000220: 0f14 ecbc 8e9f 73bc 11fe b5bc daab 37bc
00000230: 0892 e6bc 6b8c a3bc c6a7 90bc 957d 89bc
00000240: 8f96 80bc 5f39 a5bc 9a6d f2bb 7b0e 89bc
00000250: fce8 8fbc a3ef a9bb 5dfe 6fbc 8b92 dbbc
00000260: 2634 a3bc b407 82bc 674a 8cbc 66e1 36bc
00000270: 1bec d3bc 2e25 9dbc 9d4c abbc 99b6 14bc
00000280: af18 34bc ce14 afbc a620 b3bc 6639 a8bc
00000290: 43ef 25bc a0e6 4ebc c710 86bc 6d0c b5bc
000002a0: 9ad6 19bd fb9a 96bc 88a0 b5bc 928d 8bbc
000002b0: 063a 9dbc 42a0 a2bc 7b4c 1fbc fb01 c6bc
000002c0: 79c3 43bc 012d 87bc aae2 95bc ffdb b7bc
000002d0: 7e84 a0bc 6fe1 95bc 9764 aabc 57f3 b9bc
000002e0: 42f8 b5bc 9ce1 c0bb bcd8 c8bb bc13 3abc
000002f0: 6bf8 7dbc a466 87bc dd4f 85bc af31 bbbc
00000300: 8dcd 96bc 54ef 5fbc 4d2a 9cbc 022c a4bc
00000310: ecc0 3abc 2d10 a2bc bc76 b0bc c214 f3bc
00000320: b08f a1bc 7fd7 a4bc 461f 93bc 91f2 d2bc
00000330: c0f8 a3bc 7e89 d1bc ee96 d8bb 0e1d c3bc
00000340: dcdd 4dbb 49d4 0cbc be30 fdbc 5b4d a4bc
00000350: 3b40 82bc 61d8 babc c190 9cbc b7b6 adbc
00000360: cea2 3abc df1b b0bc 140d abbc 28b6 c0bb
00000370: 672d 8abc 812b b9bc df89 3dbc 3855 babc
00000380: cfe8 5abc 19b3 73bc e62f a2bc 4dd5 e3bc
00000390: 1aa2 b9bc 844d 70bc a61b 72bc f698 eebc
000003a0: 5bf5 4abc 1318 c4bc f00c 87bc a2a4 ecbc
000003b0: 6d1e b3bc 08e7 02bd 2f9d dabc c858 a2bc
000003c0: 416a c3bc 1a57 10bc 1b8f 7dbc 6e24 41bc
000003d0: f8a4 45bc 64d2 05bd 7253 16bd 61a8 66bc
000003e0: c46c c1bc 7b6f 86bc 5130 f8bb 465f a2bc
000003f0: ecde 11bd 106d 9bbc 06ca a1bc 1e65 9abc
-0.023805069 -0.015938284 -0.019585455 -0.021638349 -0.015400032 -0.020521188 -0.0089310715 -0.01304615
-0.026530337 -0.011282695 -0.021476446 -0.026535159 -0.021722637 -0.015228528 -0.021688327 -0.014282065
-0.019367278 -0.026983077 -0.01486506 -0.022268618 -0.019691478 -0.022162901 -0.020886209 -0.01813902
-0.017721945 -0.017356861 -0.024421947 -0.013709722 -0.014217114 -0.011869189 -0.018718464 -0.02312614
-0.019249171 -0.0103672985 -0.019347157 -0.019082483 -0.017131316 -0.015438142 -0.021177193 -0.020551203
-0.014401814 -0.021095037 -0.014783992 -0.008940141 -0.0069957366 -0.017057871 -0.023770893 -0.010072981
-0.018617954 -0.023399802 -0.02025668 -0.023020886 -0.011805399 -0.021163993 -0.023061985 -0.023443738
-0.014177848 -0.02726762 -0.026574 -0.016147658 -0.014998409 -0.02458274 -0.027237205 -0.020249914
-0.020749344 -0.032539196 -0.018822882 -0.02130832 -0.010770385 -0.021557027 -0.015656741 -0.022264572
-0.021209504 -0.024455728 -0.025836198 -0.020183159 -0.023355918 -0.022487605 -0.019485898 -0.004178831
-0.007160457 -0.024631275 -0.02097358 -0.01931226 -0.030955402 -0.021786934 -0.001993301 -0.01585187
-0.015880052 -0.014948949 -0.0151131265 -0.022619063 -0.010675688 -0.023134984 -0.024283081 -0.025089191
-0.025466708 -0.020187397 -0.013054115 -0.016435657 -0.027007135 -0.01534427 -0.008797853 -0.008170734
-0.02071179 -0.015105553 -0.019296572 -0.007871591 -0.022360848 -0.011639734 -0.021948231 -0.020946328
-0.025738541 -0.01019536 -0.021004405 -0.023610689 -0.013824262 -0.022270793 -0.019357702 -0.025841232
-0.017276557 -0.017475732 -0.0076815626 -0.017136704 -0.024280667 -0.01188786 -0.01688849 -0.017798567
-0.031609625 -0.031182617 -0.030550905 -0.014475435 -0.020927047 -0.021686722 -0.027909692 -0.025051698
-0.028818158 -0.014869584 -0.022215875 -0.011210406 -0.028145805 -0.019964417 -0.017658126 -0.016783515
-0.015696792 -0.020168958 -0.0073983194 -0.016730538 -0.01756715 -0.0051860376 -0.014648047 -0.026803276
-0.019922327 -0.015872814 -0.017125322 -0.011162138 -0.02586942 -0.019182768 -0.020910555 -0.009076738
-0.010992213 -0.021372225 -0.021866154 -0.020535182 -0.010127845 -0.0126282275 -0.016365422 -0.022100652
-0.037558176 -0.018384447 -0.022171274 -0.01703528 -0.019192707 -0.019851808 -0.009722824 -0.024170866
-0.01194846 -0.016500952 -0.018296558 -0.02244377 -0.019594427 -0.018295972 -0.020799918 -0.022699041
-0.022213105 -0.0058862697 -0.0061293524 -0.011357244 -0.015501122 -0.016528435 -0.016273433 -0.02285084
-0.018408561 -0.0136679 -0.01906314 -0.020040516 -0.011398535 -0.019783104 -0.021540992 -0.029672984
-0.019721836 -0.020122288 -0.017959248 -0.02575043 -0.020016074 -0.025578257 -0.006609789 -0.023817565
-0.0031412756 -0.008595535 -0.030907031 -0.020056417 -0.015899768 -0.022808256 -0.019111993 -0.02120529
-0.011391355 -0.021497665 -0.02088026 -0.0058810897 -0.016867353 -0.022603752 -0.011568516 -0.022745714
-0.01336117 -0.014874243 -0.01979823 -0.02781167 -0.022660304 -0.014666919 -0.0147771 -0.029125672
-0.012387599 -0.02393726 -0.016485661 -0.028887097 -0.021865094 -0.03195861 -0.02668628 -0.019817725
-0.023854377 -0.008809829 -0.0154760135 -0.011788471 -0.012063257 -0.032671347 -0.036700673 -0.014078231
-0.023611434 -0.01641058 -0.007574119 -0.01982082 -0.035612985 -0.018972903 -0.019749653 -0.018847045

fc2.bias f4 [4]
00000000: 166c 313c 27bc 59bc 3741 a43d 41e3 98bd
0.010828992 -0.013289488 0.08020251 -0.0746522
