checkpoint_actor.pth (torch_old, 89312 bytes, 10 tensors)

fc1.weight f4 [128, 33]
-0.014362436 0.1382973 -0.2257714 0.14259712 -0.11526336 -0.25526938 0.27962276 -0.03933503
0.11277834 0.024388155 -0.026719125 0.0031093876 -0.057995524 -0.024084017 -0.14110394 0.05052715
-0.15767616 0.10541221 0.007766909 0.044424396 -0.0012712511 -0.008724827 0.010489209 -0.01950947
-0.050552346 -0.0021148357 -0.046475857 0.022145936 0.1380442 0.060562305 -0.044869438 -0.009765603
-0.80546105 0.0022778555 -0.0047550187 0.2654778 0.20092158 0.021164756 0.022616776 0.17866851
0.021419577 -0.10661258 0.05547982 0.026743168 -0.1855791 0.034540247 0.14046647 -0.02469635
-0.04626915 0.49737194 0.3930812 0.041036095 0.080031976 0.011470659 -0.12187633 -0.027893318
-0.052100915 0.10965304 -0.016935147 -0.045962412 0.00016058971 0.08315263 0.012764998 0.048207257
0.0011838078 0.2483293 0.06104163 -0.16585629 0.028438289 0.16728106 -0.08252694 -0.29788765
-0.26008743 -0.041492768 0.1331885 0.012327593 -0.053466335 -0.16238944 -0.00919468 -0.14783913
-0.22094515 0.02956224 -0.07931076 0.21444894 -0.09575321 -0.17994463 0.009653222 0.052202806
0.07629611 -0.05924557 -0.074055925 -0.16666687 0.15230031 -0.05622879 -0.13312384 0.015412912
-0.020591272 0.006562315 0.31187817 0.15581721 0.036489595 0.022188576 -0.12922071 -0.058089398
-0.052981187 0.23077583 -0.090004474 0.28292927 0.13079312 0.14047283 -0.067687616 -0.013020121
0.3063043 -0.00014247655 -0.07913468 -0.021299187 0.24451943 0.016834842 -0.12419651 -0.112717494
0.039529502 -0.09682114 0.10582473 -0.027985893 0.094435684 -0.029178498 -0.07553368 0.11321743
-0.03512277 -0.022219623 0.015228637 -0.26360163 -0.17142063 0.24444026 0.11103839 -0.47897342
-0.34789658 -0.07575013 -0.18272649 -0.0073302044 0.038045555 0.03632385 -0.010662275 0.018496318
-0.07817685 -0.0650277 0.06864164 -0.16908811 -0.2956037 0.02589546 -0.036738526 -0.05304006
-0.09188612 0.18398903 -0.03816112 0.09331874 0.112929754 0.041662082 0.08063188 0.025987847
0.067387745 0.04288227 -0.08396249 0.0022069141 0.037536547 -0.13074245 0.009725841 0.12614737
0.5314403 0.04886374 -0.034000773 0.008043645 -0.028932944 -0.33223304 -0.09515332 -0.058267567
-0.09647311 -0.03914128 0.060944907 -0.0076374873 -0.052985888 0.1682382 0.3917971 -0.2869743
-0.11034033 0.009335356 -0.12012631 0.00037351702 -0.101321556 0.08900772 0.099752784 -0.109332636
0.06261043 0.15692894 0.07238983 -0.05865566 -0.0019151941 -0.4264955 0.10156463 0.045785643
0.07539653 -0.1911833 0.120492585 0.11310123 -0.17563622 0.08416702 -0.11631867 -0.17753856
0.032569822 0.06908884 0.03194896 -0.19995937 -0.0067564663 -0.0858477 0.2616197 0.31323168
-0.2039874 -0.11463819 -0.08806014 0.02395019 -0.10331515 -0.06297956 -0.077875376 0.037284188
-0.008786286 0.03809389 0.13479358 0.029335313 -0.07327906 -0.038166046 -0.12718548 0.29163608
-0.08055736 0.08834011 -0.1290703 0.40726095 0.10207351 -0.4839662 0.027298756 0.1083661
0.11714599 0.02632049 -0.03579833 -0.010822931 -0.062369414 -0.11414584 0.05266717 -0.2612731
0.051663063 -0.108133905 -0.07467496 0.024013568 -0.025900232 0.0104543 -0.09519694 0.029456249
00000000: 6c50 6bbc cf9d 0d3e 9e30 67be fb04 123e
00000010: 320f ecbd abb2 82be b72a 8f3e c51d 21bd
00000020: 55f8 e63d abc9 c73c 11e2 dabc dec6 4b3b
00000030: b78c 6dbd d84b c5bc 8d7d 10be 8ff5 4e3d
00000040: dc75 21be 5be2 d73d 8e81 fe3b 5bf6 353d
00000050: 1ca0 a6ba 94f2 0ebc eeda 2b3c 53d2 9fbc
00000060: fa0f 4fbd 0e99 0abb 785d 3ebd 656b b53c
00000070: 755b 0d3e 2e10 783d 04c9 37bd e8ff 1fbc
00000080: b232 4ebf 1348 153b fdcf 9bbb b5ec 873e
00000090: 63be 4d3e b661 ad3c d146 b93c e1f4 363e
000000a0: 1c78 af3c b257 dabd cf3e 633d 7d14 db3c
000000b0: 7308 3ebe 137a 0d3d 71d6 0f3e 0050 cabc
000000c0: b884 3dbd 89a7 fe3e f041 c93e 7715 283d
000000d0: cee7 a33d 6eef 3b3c 4c9a f9bd 8780 e4bc
000000e0: c567 55bd c691 e03d 94bb 8abc 1543 3cbd
000000f0: f963 2839 ed4b aa3d 4824 513c f974 453d
00000100: 002a 9b3a 094a 7e3e ca06 7a3d 3bd6 29be
00000110: 6af7 e83c ba4b 2b3e e203 a9bd bb84 98be
00000120: 2e2a 85be 52f4 29bd 9162 083e acf9 493c
00000130: 84ff 5abd 6b49 26be 48a5 16bc 2463 17be
00000140: 723f 62be 832c f23c ae6d a2bd 8198 5b3e
00000150: 421a c4bd 6843 38be 8c28 1e3c 9cd2 553d
00000160: 2341 9c3d 7cab 72bd a2aa 97bd b8aa 2abe
00000170: 9df4 1b3e 2950 66bd 9e51 08be 7086 7c3c
00000180: 07af a8bc b008 d73b 7fae 9f3e 8c8e 1f3e
00000190: 1d76 153d d1c4 b53c 6f52 04be 26ef 6dbd
000001a0: cd02 59bd 8050 6c3e 4454 b8bd 1bdc 903e
000001b0: a2ee 053e 1cd8 0f3e ce9f 8abd 5852 55bc
000001c0: ebd3 9c3e c265 15b9 5d11 a2bd a27b aebc
000001d0: 4d63 7a3e 39e9 893c bd5a febd 6ed8 e6bd
000001e0: b0e9 213d 294a c6bd a3ba d83d ac42 e5bc
000001f0: 7f67 c13d bf07 efbc 67b1 9abd 8ade e73d
00000200: e5dc 0fbd ed05 b6bc 8881 793c cbf6 86be
00000210: e488 2fbe 8c4e 7a3e 1868 e33d 013c f5be
00000220: 801f b2be e222 9bbd a71c 3bbe 3632 f0bb
00000230: a8d5 1b3d 51c8 143d d3b0 2ebc 9785 973c
00000240: 2f1b a0bd 3e2d 85bd fd93 8c3d 6f25 2dbe
00000250: 5e59 97be b722 d43c 237b 16bd 8940 59bd
00000260: ca2e bcbd 9f67 3c3e d64e 1cbd e51d bf3d
00000270: b747 e73d dca5 2a3d 5422 a53d 77e4 d43c
00000280: 9602 8a3d 52a5 2f3d 87f4 abbd e0a1 103b
00000290: ecbf 193d 59e1 05be 2259 1f3c c72c 013e
000002a0: 790c 083f 5825 483d 6544 0bbd 7ec9 033c
000002b0: c804 edbc 731a aabe bedf c2bd f9a9 6ebd
000002c0: b293 c5bd 9b52 20bd 5ea1 793d e343 fabb
000002d0: bb07 59bd a246 2c3e a199 c83e 4cee 92be
000002e0: 1cfa e1bd 52f3 183c c804 f6bd 9bd4 c339
000002f0: ad81 cfbd ae49 b63d 304b cc3d cae9 dfbd
00000300: e639 803d fbb1 203e 1f41 943d eb40 70bd
00000310: 4007 fbba 9e5d dabe 1e01 d03d ba89 3b3d
00000320: 7f69 9a3d 8ec5 43be d1c4 f63d 9ea1 e73d
00000330: fbd9 33be c25f ac3d 7c38 eebd abcc 35be
00000340: ef67 053d 737e 8d3d eadc 023d 26c2 4cbe
00000350: 5965 ddbb ebd0 afbd 04f3 853e e75f a03e
00000360: 13e2 50be 6dc7 eabd e058 b4bd 3033 c43c
00000370: e596 d3bd 6dfb 80bd 207d 9fbd 4eb7 183d
00000380: 5bf4 0fbc 5708 1c3d 5407 0a3e 9c50 f03c
00000390: 5513 96bd 0054 1cbd e93c 02be 5351 953e
000003a0: 42fb a4bd a9eb b43d 012b 04be 8284 d03e
000003b0: eb0b d13d 6bca f7be a4a1 df3c 0cef dd3d
000003c0: 3dea ef3d 119e d73c 45a1 12bd aa52 31bc
000003d0: 1277 7fbd 4bc5 e9bd 88b9 573d 96c5 85be
000003e0: a69c 533d 4f75 ddbd 2fef 98bd 1ab8 c43c
000003f0: b92c d4bc 8348 2b3c 9df6 c2bd 3b4e f13c

fc1.bias f4 [128]
-0.08296808 -0.015182955 -0.13711193 0.0038230564 -0.15762822 -0.13969758 0.09245164 -0.04821611
-0.07330235 -0.030066745 -0.16869508 0.15947624 -0.0053649396 -0.02530537 -0.07442328 0.08855488
-0.1379459 0.06711624 -0.12424903 -0.068919495 -0.10915396 -0.109396 -0.023704542 -0.12563816
-0.11669707 -0.16956903 0.04592966 -0.13328551 -0.020420171 -0.041779146 -0.14051399 -0.11643926
-0.015165324 0.12700082 -0.046299297 0.15167588 0.06366108 -0.12995641 0.052638717 -0.1661878
-0.09976866 0.16820617 0.16985321 -0.09861857 0.021334877 -0.1713458 -0.09447823 0.030207869
-0.16132595 -0.06020674 -0.08190424 -0.13064575 0.09230085 -0.11304155 0.15206695 0.032518327
0.058219314 -0.12538467 0.0094537195 0.16035086 -0.09067849 -0.06847425 -0.06706181 -0.036590148
0.10364364 0.08907204 -0.061501626 0.12034456 -0.16019855 -0.05257742 -0.027931362 -0.0071652555
-0.011541044 0.061049856 0.058882732 -0.15046144 0.07202301 0.017431892 0.111667156 -0.023218762
-0.15732257 0.0488357 -0.07130252 -0.1109065 -0.03178381 0.13795048 -0.14274786 -0.070487864
-0.16564947 -0.028665407 0.04661087 0.0865947 -0.053466767 0.12715952 0.076842465 0.10010796
-0.08893047 0.11928409 -0.043051645 0.12997448 0.12454776 -0.15097888 0.019323846 0.020492744
-0.031036163 0.121875495 0.06638095 -0.1712423 0.12167429 0.039446265 0.054029867 0.032344308
0.009733897 -0.090054974 0.032071907 0.004003365 0.06852843 -0.03945273 0.13069418 -0.0043050605
-0.030824544 -0.06286064 0.15528172 -0.005961686 -0.06633168 -0.07672919 0.1658801 -0.15475021
00000000: 2beb a9bd eec1 78bc 1267 0cbe 3e8c 7a3b
00000010: 4b69 21be e20c 0fbe 4957 bd3d 417e 45bd
00000020: 8b1f 96bd 894e f6bc 67be 2cbe bd4d 233e
00000030: 60cc afbb 354d cfbc 3c6b 98bd 435c b53d
00000040: b141 0dbe 3d74 893d 4776 febd aa25 8dbd
00000050: 1d8c dfbd 030b e0bd 0730 c2bc 4aa7 00be
00000060: e0fe eebd 81a3 2dbe bd20 3c3d ff7b 08be
00000070: 3448 a7bc 9c20 2bbd e6e2 0fbe b577 eebd
00000080: fb77 78bc 810c 023e 55a4 3dbd ec50 1b3e
00000090: be60 823d 4b13 05be b29b 573d 222d 2abe
000000a0: 8353 ccbd 3d3e 2c3e 00ee 2d3e 88f8 c9bd
000000b0: 7bc6 ae3c 4675 2fbe cd7d c1bd 7e76 f73c
000000c0: a132 25be 589b 76bd 69bd a7bd 00c8 05be
000000d0: 3a08 bd3d 5482 e7bd 70b7 1b3e f031 053d
000000e0: 6077 6e3d d764 00be c6e3 1a3c 0433 243e
000000f0: a5b5 b9bd 3a3c 8cbd b457 89bd 8ddf 15bd
00000100: 1e43 d43d 676b b63d 21e9 7bbd 3577 f63d
00000110: 170b 24be 6c5b 57bd 50d0 e4bc 85ca eabb
00000120: a616 3dbc 6a0f 7a3d 052f 713d 9012 1abe
00000130: cd80 933d 54cd 8e3c c0b1 e43d 4635 bebc
00000140: 2b19 21be f107 483d 0e07 92bd f222 e3bd
00000150: be2f 02bd e442 0d3e 7f2c 12be f15b 90bd
00000160: 04a0 29be b7d3 eabc 0aeb 3e3d 9058 b13d
00000170: f8ff 5abd 1b36 023e 955f 9d3d 6705 cd3d
00000180: 2e21 b6bd 384b f43d ec56 30bd 0818 053e
00000190: e512 ff3d 359a 1abe 0b4d 9e3c 66e0 a73c
000001a0: 8d3f febc dc99 f93d bcf2 873d 245a 2fbe
000001b0: 5f30 f93d 6892 213d 6c4e 5d3d 777b 043d
000001c0: ec7a 1f3c be6e b8bd d55d 033d a92e 833b
000001d0: a258 8c3d 3099 21bd b2d4 053e 7711 8dbb
000001e0: c183 fcbc 14bd 80bd 2c02 1f3e 3f5a c3bb
000001f0: e7d8 87bd 3224 9dbd 79dc 293e d776 1ebe

bn1.weight f4 [128]
0.8009293 0.952709 1.0405838 0.870698 0.7431498 0.73478574 0.75568485 0.60745126
0.9831347 0.9690611 0.58716625 0.90053207 0.5617619 0.62193793 -0.0008470035 1.2416536
1.1710936 0.815473 0.5399414 1.2678312 0.6739974 0.80610204 0.7964464 0.80095774
0.6881257 1.2138816 1.423055 1.6640856 0.85148776 0.8843368 1.325393 1.0100839
0.8923191 0.4317068 1.3589953 0.43497634 0.92185485 0.9324848 1.1989256 1.0770277
0.8191388 0.79866105 0.70810086 1.0806161 0.7853085 0.648664 0.74885947 1.0460031
0.8777284 1.2102053 0.8432219 1.2352076 0.96084857 0.5507823 1.2235999 0.0009149464
0.6428513 1.1505467 1.3107765 0.83582264 1.4157493 1.199802 1.4546978 0.8624427
1.2157514 1.2809242 1.1859174 0.6669902 1.1142877 0.84676385 1.1823077 0.99885046
1.1058123 1.0761114 1.1687251 1.2001882 0.87149584 0.45463946 0.99436593 0.5267391
1.1055082 0.9740906 0.9097018 1.0295565 1.1449673 0.6209292 0.8632539 1.0748092
0.63680303 1.1576269 1.2320005 0.7932001 0.55245703 0.57744586 1.1826801 1.2258399
0.73093987 0.78977805 1.2096812 0.57506174 0.93334 0.7139706 0.9933771 1.141426
0.6641328 1.3152485 1.0722419 1.0988265 1.2285826 1.3218701 0.7342717 0.8493104
0.97287524 0.96481586 1.0491699 0.57559973 1.4603972 1.6151556 0.9267271 1.0859699
0.81003755 0.78636366 1.3346711 0.871138 1.2087615 0.5812281 1.2645619 1.0790509
00000000: b409 4d3f bde4 733f da31 853f 10e6 5e3f
00000010: 113f 3e3f eb1a 3c3f 9074 413f ed81 1b3f
00000020: b7ae 7b3f 6314 783f 8750 163f 4589 663f
00000030: a1cf 0f3f 5337 1f3f 7109 5eba 81ee 9e3f
00000040: 65e6 953f d7c2 503f 9939 0a3f 4b48 a23f
00000050: 188b 2c3f b45c 4e3f e9e3 4b3f 910b 4d3f
00000060: 0229 303f 7960 9b3f ab26 b63f c200 d53f
00000070: 1afb 593f e663 623f 7aa6 a93f 6e4a 813f
00000080: 066f 643f ac08 dd3e 8ff3 ad3f 38b5 de3e
00000090: aefe 6b3f 53b7 6e3f 6576 993f 0bdc 893f
000000a0: 15b3 513f 0d75 4c3f 1946 353f a151 8a3f
000000b0: fa09 493f d80e 263f 41b5 3f3f 6ee3 853f
000000c0: cfb2 603f 02e8 9a3f 64dd 573f 481b 9e3f
000000d0: 2cfa 753f 1200 0d3f ec9e 9c3f 03d9 6f3a
000000e0: e791 243f 1d45 933f 86c7 a73f 79f8 553f
000000f0: 4637 b53f 1d93 993f 8a33 ba3f 0bc9 5c3f
00000100: be9d 9b3f 53f5 a33f 24cc 973f dfbf 2a3f
00000110: fba0 8e3f 84c5 583f dc55 973f aab4 7f3f
00000120: 428b 8d3f 05be 893f c998 953f c49f 993f
00000130: 5a1a 5f3f 81c6 e83e c48e 7e3f 60d8 063f
00000140: 4b81 8d3f 005e 793f 38e2 683f 82c8 833f
00000150: 4a8e 923f 37f5 1e3f 35fe 5c3f 5993 893f
00000160: 8605 233f 1e2d 943f 31b2 9d3f 290f 4b3f
00000170: d36d 0d3f 7ed3 133f 1062 973f 52e8 9c3f
00000180: e01e 3b3f e52e 4a3f d5d6 9a3f 3f37 133f
00000190: 5fef 6e3f c7c6 363f f64d 7e3f 3f1a 923f
000001a0: 9b04 2a3f 105a a83f 393f 893f 59a6 8c3f
000001b0: 3242 9d3f 0a33 a93f 3bf9 3b3f 686c 593f
000001c0: 5a0e 793f 2cfe 763f 334b 863f 815a 133f
000001d0: 4cee ba3f 6bbd ce3f fd3d 6d3f 1001 8b3f
000001e0: 9f5e 4f3f 214f 493f 81d6 aa3f e602 5f3f
000001f0: b2b8 9a3f 5dcb 143f 2add a13f 571e 8a3f

bn1.bias f4 [128]
-0.14243384 -0.11230214 0.18737246 -0.147218 -0.5189288 -0.07274877 0.27253574 -0.08571288
-0.47562012 0.25713918 0.010940954 -0.16580015 -0.17181101 0.17948157 -0.004862679 0.103953995
-0.21146397 0.04642644 -0.04330263 0.06675272 0.15665849 0.11362511 0.015267242 -0.04128226
-0.103749976 0.062081464 -0.07331991 0.3905627 -0.013825997 -0.21047786 -0.29211786 0.0016306377
-0.10973634 0.28348082 -0.3415932 0.2812576 -0.043611284 -0.27153596 0.09694322 -0.57410884
-0.06113084 0.02627765 0.0062771086 -0.124589644 0.16701476 -0.3177151 -0.022382384 0.087893575
-0.07242819 0.42385274 0.042436365 0.032732524 0.19579104 0.06761802 -0.48234934 -0.009617952
-0.34915656 -0.08981734 -0.052726388 -0.18335573 0.30586925 -0.099446565 -0.050397795 -0.05353426
0.04757618 -0.21161754 -0.37649453 0.15608686 -0.050643317 0.117432445 -0.20726834 -0.0073056617
-0.31857297 0.22842894 0.13375694 -0.13810192 -0.0895879 0.3208821 -0.5110749 0.16856599
-0.17107625 -0.15919578 0.027721342 -0.043811966 0.28399003 -0.1044159 0.39791274 0.0098428745
0.1813491 -0.07950223 -0.14671807 -0.0008018891 -0.1166954 0.16335006 -0.23533477 0.10674987
0.041547626 0.2833278 -0.08118673 0.060360115 0.122488916 0.026390823 -0.027501114 0.06241582
-0.021306269 -0.06498939 0.14546359 -0.0501185 0.13885246 1.0866551e-05 0.16936384 -0.25894478
0.053112704 0.38501492 0.0008631019 0.48214498 -0.12565435 0.15465909 0.08343697 -0.17542645
0.09960996 -0.3441681 0.37511516 0.15205072 0.19797398 0.039997034 -0.01579306 0.0068438035
00000000: 2dda 11be aafe e5bd 91de 3f3e 51c0 16be
00000010: 85d8 04bf 4ffd 94bd ce89 8b3e 3c8a afbd
00000020: 7b84 f3be bfa7 833e b041 333c 84c7 29be
00000030: 3aef 2fbe 04ca 373e 1c57 9fbb d5e5 d43d
00000040: 038a 58be a729 3e3d 195e 31bd a6b5 883d
00000050: 156b 203e 48b4 e83d 7423 7a3c 9617 29bd
00000060: de7a d4bd 2249 7e3d c028 96bd d6f7 c73e
00000070: 6f86 62bc 8287 57be 7990 95be 1fbb d53a
00000080: 72bd e0bd 6624 913e 4ee5 aebe ff00 903e
00000090: bfa1 32bd c306 8bbe 2b8a c63d ccf8 12bf
000000a0: 5564 7abd 3a44 d73c 34b0 cd3b db28 ffbd
000000b0: eb05 2b3e 8eab a2be 435b b7bc 8c01 b43d
000000c0: 3b55 94bd 3a03 d93e c1d1 2d3d 8a12 063d
000000d0: 727d 483e 517b 8a3d 7ef6 f6be 9d94 1dbc
000000e0: a6c4 b2be 27f2 b7bd a0f7 57bd 9bc1 3bbe
000000f0: e59a 9c3e a4aa cbbd eb6d 4ebd bd46 5bbd
00000100: 3edf 423d 45b2 58be e4c3 c0be 3cd5 1f3e
00000110: 5e6f 4fbd 6c80 f03d 273e 54be 5564 efbb
00000120: ff1b a3be 47e9 693e 94f7 083e 976a 0dbe
00000130: dc79 b7bd a94a a43e ced5 02bf 909c 2c3e
00000140: 9d2e 2fbe 3804 23be de17 e33c 2d74 33bd
00000150: 2467 913e 01d8 d5bd 38bb cb3e 0244 213c
00000160: 94b3 393e 11d2 a2bd 433d 16be de35 52ba
00000170: fffd eebd 3d45 273e 99fb 70be ad9f da3d
00000180: d82d 2a3d 5710 913e 3a45 a6bd 2b3c 773d
00000190: 78db fa3d 9131 d83c 044a e1bc bba7 7f3d
000001a0: 7c8a aebc 2819 85bd 68f4 143e 0e49 4dbd
000001b0: 572f 0e3e 7b4f 3637 b76d 2d3e 6994 84be
000001c0: b58c 593d ad20 c53e ca41 623a b5db f63e
000001d0: 89ab 00be f45e 1e3e 01e1 aa3d fea2 33be
000001e0: 4f00 cc3d cd36 b0be 180f c03e 2fb3 1b3e
000001f0: b1b9 4a3e eed3 233d 7360 81bc fc41 e03b

bn1.running_mean f4 [128]
0.028294975 0.107094884 1.0034627 0.03322421 -1.3860033 0.0706179 -0.25992948 0.25950113
0.25981724 0.6275342 -0.47152206 -0.74753237 0.5711254 0.3351745 -0.25049007 -0.13081934
0.13726464 0.94407845 -1.4266644 -0.40657043 1.2416816 -0.52484775 -0.66468894 0.15203604
-0.62898284 -0.15635602 0.1938997 0.034539256 0.021546308 0.66882586 -0.3375445 -0.776628
-0.7299562 0.82211596 -0.14139366 -0.5273207 -0.25574207 -0.17363222 0.21980125 -1.1988139
0.18361892 -0.17999494 -0.8225295 -0.2652342 0.10029485 -0.32690728 0.540898 -0.31555554
0.6742744 0.35228884 -0.47805905 0.45820335 0.94586706 -0.14819941 0.2028834 0.25054416
-0.032864444 -0.7140408 0.18135603 -0.7049042 -0.22131252 -0.36137828 0.20704307 -0.41434798
-0.12372996 0.20943679 -0.45532665 0.2339594 -0.22355686 -0.14112149 -0.07622162 0.14562553
-0.4928664 -0.38241115 0.48143446 -0.6413888 0.25172237 0.37338156 -0.4680644 0.0032764252
0.20387408 0.1725621 -0.03788578 -0.079421945 0.11275319 0.41806585 0.43576083 -0.31235301
0.07115936 -0.20401913 -0.095010474 -0.4893808 -0.9992125 0.040170852 -0.5930382 0.36128733
0.060408007 0.29145044 -0.17797497 0.8656537 -0.38315082 0.25176278 0.39470336 0.30120066
0.33842266 1.0344965 0.00080020766 0.039367832 -0.011960328 0.38606435 -0.35418558 0.11576408
-0.6867041 -0.29260215 -0.016993986 -0.47661412 0.25351614 -0.26657203 0.6012027 -0.1854885
0.8284884 -0.05503339 0.41881427 0.1003303 0.4793269 0.51736873 -0.20734136 -0.7006753
00000000: ddca e73c 9054 db3d 7771 803f 1c16 083d
00000010: 8e68 b1bf 1ea0 903d 7a15 85be 55dd 843e
00000020: c406 853e 15a6 203f 576b f1be 485e 3fbf
00000030: 4635 123f fe9b ab3e 3c40 80be 81f5 05be
00000040: 1a8f 0c3e 20af 713f f09c b6bf 002a d0be
00000050: 6cef 9e3f 6c5c 06bf 0e29 2abf 56af 1b3e
00000060: 0505 21bf cb1b 20be a58d 463e 0979 0d3d
00000070: e281 b03c 2c38 2b3f a2d2 acbe 18d1 46bf
00000080: 69de 3abf 3176 523f 80c9 10be 7dfe 06bf
00000090: a0f0 82be a5cc 31be 9413 613e bc72 99bf
000000a0: 9906 3c3e 9850 38be 4b91 52bf c7cc 87be
000000b0: 6367 cd3d 6460 a7be 4b78 0a3f 7f90 a1be
000000c0: 3f9d 2c3f 345f b43e 28c4 f4be a199 ea3e
000000d0: 5824 723f 96c1 17be aac0 4f3e 5347 803e
000000e0: de9c 06bd 61cb 36bf 65b5 393e 9a74 34bf
000000f0: c09f 62be 9306 b9be 1903 543e 6b25 d4be
00000100: 2266 fdbd 9976 563e 9320 e9be 0e93 6f3e
00000110: 17ec 64be 2782 10be 151a 9cbd dc1e 153e
00000120: fc58 fcbe 65cb c3be 947e f63e 0e32 24bf
00000130: c1e1 803e de2b bf3e 23a6 efbe 4bb9 563b
00000140: 5ec4 503e 1fb4 303e 1f2e 1bbd f9a7 a2bd
00000150: 25eb e63d ba0c d63e 0b1c df3e bcec 9fbe
00000160: 00bc 913d 64ea 50be da94 c2bd 1f90 fabe
00000170: 64cc 7fbf 318a 243d 5ad1 17bf a7fa b83e
00000180: 636e 773d fe38 953e 123f 36be 7b9b 5d3f
00000190: 582c c4be 0de7 803e 8f16 ca3e f936 9a3e
000001a0: bc45 ad3e 626a 843f 07c5 513a 2a40 213d
000001b0: 40f5 43bc 3aaa c53e d057 b5be b815 ed3d
000001c0: d7cb 2fbf f3cf 95be f936 8bbc c406 f4be
000001d0: decc 813e 217c 88be 6ce8 193f b3f0 3dbe
000001e0: d117 543f b16a 61bd d36e d63e f979 cd3d
000001f0: 566a f53e 4772 043f 4b51 54be 755f 33bf

bn1.running_var f4 [128]
0.83265525 1.2638781 1.1546408 3.0694683 0.5996986 1.5239451 0.73186046 0.40339074
0.93358195 1.9637295 0.51620686 0.43785283 2.7396696 1.2720958 0.4057252 2.3392067
3.046083 2.7955873 1.4431522 0.32854196 1.2730062 0.3904744 1.408457 2.19508
0.97700864 0.1946693 0.9561572 0.4788891 1.4734627 0.6906909 0.51035553 1.2126783
0.28446257 2.3684433 0.5725509 1.2363099 0.6242091 0.4014288 0.7010455 1.0806205
0.68854797 0.59857506 1.1780457 0.6137356 0.5623227 0.9778039 1.7337874 0.8618916
0.4319556 1.0013456 0.55516076 3.015487 1.7932417 0.4767778 0.2516933 0.29398325
0.5791054 1.1080265 0.40639406 0.8877572 0.57766426 0.4482544 0.30990487 0.33012
1.9550151 0.7917764 0.33162487 1.059942 0.69616145 0.4074716 0.48476654 1.7002175
1.139812 0.9767764 0.54154205 0.9795996 1.2531686 0.5466618 0.76651645 1.4357599
0.20719494 0.5320844 1.3487469 3.4239724 0.4081922 1.7763641 0.41022637 0.7111009
0.36044946 0.8827969 1.6473426 0.89537907 0.5025385 0.9924588 0.26745942 1.1224782
1.1269838 0.32115677 0.8926098 1.2990794 1.393537 0.5162341 0.5636734 0.92283237
0.8437873 2.515639 0.45081297 0.87102693 0.36216915 1.029355 0.6181343 0.68607706
0.7595617 0.453198 0.50364864 0.8825872 2.6076734 0.37358347 1.0398088 0.41730264
1.2714032 0.8206559 0.36617038 1.3284869 0.47878087 1.5445161 0.7683939 0.7656752
00000000: e528 553f c2c6 a13f 45cb 933f 2b72 4440
00000010: d985 193f a210 c33f 355b 3b3f 3b89 ce3e
00000020: 3aff 6e3f 7d5b fb3f 2226 043f 3f2e e03e
00000030: bf56 2f40 09d4 a23f 37bb cf3e 90b5 1540
00000040: 06f3 4240 e7ea 3240 36b9 b83f a736 a83e
00000050: def1 a23f 43ec c73e 5248 b43f 317c 0c40
00000060: 3d1d 7a3f 6457 473e b8c6 743f f430 f53e
00000070: 6d9a bc3f 1ed1 303f a9a6 023f 0b39 9b3f
00000080: 14a5 913e 9394 1740 b292 123f 673f 9e3f
00000090: 2bcc 1f3f 1388 cd3e b877 333f c651 8a3f
000000a0: ae44 303f 373c 193f 34ca 963f c71d 1d3f
000000b0: 61f4 0f3f 5b51 7a3f bfec dd3f eea4 5c3f
000000c0: 4929 dd3e 182c 803f 041f 0e3f bdfd 4040
000000d0: f288 e53f 381c f43e f2dd 803e f984 963e
000000e0: 4040 143f d0d3 8d3f e212 d03e 0e44 633f
000000f0: cee1 133f 9a81 e53e daab 9e3e 7d05 a93e
00000100: ef3d fa3f dcb1 4a3f bcca a93e 2eac 873f
00000110: a337 323f 1ea0 d03e 5233 f83e baa0 d93f
00000120: 5ce5 913f 050e 7a3f 80a2 0a3f 0ac7 7a3f
00000130: d467 a03f 07f2 0b3f 6c3a 443f fbc6 b73f
00000140: e92a 543e af36 083f bda3 ac3f 5d22 5b40
00000150: 91fe d03e e65f e33f 3109 d23e b50a 363f
00000160: d58c b83e fafe 613f 1fdc d23f 9037 653f
00000170: 5da6 003f c811 7e3f 71f0 883e 5ead 8f3f
00000180: 0141 903f a96e a43e 1382 643f 3c48 a63f
00000190: 6c5f b23f eb27 043f e64c 103f be3e 6c3f
000001a0: 7202 583f 3b00 2140 f5d0 e63e 9ffb 5e3f
000001b0: 3c6e b93e e8c1 833f 0d3e 1e3f bfa2 2f3f
000001c0: a372 423f 9109 e83e 1eef 003f 3cf1 613f
000001d0: 1fe4 2640 5546 bf3e 7418 853f b1a8 d53e
000001e0: 57bd a23f 8116 523f af7a bb3e dc0b aa3f
000001f0: c422 f53e b4b2 c53f 76b5 443f 4a03 443f

fc2.weight f4 [128, 128]
-0.23411958 -0.21342507 0.14908035 0.036594942 0.25931072 -0.07803087 0.2372025 -0.08164326
0.05215091 -0.22027124 0.03719199 -0.11054525 0.105579995 0.14410885 0.07117233 -0.08343736
-0.25768262 0.06776717 -0.32445422 0.21089992 -0.22158523 0.06201841 0.37894464 -0.23370554
0.20419113 0.15887555 -0.019373389 0.15942287 0.10927177 0.05103398 -0.24893686 -0.15443759
-0.077151515 -0.3228068 0.12797122 -0.10559359 0.015437264 -0.018597944 0.019850634 -0.15634894
-0.14351898 -0.026600009 0.22902864 -0.24096122 -0.2993813 -0.061526813 -0.09963921 0.1858991
0.20059338 -0.22465926 -0.0439513 0.0653142 -0.242212 0.13559988 0.2929975 0.013076565
0.5923669 -0.04692577 -0.04989793 0.0220565 -0.15248121 -0.09384635 -0.25630152 -0.09495143
0.0012551224 0.097397685 0.016744433 -0.11680437 0.13612702 0.1791895 0.06892208 0.06741686
-0.013010656 0.04216971 -0.1765148 -0.3853235 0.20402312 -0.29988155 0.217961 -0.0080408985
0.10897461 -0.2342778 -0.20734388 -0.0026703896 -0.005527521 -0.073572 -0.06143475 0.009795727
0.21133904 -0.1456145 0.13305528 0.019533852 0.27287245 -0.20175202 0.20489056 0.15422797
-0.16162024 -0.59251523 0.17730929 -0.30509007 0.03433164 -0.2513313 -0.101067096 -0.11702784
-0.04807658 -0.034759685 -0.05456708 -0.26786613 -0.22219755 -0.16618162 0.09650801 0.119983956
0.13279806 0.11598106 0.110567555 0.089807056 -0.10186499 0.086752616 0.0775163 0.070722945
0.050817657 0.09071879 0.09651376 0.07475335 0.2535301 -0.012140579 -0.17857628 0.09897527
-0.14417623 -0.17851621 -0.09736428 -0.38259906 -0.013140831 0.007122701 -0.268922 0.003886302
0.18055329 0.15612896 -0.14179029 0.007234277 -0.34374514 0.20363799 0.07635418 -0.31118804
0.1689638 -0.007851099 0.4673494 0.08981967 0.084207855 -0.22631153 0.15164748 -0.1363488
0.33714452 -0.15476592 0.17710626 0.11870384 -0.050444704 -0.14930537 -0.38222572 -0.24729192
-0.11419841 -0.14349064 -0.1510293 -0.5538905 -0.16979901 -0.3511782 0.21605046 0.17724448
0.03713451 -0.28249276 0.068494864 -0.018931432 0.019352555 -0.44955307 -0.1105042 -0.30030376
-0.3782945 0.23351786 0.23688422 -0.14509992 -0.3774178 -0.003586242 -0.21627767 -0.0063207666
-0.43620497 -0.42229894 -0.17670926 0.19925945 -0.06144907 -0.1582846 0.13420154 0.20062073
-0.3078396 -0.2160006 0.0348833 0.044676147 0.041123018 -0.3445515 -0.2878776 -0.34607965
0.027053775 -0.118206225 0.026937954 -0.07185817 0.21170288 -0.19223523 -0.27647567 0.102783434
-0.39285362 0.070484385 -0.12072515 0.1704802 -0.02507195 -0.010936642 0.051395863 0.0036360223
0.080520414 0.21130076 0.5951045 0.28411207 0.13705954 0.123827375 0.091134086 0.06918936
0.073456906 0.2695522 0.33562165 0.110683195 -0.10245925 -0.0140806055 -0.1735019 0.12139635
-0.139128 -0.30921426 -0.27122384 -0.05327411 0.18800862 -0.043279406 -0.08720859 -0.41132736
-0.04186438 0.169961 0.10938049 -0.0992635 0.219523 0.20790586 -0.331528 0.019166674
0.052997164 -0.2553621 0.14434683 -0.0056004594 -0.05465498 0.059301995 -0.3039211 0.12747483
00000000: 0bbd 6fbe 1a8c 5abe 85a8 183e 94e4 153d
00000010: 60c4 843e a6ce 9fbd 36e5 723e 9534 a7bd
00000020: 319c 553d c98e 61be a156 183d 8c65 e2bd
00000030: 533a d83d 4591 133e ccc2 913d 35e1 aabd
00000040: faee 83be 84c9 8a3d dd1e a6be 26f6 573e
00000050: 3de7 62be 0407 7e3d 0805 c23e 8150 6fbe
00000060: 7b17 513e 46b0 223e f1b4 9ebc c03f 233e
00000070: e1c9 df3d 0209 513d 4ee9 7ebe e324 1ebe
00000080: 9d01 9ebd ef46 a5be e30a 033e 7441 d8bd
00000090: 94ec 7c3c b75a 98bc cc9d a23c f019 20be
000000a0: a4f6 12be 43e8 d9bc 7c86 6a3e 8abe 76be
000000b0: 8148 99be 8a03 7cbd a40f ccbd 555c 3e3e
000000c0: 5a68 4d3e 140d 66be 4706 34bd 74c3 853d
000000d0: 6c06 78be b2da 0a3e c503 963e 173f 563c
000000e0: 5ba5 173f 3c35 40bd c661 4cbd d5af b43c
000000f0: 0924 1cbe 8432 c0bd f439 83be e575 c2bd
00000100: eb82 a43a 7078 c73d 9f2b 893c 2137 efbd
00000110: e264 0b3e 747d 373e 0527 8d3d da11 8a3d
00000120: a62a 55bc 25ba 2c3d 4cc0 34be 1f49 c5be
00000130: 70eb 503e 138a 99be 2b31 5f3e f9bd 03bc
00000140: 152e df3d 85e6 6fbe f451 54be b401 2fbb
00000150: 3520 b5bb ebac 96bd 01a3 7bbd 427e 203c
00000160: 4369 583e f81b 15be a53f 083e 7505 a03c
00000170: f0b5 8b3e 1598 4ebe d5ce 513e f0ed 1d3e
00000180: c77f 25be 14af 17bf 9190 353e c434 9cbe
00000190: 559f 0c3d 7fae 80be 44fc cebd 4bac efbd
000001a0: f3eb 44bd 2c60 0ebd bb81 5fbd c025 89be
000001b0: c187 63be 842b 2abe fea5 c53d 26ba f53d
000001c0: 37fc 073e 7a87 ed3d 3e71 e23d c3ec b73d
000001d0: 989e d0bd 5bab b13d dec0 9e3d 31d7 903d
000001e0: 2d26 503d c6ca b93d 02a9 c53d 4918 993d
000001f0: b3ce 813e 47e9 46bc b3dc 36be 8cb3 ca3d
00000200: efa2 13be f4cc 36be ec66 c7bd 06e4 c3be
00000210: a44c 57bc 8c65 e93b 25b0 89be 54b1 7e3b
00000220: f6e2 383e 45e0 1f3e 7931 11be 840d ed3b
00000230: 5dff afbe 7a86 503e 955f 9c3d 0a54 9fbe
00000240: d904 2d3e e5a1 00bc 6c48 ef3e 60f3 b73d
00000250: 2b75 ac3d 36be 67be 7a49 1b3e 059f 0bbe
00000260: 359e ac3e f57a 1ebe 585b 353e 001b f33d
00000270: 1b9f 4ebd 82e3 18be 17b3 c3be 183a 7dbe
00000280: dbe0 e9bd 36ef 12be 6da7 1abe c5cb 0dbf
00000290: cbdf 2dbe a1cd b3be 553c 5d3e 947f 353e
000002a0: 5b1a 183d e4a2 90be 0947 8c3d 1716 9bbc
000002b0: 4089 9e3c d22b e6be 0750 e2bd 6ac1 99be
000002c0: d1af c1be 4e1f 6f3e c791 723e 1395 14be
000002d0: e83c c1be 2807 6bbb e577 5dbe 6f1e cfbb
000002e0: 4256 dfbe 9137 d8be 46f3 34be ab0a 4c3e
000002f0: 05b2 7bbd 5c15 22be 216c 093e 856f 4d3e
00000300: 279d 9dbe 432f 5dbe cbe1 0e3d 56fe 363d
00000310: 9c70 283d 0e69 b0be b164 93be 5a31 b1be
00000320: e19f dd3c 1b16 f2bd fcac dc3c 602a 93bd
00000330: a4c8 583e 50d9 44be 388e 8dbe 1f80 d23d
00000340: 1c24 c9be 1e5a 903d bf3e f7bd 5d92 2e3e
00000350: b163 cdbc 9a2f 33bc 7884 523d 554a 6e3b
00000360: e3e7 a43d 3a5f 583e c558 183f 2377 913e
00000370: 5659 0c3e 3599 fd3d 82a4 ba3d 27b3 8d3d
00000380: 9370 963d bf02 8a3e 9ad6 ab3e dfad e23d
00000390: 28d6 d1bd 57b2 66bc 7baa 31be a69e f83d
000003a0: 9277 0ebe 5551 9ebe dadd 8abe f435 5abd
000003b0: 5585 403e bf45 31bd 6b9a b2bd 8099 d2be
000003c0: fc79 2bbd 420a 2e3e e102 e03d a94a cbbd
000003d0: a3ca 603e 46e5 543e 0abe a9be 6e03 9d3c
000003e0: 8e13 593d d2be 82be a8cf 133e 0f84 b7bb
000003f0: e6dd 5fbd a6e6 723d 8c9b 9bbe c388 023e

fc2.bias f4 [128]
-0.124089114 -0.008780578 0.0007495133 -0.040399943 0.06493019 -0.15916033 -0.13738784 -0.1418368
0.14505489 -0.18329811 -0.024977164 0.020022288 -0.13971893 -0.022159653 -0.12610628 -0.11640665
-0.08675706 0.03377804 -0.09720646 0.15116207 0.07619057 -0.28380328 -0.111206375 -0.04022347
-0.11791426 0.00664122 0.10479917 0.008085505 -0.28230646 -0.21511658 -0.07298664 -0.05801032
0.049942557 -0.025851205 -0.053218856 -0.06884996 -0.010318715 -0.015358374 0.04541025 -0.19763851
-0.120012574 -0.149289 -0.0061781625 -0.1310257 0.011295418 -0.14722492 -0.0864596 -0.031058645
0.1381784 0.12213294 -0.03221694 0.013577618 -0.22516908 -0.11359965 -0.17742139 -0.27882084
-0.08248977 0.07399907 -0.006247715 -0.14158517 -0.08264001 0.010016713 0.07264008 0.17540643
-0.12470287 -0.0041432744 -0.22883347 0.07003369 0.12564236 -0.04765574 -0.056104876 -0.07156917
-0.044191856 0.04300903 -0.16152088 -0.13918415 -0.18316111 -0.14286523 -0.1023266 0.05574584
0.22360006 -0.17145236 -0.076002374 -0.08353986 0.085489966 -0.04822337 0.06263896 -0.07560698
0.19020538 -0.1406908 -0.023209535 -0.1638413 -0.0052529937 -0.21001716 0.073820174 0.16282718
-0.14230208 0.18723732 0.08526191 -0.12474536 0.030491494 0.06674257 -0.29677472 -0.046030972
0.06816317 -0.076235615 0.012130388 -0.3983961 0.021083828 -0.12878042 0.17909478 0.19680949
0.006783439 0.0667273 0.16771778 -0.12818392 -0.019505562 -0.00845473 -0.04514081 0.049928088
-0.019900694 -0.20256105 0.009690101 -0.06458927 0.060576715 0.07653235 -0.077027224 0.009868566
00000000: 6f22 febd 6adc 0fbc fc7a 443a 697a 25bd
00000010: 1ffa 843d edfa 22be 66af 0cbe ab3d 11be
00000020: 4589 143e 80b2 3bbe e99c ccbc c805 a43c
00000030: 7b12 0fbe 2988 b5bc 0122 01be 9c66 eebd
00000040: afad b1bd d85a 0a3d 2e14 c7bd 3bca 1a3e
00000050: cd09 9c3d aa4e 91be 2bc0 e3bd 5ec1 24bd
00000060: 087d f1bd 979e d93b f2a0 d63d 1179 043c
00000070: 798a 90be 8547 5cbe 057a 95bd 3b9c 6dbd
00000080: 9190 4c3d e8c5 d3bc 04fc 59bd 3501 8dbd
00000090: d40f 29bc b1a1 7bbc 1900 3a3d c061 4abe
000000a0: 27c9 f5bd 37df 18be 2f72 cabb 9a2b 06be
000000b0: 6b10 393c 21c2 16be bb11 b1bd b36e febc
000000c0: a37e 0d3e d620 fa3d e9f5 03bd a874 5e3c
000000d0: b992 66be efa6 e8bd f4ad 35be 9bc1 8ebe
000000e0: 66f0 a8bd d38c 973d a2b9 ccbb b4fb 10be
000000f0: 2a3f a9bd 241d 243c 52c4 943d be9d 333e
00000100: 3864 ffbd 4ec4 87bb 5253 6abe d36d 8f3d
00000110: 64a8 003e aa32 43bd 3ace 65bd db92 92bd
00000120: 8502 35bd 3d2a 303d bb65 25be 4a86 0ebe
00000130: 968e 3bbe 434b 12be 9c90 d1bd c055 643d
00000140: 6af7 643e 3591 2fbe 22a7 9bbd f216 abbd
00000150: 5d15 af3d de85 45bd db48 803d d5d7 9abd
00000160: 33c5 423e 4011 10be ec21 bebc 04c6 27be
00000170: 4e21 acbb bd0e 57be 082f 973d 2bbc 263e
00000180: a3b7 11be 24bb 3f3e cc9d ae3d 7f7a ffbd
00000190: 4cc9 f93c 54b0 883d dbf2 97be f98a 3cbd
000001a0: 2299 8b3d 6b21 9cbd 89be 463c 93fa cbbe
000001b0: feb7 ac3c 04df 03be 9f64 373e 6d88 493e
000001c0: 9c47 de3b 53a8 883d 36be 2b3e a542 03be
000001d0: 21ca 9fbc b585 0abc 92e5 38bd 6581 4c3d
000001e0: c806 a3bc 2a6c 4fbe 3bc3 1e3c 6147 84bd
000001f0: 4a1f 783d febc 9c3d 73c0 9dbd c4af 213c

fc3.weight f4 [4, 128]
-0.23417182 -0.47875866 0.1945544 -0.34334797 0.01391208 0.28255382 -0.35554302 0.7464035
0.2243409 0.09164027 -0.58885133 0.57018536 -0.62375194 0.61994743 -1.0528398 0.028500674
-0.5890757 0.4190334 0.55215853 0.15821998 -0.6809651 0.07220045 0.35465026 -0.012540924
1.1520953 0.2402971 -0.22136244 -0.37791395 1.0225085 0.43080625 0.061232712 0.1897818
-0.4839753 0.10351439 0.6735638 -0.030080575 -0.7848729 -0.28362978 0.5080401 0.38912314
0.3588847 -0.28765956 0.41812083 -0.799909 -0.2728742 -0.70606023 1.00601 -0.6026274
-0.40124786 0.0067666816 0.37721735 -0.38843086 -0.28009224 -0.10838962 -0.6023706 -1.0065953
0.3978035 -0.59697884 0.004979919 -0.28622684 0.023289744 -0.34297764 0.3282855 0.120399244
-0.0028638388 -0.66724676 0.16460787 -0.18281493 0.06380634 -0.10285559 0.8320485 -0.6923188
0.02739595 0.03606648 0.7637785 0.96649987 0.3227496 0.64004135 -0.10315247 1.0467087
-0.11257727 1.3382783 0.119747825 0.032210406 0.47843662 0.52397496 0.2749195 0.8010675
0.35620114 0.9043911 0.0077099926 -0.009825398 -0.5082673 -0.518132 1.0488832 0.82395226
0.005288955 -0.5731329 -0.54051924 -1.1590923 -0.49826792 -0.28511068 0.031190254 0.15363649
-0.46398535 0.81332755 1.0205716 0.66231054 -0.4555375 0.4582295 -0.45030057 -0.6670989
-0.033630244 1.2411978 0.16834126 0.053637087 0.15600303 -0.8808927 0.019566951 0.37981877
-0.8885178 0.2613843 -0.28725144 -0.7484297 -0.42455983 0.47159475 0.17941456 0.29916093
-0.06390197 -0.43162218 0.6169258 1.3137403 -0.1743208 -0.05663156 1.1026212 -0.015078573
-0.67618024 -0.5344612 -0.1788205 -0.18467985 0.10475661 -0.6942521 0.47141427 1.1612794
-0.41042894 -0.35347342 -0.5576949 -0.9031339 0.14367361 -0.6122931 -0.014665504 -0.4844217
0.44395626 0.29127792 0.12732358 -0.46739465 0.37414703 0.25894308 0.01789616 0.16048416
-0.059492588 0.4451012 -0.8086466 0.81060404 -0.7847832 -0.64454323 0.11761759 -0.082342446
-0.24507289 -0.069550835 -0.20485933 0.45417175 -0.4449449 -0.12141788 0.3940765 0.65434325
-0.26113054 -0.41451764 -0.7579122 -0.55402714 0.4297956 -0.5767378 -0.51893336 -0.604654
-0.50660694 0.0137042655 0.15490289 -0.2700287 -0.024761394 0.6707608 -0.7395791 -0.42514884
1.1336544 -0.2743732 -0.3954718 0.99827445 0.953748 0.2141036 0.5021502 0.31229323
-0.061666466 -0.35525796 0.61079156 0.51596034 -0.8104914 0.78525054 -0.49746832 -0.361485
-0.655355 0.10644964 0.14199647 -0.04482843 -1.0049751 -0.574246 0.9932745 0.053182863
-0.26127902 -1.0838466 -0.7398917 -0.680265 -0.62311673 -0.013829499 -0.57652456 -0.069947176
0.6993224 0.6198469 0.4236903 0.31948957 0.21686502 -0.7751491 0.8792372 -1.0950378
-0.32639027 -0.22738115 -0.062613554 0.9825218 0.28652477 0.14915438 -0.53409034 0.3040598
1.1177107 -0.2034348 0.273064 -0.020445384 -0.31762016 0.14832605 -0.2616349 0.09325394
-0.61295784 1.5219018 0.97432476 -0.3009905 -0.21353163 0.13451159 0.29744935 1.1891736
00000000: bdca 6fbe db1f f5be 4539 473e 4ecb afbe
00000010: 7eef 633c e5aa 903e bc09 b6be 4d14 3f3f
00000020: 9fb9 653e e5ad bb3d f6be 16bf abf7 113f
00000030: 35ae 1fbf e0b4 1e3f 74c3 86bf 3f7a e93c
00000040: aacd 16bf 8c8b d63e 435a 0d3f 6b04 223e
00000050: bb53 2ebf d4dd 933d b894 b53e 7378 4dbc
00000060: dc77 933f 7110 763e d6ac 62be f07d c1be
00000070: 8fe1 823f a392 dc3e 27cf 7a3d 2956 423e
00000080: 9ccb f7be 5aff d33d ad6e 2c3f 8a6b f6bc
00000090: 6eed 48bf ec37 91be ea0e 023f 263b c73e
000000a0: bcbf b73e 1d48 93be ef13 d63e d6c6 4cbf
000000b0: 2bb6 8bbe 5dc0 34bf f0c4 803f ca45 1abf
000000c0: 5c70 cdbe 0abb dd3b a222 c13e 69e0 c6be
000000d0: 4068 8fbe 61fb ddbd f634 1abf 1dd8 80bf
000000e0: e6ac cb3e 9bd3 18bf 972e a33b 538c 92be
000000f0: 22ca be3c c49a afbe 0915 a83e e193 f63d
00000100: 3eaf 3bbb afd0 2abf f78e 283e d633 3bbe
00000110: e6ac 823d f4a5 d2bd 2101 553f ce3b 31bf
00000120: 796d e03c 72ba 133d fd86 433f 896c 773f
00000130: 703f a53e c0d9 233f 9a41 d3bd 8dfa 853f
00000140: e98e e6bd b44c ab3f 593e f53d 0fef 033d
00000150: a5f5 f43e 3923 063f 40c2 8c3e c212 4d3f
00000160: ff5f b63e 2d86 673f 1ba4 fc3b b5fa 20bc
00000170: ce1d 02bf 4ca4 04bf ce41 863f 89ee 523f
00000180: f84e ad3b d6b8 12bf 785f 0abf 235d 94bf
00000190: f91c ffbe 07fa 91be b482 ff3c e252 1d3e
000001a0: 7d8f edbe 3c36 503f 17a2 823f 2f8d 293f
000001b0: 363c e9be 0f9d ea3e cc8d e6be fec6 2abf
000001c0: debf 09bd 92df 9e3f a761 2c3e 90b2 5b3d
000001d0: 42bf 1f3e 2f82 61bf df4a a03c 9b77 c23e
000001e0: e775 63bf 2ad4 853e 9f12 93be 1799 3fbf
000001f0: e85f d9be de74 f13e 73b8 373e 9f2b 993e
00000200: 09df 82bd 95fd dcbe d9ee 1d3f a428 a83f
00000210: 2781 32be 7ff6 67bd b122 8d3f 1e0c 77bc
00000220: 261a 2dbf 73d2 08bf b91c 37be b71c 3dbe
00000230: a28a d63d 81ba 31bf 365d f13e cea4 943f
00000240: be23 d2be 78fa b4be 18c5 0ebf c933 67bf
00000250: 2d1f 133e 3ebf 1cbf 9547 70bc 1f06 f8be
00000260: 3c4e e33e 6122 953e 1d61 023e 5a4e efbe
00000270: 3390 bf3e 3094 843e f89a 923c f655 243e
00000280: 80ae 73bd 4ee4 e33e 7703 4fbf bf83 4f3f
00000290: 8de7 48bf c900 25bf 7ee1 f03d 28a3 a8bd
000002a0: 63f4 7abe ab70 8ebd a5c6 51be 3389 e83e
000002b0: d1cf e3be f0a9 f8bd 65c4 c93e 0a83 273f
000002c0: e7b2 85be a83b d4be 8906 42bf b9d4 0dbf
000002d0: 2b0e dc3e 17a5 13bf d1d8 04bf 9bca 1abf
000002e0: feb0 01bf db87 603c dd9e 1e3e 3441 8abe
000002f0: 68d8 cabc fbb6 2b3f 0e55 3dbf 1cad d9be
00000300: 961b 913f a57a 8cbe 487b cabe ea8e 7f3f
00000310: d428 743f f93d 5b3e ea8c 003f e6e4 9f3e
00000320: fa95 7cbd 5fe4 b5be d65c 1c3f fa15 043f
00000330: 5d7c 4fbf 2e06 493f 2bb4 febe 9014 b9be
00000340: 58c5 27bf 4502 da3d 8667 113e 049e 37bd
00000350: 06a3 80bf c901 13bf 3d47 7e3f 46d6 593d
00000360: 5dc6 85be 7cbb 8abf 8b69 3dbf d925 2ebf
00000370: 9484 1fbf 1f95 62bc 1d97 13bf 7740 8fbd
00000380: cb06 333f 49ae 1e3f efed d83e 2394 a33e
00000390: dd11 5e3e 2c70 46bf b015 613f 332a 8cbf
000003a0: a01c a7be 9bd6 68be 893b 80bd 8c86 7b3f
000003b0: 60b3 923e edbb 183e 25ba 08bf baad 9b3e
000003c0: 2511 8f3f 3651 50be 0bcf 8b3e 147d a7bc
000003d0: 1c9f a2be c9e2 173e 02f5 85be ecfb be3d
000003e0: ceea 1cbf aecd c23f 596d 793f 6d1b 9abe
000003f0: 09a8 5abe 68bd 093e 484b 983e d736 983f

fc3.bias f4 [4]
0.048127454 0.008651004 0.013755576 0.13619392
00000000: 4b21 453d f1bc 0d3c 115f 613c 6b76 0b3e
